Models/05-04-2023-00-12-45/model_CNN_SGD.pth (torch, 250951 bytes, 10 tensors)

conv1.weight f4 [6, 3, 5, 5]
0	0x3ddf5020	0.109039545
1	0xbda15f42	-0.07879497
2	0xbc41e198	-0.011833571
3	0xbd0ffe42	-0.03515459
4	0xbd892748	-0.066969454
5	0x3c2fe990	0.010736838
6	0x3db4acd8	0.0882203
7	0x3de35f20	0.11102128
8	0xbcd5a1e8	-0.02607818
9	0xbd264754	-0.040595368
10	0xbd9e835a	-0.07739897
11	0x3d8dc9a6	0.06923227
12	0xbdd3231f	-0.10309433
13	0xbcb3c5f8	-0.021944985
14	0x3de2b8c8	0.110704005
15	0x3db676b8	0.089093626
16	0xbca2f754	-0.019893326
17	0x3d9bbb2e	0.07604061
18	0x3cd54a48	0.026036397
19	0x3ddf291e	0.10896514
20	0x3d984146	0.07434325
21	0x3ddc2bfa	0.10750575
22	0xbc8cba6c	-0.017178737
23	0x3de68308	0.11255461
24	0x3cc93180	0.024559736
25	0xbd197bfa	-0.03747175
26	0x3d1ce794	0.038306788
27	0xbdcd6938	-0.100298345
28	0x3d9a5f8e	0.07537757
29	0x3dce9c2e	0.10088383
30	0xbd5e090f	-0.054207858
31	0xbdbcf418	-0.09226245
32	0x3bda27e0	0.0066575855
33	0xbd2c143a	-0.042011477
34	0xbda9a663	-0.08283689
35	0x3dcf71da	0.10129137
36	0x3d843e28	0.06457168
37	0xbde4199c	-0.11137697
38	0x3cdc7e20	0.02691561
39	0x3d00dc88	0.031460315
40	0xbc9f751c	-0.019465022
41	0xbd9c53f7	-0.076332025
42	0xbd9822cd	-0.07428513
43	0xbde194da	-0.11014719
44	0xbcdbcca4	-0.026830979
45	0x3ddcbc28	0.107780755
46	0xbdb4a518	-0.08820552
47	0x3d9aaa46	0.07552008
48	0x3c0ead30	0.008708283
49	0x3db3248a	0.08747204
50	0x3db8970c	0.09013185
51	0xbcc38568	-0.023867324
52	0x3dc80532	0.09766616
53	0x3cba5680	0.022746325
54	0xbcca8994	-0.024723805
55	0xbdce490b	-0.100725256
56	0xbdaa08b8	-0.08302444
57	0x3d275800	0.040855408
58	0xbbf107a0	-0.0073556453
59	0xbd3576a8	-0.044302613
60	0x3db775a0	0.08957982
61	0xbdba16c0	-0.090863705
62	0xbd191cbe	-0.037380926
63	0xbdd4d972	-0.10393037
64	0xbdc92e75	-0.09823314
65	0xbd4d8bfe	-0.050182335
66	0xbdc26225	-0.09491376
67	0x3d6afedc	0.05737196
68	0xbde8c35a	-0.11365385
69	0x3d9c0c5c	0.07619545
70	0x3c862a78	0.016377673
71	0x3dc28922	0.09498812
72	0xbdc14080	-0.094361305
73	0xbdcccbe8	-0.099998295
74	0xbd780a2e	-0.060556583
75	0xbd0eb84c	-0.034843728
76	0xbd298782	-0.041388996
77	0xbd61784e	-0.055046372
78	0xbda5f5c0	-0.08103514
79	0x3dd3fe38	0.10351223
80	0x3a096a80	0.0005242005
81	0x3cff7580	0.031183958
82	0xbd4adb62	-0.049525626
83	0xbd9b7592	-0.07590784
84	0x3de4dac0	0.11174536
85	0xbd4de084	-0.050262943
86	0x3da79c24	0.08184078
87	0xbcfbe894	-0.03075055
88	0xbda1252a	-0.078684166
89	0xbdcbe2c6	-0.09955363
90	0xbdb8a341	-0.09015513
91	0x3dbd9b54	0.09258142
92	0x3dd35072	0.10318078
93	0xbddebc9d	-0.10875819
94	0x3ddf8e92	0.10915865
95	0x3ca8d6f0	0.020610303
96	0x3dac59a4	0.08415535
97	0x3d9130a8	0.070893586
98	0xbc422f78	-0.011852138
99	0xbd2cdfce	-0.042205624
100	0x3d3142a4	0.043276444
101	0xbd1893d0	-0.03725034
102	0xbcb89c4c	-0.022535466
103	0x3d8b1a32	0.06792106
104	0x3d96f226	0.07370405
105	0xbdca1126	-0.09866552
106	0x3da42cb2	0.080163375
107	0xbd84b845	-0.06480459
108	0x3d98aa82	0.07454397
109	0xbd5edea6	-0.054411553
110	0xbd948cee	-0.07253443
111	0x3da95efc	0.0827007
112	0xbda9dd36	-0.08294146
113	0x3dc7b1a2	0.09750678
114	0xbdae8a6c	-0.085224956
115	0x3d2b2788	0.041785747
116	0xbd878f0a	-0.066190794
117	0xbb9f7b90	-0.0048670247
118	0x3da3e6de	0.08003019
119	0x3d492478	0.049107045
120	0x3d46c5d0	0.048528492
121	0x3cfb4a38	0.030675039
122	0xbb4dc1c0	-0.0031396002
123	0xbc8cf920	-0.017208636
124	0x3d1f6734	0.03891678
125	0x3d94f0aa	0.072724655
126	0x3de7d684	0.113202125
127	0xbcc24ec4	-0.023719199
128	0xbde2f2e8	-0.11081487
129	0x3b084000	0.00207901
130	0x3deb8c5a	0.11501379
131	0x3de1f726	0.11033468
132	0xbd55d89c	-0.052208528
133	0xbd273686	-0.040823482
134	0x3c2b5190	0.010456458
135	0xbc51bef8	-0.012801878
136	0xbd318fde	-0.043350093
137	0x3cf2e468	0.029649928
138	0xbd6648c2	-0.05622173
139	0x3cc67950	0.024227768
140	0xbd9383b4	-0.07202855
141	0x3d16be20	0.03680241
142	0xbddd6a5d	-0.10811303
143	0x3ddb5fbc	0.10711619
144	0xbcd2b9e0	-0.025723398
145	0xbdc638b1	-0.09678782
146	0x3ca178b8	0.019710883
147	0x3d29e504	0.041478172
148	0x3cb73330	0.022363275
149	0xbd8f3860	-0.069931746
150	0xbdaf50f9	-0.08560366
151	0xbd1400ee	-0.0361337
152	0xbcb13e14	-0.021636046
153	0x3d79ca40	0.060983896
154	0x3d2171d4	0.039415196
155	0xbdc2709b	-0.09494134
156	0xbd96569a	-0.07340737
157	0x3de69746	0.11259322
158	0xbc93f8bc	-0.018062942
159	0xbdd278d6	-0.10276954
160	0xbde6a754	-0.11262384
161	0x3d81a652	0.06330551
162	0x3de1308c	0.10995588
163	0x3ce79430	0.028268903
164	0x3c4fa8b0	0.012674496
165	0xbde79e47	-0.11309486
166	0xbd3dc69c	-0.046331987
167	0xbd02cd6c	-0.031934187
168	0x3da7786e	0.08177267
169	0x3d08b730	0.033377826
170	0xbd0d7656	-0.034536682
171	0x3d6f1268	0.058367163
172	0xbdd1c111	-0.102419026
173	0xbda1af74	-0.07894793
174	0x3d4b5f7c	0.049651608
175	0xbd216444	-0.03940226
176	0x3d803dec	0.06261811
177	0xbd4cc9d4	-0.049997166
178	0xbb38b920	-0.0028186515
179	0xbc818e84	-0.015815027
180	0xbdd16a9e	-0.10225414
181	0xbd6c1851	-0.057640377
182	0x3deadc22	0.11467768
183	0xbd586324	-0.052828923
184	0xbd37186a	-0.044701017
185	0x3d5b219c	0.05349885
186	0xbda034a7	-0.07822543
187	0x3dc64e18	0.09682864
188	0xbde7f63e	-0.11326264
189	0x3cc37608	0.023859993
190	0x3d92ad0c	0.07161912
191	0xbc84c940	-0.016209245
192	0xbdbce4a1	-0.09223295
193	0xbac57fc0	-0.001506798
194	0x3de1a4b0	0.1101774
195	0x3d24dc44	0.040249124
196	0x3cca5f38	0.024703607
197	0x3cad2628	0.021136358
198	0x3dbec4fa	0.09314914
199	0xbdbd0057	-0.092285804
200	0xbd549154	-0.05189641
201	0x3dc0599e	0.09392093
202	0x3d890604	0.066906005
203	0xbde41551	-0.11136878
204	0xbdbfdd03	-0.093683265
205	0xbd95e74a	-0.073195055
206	0xbda5c224	-0.0809367
207	0xbdd0df56	-0.10198848
208	0xbcce9394	-0.025216855
209	0xbd97eb4a	-0.07417925
210	0xbdbd0137	-0.09228747
211	0xbbf5c750	-0.0075005665
212	0x3d8de83c	0.06929061
213	0x3d7bc85c	0.061470374
214	0x3d975ab2	0.07390346
215	0xbd59ca7c	-0.05317162
216	0xbd160f92	-0.036635943
217	0xbc6c4d18	-0.014422677
218	0x3d72c128	0.05926624
219	0x3dcad6e2	0.09904267
220	0xbdd331d8	-0.10312241
221	0x3ca03da8	0.01956065
222	0xbbb9e800	-0.0056734085
223	0x3db8e8d6	0.09028785
224	0xbdb14578	-0.08655828
225	0x3d22b220	0.039720654
226	0xbda4bed8	-0.08044213
227	0xbd43f996	-0.047845446
228	0xbdc57295	-0.096409954
229	0xbda9b2a4	-0.08286026
230	0xbc782208	-0.015144832
231	0x3d1d8068	0.038452536
232	0x3a923e80	0.0011157542
233	0x3de11c84	0.10991767
234	0x3de06f20	0.109586954
235	0xbdb70d8d	-0.089381315
236	0x3cac10d8	0.021004125
237	0x3d798fc8	0.060928136
238	0xbc3682a8	-0.011139549
239	0x3c834c60	0.01602763
240	0x3bae52c0	0.005319923
241	0x3c8a7030	0.016899198
242	0x3c158bb0	0.009127542
243	0xbcb942d8	-0.022614881
244	0x3db13950	0.086535096
245	0xbdd9e139	-0.10638661
246	0x3dbaf798	0.09129256
247	0xbd751710	-0.059836447
248	0xbdd678a7	-0.10472231
249	0xbd2023b8	-0.039096564
250	0xbdc26afa	-0.094930604
251	0x3db2c130	0.08728254
252	0xbdc34f24	-0.09536579
253	0x3da0dff4	0.07855216
254	0x3da203bc	0.079108685
255	0x3cbeeec0	0.023307204

conv1.bias f4 [6]
0	0xbc512d30	-0.012767121
1	0xbd9d9bd8	-0.076957405
2	0xbdbe9d2b	-0.09307321
3	0x3c8ec888	0.017429605
4	0x3ca879b8	0.020565853
5	0x3d2bc098	0.04193172

conv2.weight f4 [16, 6, 5, 5]
0	0xbd56cf4e	-0.052443795
1	0xbaaceec0	-0.0013193712
2	0xbace2c00	-0.0015729666
3	0x3d9f0c04	0.07765964
4	0xbd4f89f7	-0.050668683
5	0xbd928c3a	-0.07155652
6	0xbd386870	-0.045021474
7	0x3d278de8	0.040906817
8	0x3d3ad7d4	0.045615986
9	0x3d828d14	0.06374565
10	0x3d3bf7c4	0.045890585
11	0x3da3b7ec	0.07994065
12	0x3d4dd598	0.050252527
13	0xba73db80	-0.00093024224
14	0x3cff457c	0.031161062
15	0x3c809d10	0.015699893
16	0xbd7a421f	-0.061098214
17	0xbd1365e1	-0.03598583
18	0x3cebd9a0	0.028790295
19	0x3d9fcdb8	0.078029096
20	0x3d63b9e8	0.055597216
21	0x3d4e04f4	0.050297692
22	0x3da6d52a	0.081461266
23	0x3c360270	0.01110898
24	0xbb455fa0	-0.0030116811
25	0xbca2afd6	-0.019859236
26	0x3d317336	0.043322764
27	0x3cb5adf0	0.022177666
28	0x3d78b8cc	0.06072311
29	0x3c1e4788	0.009660609
30	0xbcb3786e	-0.021908011
31	0xbd3b0b55	-0.045665104
32	0x3c957da0	0.01824838
33	0x3c7d8c48	0.01547534
34	0x3d8e71ba	0.06955285
35	0xbd8b732d	-0.068090774
36	0x3c8f96cc	0.01752796
37	0x3bf98220	0.007614389
38	0x3d26753c	0.040639147
39	0x3d2ccc6c	0.04218714
40	0xbd580492	-0.052738734
41	0x3d8818fc	0.066453904
42	0x3c6aa740	0.014322102
43	0x3bc69970	0.0060607716
44	0xbcf20f12	-0.029548202
45	0x3b244bc0	0.0025069565
46	0x3c72dc20	0.01482299
47	0x3d871a28	0.06596786
48	0xbd0dcaa5	-0.034617085
49	0x3c8b6b3c	0.017018907
50	0xbd687a82	-0.056757458
51	0x3d9a3704	0.07530025
52	0x3bffee70	0.0078104064
53	0xbd6a565d	-0.05721127
54	0x3d9020f6	0.07037537
55	0xbb19fda0	-0.002349712
56	0x3d904c1a	0.07045765
57	0x3ca48e04	0.02008725
58	0x3d9a6894	0.07539478
59	0xbd1765c7	-0.036962297
60	0xbd5a36c0	-0.05327487
61	0xbc9c40fc	-0.019073956
62	0x3d9462a8	0.0724538
63	0xbd8d8f97	-0.06912153
64	0x3cb7b9b0	0.02242741
65	0xbd7313c0	-0.059345007
66	0xbc92732c	-0.017877184
67	0x3bc8d100	0.0061284304
68	0xbd172659	-0.036901806
69	0x3c5f29c0	0.013620794
70	0xbd9133b0	-0.07089937
71	0x3c2cdf70	0.0105513185
72	0x3da3c8ae	0.07997261
73	0x3d7ee3fc	0.06222914
74	0xbd88150e	-0.06644641
75	0xbd163459	-0.036671016
76	0x3b8fd680	0.004389584
77	0xbc9e6ecc	-0.019339941
78	0x3d498d10	0.049206793
79	0xbc10ee60	-0.0088458955
80	0xbd9838c4	-0.07432702
81	0x3d870e8a	0.0659457
82	0x3d52afdc	0.051437244
83	0x3d3ab9f4	0.045587495
84	0x3d9b8474	0.07593623
85	0x3d84071c	0.064466685
86	0x3d487e58	0.048948616
87	0xbd74626e	-0.059664182
88	0xbb991360	-0.004671499
89	0xbc879940	-0.016552567
90	0xbd7da46c	-0.061924383
91	0x3d1fd826	0.039024495
92	0xbd6cc379	-0.057803605
93	0x3d847ffe	0.06469725
94	0x3d8e1892	0.0693828
95	0x3d21324a	0.0393546
96	0xbd467b18	-0.048457235
97	0xbc60f9a0	-0.01373139
98	0x3cbda848	0.023151532
99	0x3be0dfd0	0.006862618
100	0xbc9d28c4	-0.019184478
101	0x3d7123e8	0.058872133
102	0x3d769fa4	0.06021084
103	0x3d20a98c	0.039224193
104	0xbd64e2ec	-0.055880472
105	0xbd89c084	-0.067261726
106	0x3b4d4ee0	0.003132753
107	0xbd5bbde7	-0.053647902
108	0x3d4bfd1c	0.04980193
109	0xbd32c925	-0.043648858
110	0xbd20ef25	-0.039290566
111	0x3d53e9d8	0.051736683
112	0x3cf99254	0.030465282
113	0x3da09328	0.07840568
114	0x3d98627e	0.07440661
115	0xba109e00	-0.0005516708
116	0xbd93c0d9	-0.07214517
117	0xbda36473	-0.079781435
118	0xbb9cabb0	-0.004781209
119	0x3ccd9c50	0.02509895
120	0xbcf6e8b8	-0.030140266
121	0xbc4588d0	-0.012056544
122	0xbc11f630	-0.008908793
123	0x3ca01888	0.019542947
124	0xbd9287a3	-0.07154777
125	0xbd8f4935	-0.06996385
126	0xbda10331	-0.07861937
127	0x3b14fc40	0.002273336
128	0x3d4b5760	0.049643874
129	0xbd824766	-0.063612744
130	0xbce2fe64	-0.027709194
131	0x3cfad540	0.030619264
132	0xbbdb0ef0	-0.0066851303
133	0x3cb09a60	0.021557987
134	0x3c213210	0.009838596
135	0xbc6e57d8	-0.014547311
136	0xbc854d3c	-0.01627218
137	0x3c6988b0	0.01425378
138	0xbd9267ab	-0.07148679
139	0x3d9f5156	0.077791855
140	0x3cfedd54	0.031111397
141	0x3b860ff0	0.0040912554
142	0xbca286b6	-0.019839626
143	0x3c3d7e10	0.0115657
144	0xbd230c2f	-0.03980654
145	0xbd6b3022	-0.05741895
146	0x3cfca220	0.030839026
147	0x3d928422	0.071541086
148	0xbc37c868	-0.011217214
149	0xbd0ed84d	-0.03487425
150	0xbd089f54	-0.033355072
151	0x3c0d1348	0.008610554
152	0x3d207b72	0.039180227
153	0x3d645454	0.055744484
154	0x3d446818	0.047950834
155	0x3d82f224	0.06393841
156	0xbd917458	-0.07102269
157	0xbc85f8ac	-0.016353928
158	0xbd979f20	-0.074033976
159	0xbd2680f6	-0.04065033
160	0xbd77a580	-0.060460567
161	0xbd67eebc	-0.05662416
162	0x3d864976	0.0655698
163	0x3ba95f90	0.0051688626
164	0xbd9403b8	-0.07227272
165	0x3d040b6c	0.032237455
166	0x3c2faf28	0.010722913
167	0xbd9c4cf6	-0.07631867
168	0x3c8b2fb4	0.01699052
169	0xbced41ea	-0.028962094
170	0x3d9f842c	0.07788882
171	0xbd685c38	-0.05672857
172	0x3d5c5aec	0.053797647
173	0xbd48a3cd	-0.048984338
174	0x3da2aa56	0.07942645
175	0xbc98f704	-0.018672474
176	0xbd553054	-0.052048042
177	0xbc7836a8	-0.01514975
178	0xbd046bd4	-0.032329395
179	0xbd966bfc	-0.07344815
180	0xbca05420	-0.019571364
181	0x3d3c8884	0.04602863
182	0x3c333528	0.010937966
183	0x3cf8c330	0.03036651
184	0xbd6a9c4e	-0.05727797
185	0x3c99b694	0.018763818
186	0x3d3d6c20	0.046245694
187	0x3c395170	0.01131092
188	0x3cc8b004	0.024497993
189	0xbc2f9a10	-0.010717884
190	0x3d31374c	0.043265626
191	0xbd7c61f0	-0.061616838
192	0x3c041898	0.008062504
193	0x3c9bbc00	0.019010544
194	0xbbded290	-0.0068000033
195	0x3ca7a964	0.020466514
196	0xbcffd3f2	-0.031228993
197	0xbc2fc3b0	-0.010727808
198	0xbd2c9cdc	-0.04214178
199	0xbcfc8a1a	-0.03082757
200	0xbd8c0523	-0.06836917
201	0xba6cfa80	-0.0009040013
202	0x3c21a7c0	0.009866655
203	0xbd883d4d	-0.06652317
204	0x3d90a828	0.07063323
205	0x3d83e1ca	0.0643955
206	0x3d8672b6	0.06564848
207	0x3cb57678	0.022151217
208	0x3d31b6e4	0.04338731
209	0xbc590408	-0.01324559
210	0x3d3a07cc	0.045417592
211	0xbc9794b4	-0.018503524
212	0x3c9e7d3c	0.019346826
213	0x3d73cfdc	0.059524402
214	0xbc2de480	-0.010613561
215	0xbcab793a	-0.020931829
216	0x3d1524b2	0.03641195
217	0x3a5eee00	0.00085040927
218	0xbd5d48fc	-0.05402468
219	0x3af1cf40	0.0018448606
220	0xbcb824ec	-0.022478543
221	0xbd71d4d3	-0.059040856
222	0x3d0433f6	0.032276116
223	0x3bd87020	0.006605163
224	0xbca6f17a	-0.020378817
225	0x3d783a90	0.060602725
226	0x3cf95cac	0.030439697
227	0xbcac8e82	-0.021064047
228	0xbd4b73cc	-0.04967098
229	0x3c630ed0	0.013858512
230	0x3bf3e250	0.00744275
231	0x3d97fe7c	0.07421586
232	0xbd0145ea	-0.031560816
233	0xbca498d6	-0.02009241
234	0x3da38dac	0.07986006
235	0x3cd2c5ac	0.025729023
236	0xbc225e40	-0.009910166
237	0xbda59182	-0.08084394
238	0x3b409a20	0.002938874
239	0x3d8a7f6a	0.067625836
240	0xbb3d9b40	-0.0028931648
241	0xbb896750	-0.004193224
242	0x3caac890	0.020847589
243	0xbc67f488	-0.014157422
244	0xbc7ee2a8	-0.015556969
245	0x3d30f966	0.043206595
246	0xbc6e52a0	-0.0145460665
247	0xbcf5abe0	-0.029989183
248	0x3d05011a	0.032471754
249	0xbd8b288e	-0.067948446
250	0xbd8afa87	-0.067860655
251	0x3d173318	0.03691396
252	0x3c141d48	0.009040184
253	0xbd5db14a	-0.054124154
254	0x3c1805d0	0.00927873
255	0xbd19468a	-0.037420787

conv2.bias f4 [16]
0	0x3d997234	0.07492486
1	0xbc960f04	-0.018317707
2	0x3bbf9760	0.0058469027
3	0x3d6e4940	0.058175325
4	0xbd41a676	-0.04727789
5	0x3d9bd13a	0.07608266
6	0xbd633345	-0.055468816
7	0xbda590a3	-0.08084228
8	0x3da14f02	0.07876398
9	0xbc280ed0	-0.010257438
10	0xbb1f4340	-0.0024301559
11	0xbd392cf5	-0.04520889
12	0xbda10dd8	-0.078639686
13	0x3ca2584c	0.019817494
14	0x3d82c326	0.06384878
15	0x3da5e118	0.08099574

fc1.weight f4 [120, 400]
0	0xbcf752dd	-0.03019088
1	0xbcf0d790	-0.029399663
2	0x3d3ab9ff	0.045587536
3	0x3ce1f61a	0.02758317
4	0x3cd46e02	0.025931362
5	0xbcadc053	-0.021209871
6	0x3c94ffb2	0.018188331
7	0xbc1d7a40	-0.009611666
8	0x3cf1ba7e	0.029507872
9	0x3cca66fe	0.024707314
10	0x3d39dc99	0.045376394
11	0xbc832f5c	-0.016013794
12	0x3cfaa5da	0.030596662
13	0x3c823662	0.015895072
14	0xbcc7c557	-0.024386091
15	0x3d2afeaf	0.04174679
16	0xbd408d68	-0.047009856
17	0x3c9d4582	0.019198183
18	0xbc722888	-0.014780171
19	0x3cf810b2	0.030281398
20	0xbd4a9318	-0.049456686
21	0xbc048cb4	-0.008090187
22	0xb98a9700	-0.00026433915
23	0xbd471c83	-0.048611175
24	0x3be22598	0.006901454
25	0x38e49c00	0.000109009445
26	0x3cc58542	0.024111394
27	0x3d287571	0.041127626
28	0x3cff1992	0.031140123
29	0x3d103ad7	0.035212364
30	0xbd3ce837	-0.046119895
31	0xbd418352	-0.047244377
32	0x3b077be0	0.00206732
33	0xbd04ed54	-0.032452896
34	0x3b47e8e0	0.0030503795
35	0xbd4c9352	-0.049945183
36	0x3c4c576c	0.012472015
37	0xbc5acfd8	-0.013355218
38	0x3d4b8841	0.04969049
39	0x3d150bf1	0.03638834
40	0x3c09ada0	0.008403212
41	0xbccfb8bd	-0.025356645
42	0xbc8a182c	-0.01685723
43	0x3be4a768	0.006977964
44	0x3d11fc91	0.035641257
45	0xbccc1a7a	-0.024914969
46	0x39c80400	0.00038149953
47	0x3a82bfa0	0.0009975322
48	0x3c6a53f4	0.014302243
49	0xbd15967e	-0.036520474
50	0x3b30a660	0.0026954636
51	0xbd2c1b2d	-0.042018104
52	0x3ccd6492	0.02507237
53	0x3cd222da	0.025651384
54	0x3bbe4ca8	0.005807478
55	0xbc59a848	-0.01328475
56	0x3c93ca22	0.01804072
57	0x3c9f0252	0.019410286
58	0xbd02ccda	-0.031933643
59	0xbb115000	-0.0022172928
60	0x3c29c954	0.010362942
61	0x3cc7d24e	0.024392273
62	0x3ae4cb60	0.001745563
63	0x3bc2cd28	0.0059448667
64	0xbcac514d	-0.021034861
65	0x3b16d830	0.0023017041
66	0x3cbf3a7e	0.023343321
67	0x3c82d196	0.015969079
68	0xbc6cb318	-0.014446996
69	0x3c98c356	0.018647831
70	0x3cf80e1a	0.030280162
71	0x3ce38502	0.027773384
72	0x3ccf1f0a	0.025283355
73	0x3bb58050	0.0055389777
74	0x3d099779	0.03359172
75	0xbca8dacd	-0.020612145
76	0x3d2fddb7	0.042936053
77	0xbd08596d	-0.033288408
78	0xbcfeb973	-0.031094288
79	0xbd419b3d	-0.047267187
80	0x3d2947b9	0.041328166
81	0xbb16d100	-0.0023012757
82	0x3c8f4282	0.017487768
83	0x3c00a558	0.007851921
84	0x3d296895	0.041359503
85	0x3c96c466	0.018404197
86	0x3d3ae6f3	0.045630407
87	0x3ab29f60	0.001362782
88	0xbd00cc20	-0.03144467
89	0xbd3158e0	-0.04329765
90	0x3cd8ace2	0.026449624
91	0xb9c1a100	-0.00036931783
92	0xbd2b8ecd	-0.041884232
93	0x3cdf851e	0.027285155
94	0x3cba3bd6	0.02273361
95	0x3bcb5470	0.006205134
96	0x3cc6a932	0.0242506
97	0x3cfeeeaa	0.031119663
98	0xbca173e0	-0.019708574
99	0x3bdfabe8	0.0068259127
100	0xbc903454	-0.017603077
101	0x3cd01542	0.025400762
102	0xbbd65880	-0.0065413117
103	0xbc26050c	-0.010133039
104	0x3c7c831c	0.015412118
105	0x3c3e5bc0	0.011618555
106	0x3d400bc1	0.04688621
107	0x3d28689f	0.0411154
108	0x3d488dc5	0.048963327
109	0xba89a260	-0.0010500662
110	0xbce37daa	-0.027769882
111	0xbcd1d037	-0.02561198
112	0x3cb9450e	0.022615936
113	0x3d0a5109	0.033768687
114	0x3cca5532	0.024698827
115	0x3c2f7514	0.010709066
116	0xbc249a4c	-0.010046553
117	0x3cab2f52	0.020896588
118	0xbc98d396	-0.01865558
119	0xbcd70add	-0.026250297
120	0xbb0727e0	-0.0020623133
121	0xbc785a40	-0.015158236
122	0xbca74087	-0.020416511
123	0x3d377309	0.04478744
124	0x3d23b411	0.039966647
125	0xbce5a297	-0.02803163
126	0xbd1a5205	-0.037675876
127	0xbd2bfb7e	-0.04198789
128	0x3cf57a76	0.02996562
129	0xbc1ccd94	-0.009570498
130	0xbd226c42	-0.039654024
131	0x3d36804b	0.044555943
132	0x3d0ff171	0.035142366
133	0x3cdd060a	0.026980419
134	0x3cebe24e	0.028794434
135	0x3d34a9f9	0.04410741
136	0xbd0fad4a	-0.03507737
137	0x3b3339e0	0.0027347729
138	0xbcb2fa53	-0.02184788
139	0xbd0dfd52	-0.034665413
140	0xbc94bdb0	-0.018156856
141	0x3cdf1302	0.027230743
142	0xbc30bcc0	-0.010787189
143	0x3d196803	0.03745271
144	0x3d260617	0.04053315
145	0xbce228e3	-0.027607387
146	0xbb844530	-0.004036568
147	0xbd402507	-0.046910312
148	0x3b8300d8	0.0039979033
149	0xbd347eb2	-0.04406614
150	0xbca6e173	-0.020371174
151	0x3d08cae7	0.033396628
152	0x3ca609f2	0.020268414
153	0xbd46cc27	-0.04853454
154	0xbd1b68f8	-0.037941903
155	0x3d200491	0.039066855
156	0xbd03a198	-0.03213653
157	0xbc3ae0ec	-0.011406165
158	0xbb74f5d0	-0.003737796
159	0xbcc104e0	-0.023561895
160	0xbd2fdbb0	-0.04293412
161	0xbc85616c	-0.016281806
162	0xbcbdc0bd	-0.023163194
163	0x3a175340	0.0005772598
164	0xbd455730	-0.04817885
165	0xbc06a188	-0.008217223
166	0x3c2c420c	0.010513794
167	0xbc61f358	-0.013790928
168	0xbab2b960	-0.0013635568
169	0x3c8ebff2	0.017425511
170	0xbd162658	-0.03665766
171	0xbd07e7ca	-0.033180036
172	0x3c6d2a24	0.014475379
173	0xbc4f51b4	-0.012653757
174	0xbd3d2c9a	-0.046185113
175	0xbc4cf400	-0.012509346
176	0xbd470680	-0.048590183
177	0x3d146603	0.0362301
178	0xbce1fada	-0.027585436
179	0xbcb80170	-0.022461623
180	0xbd0b5752	-0.034018822
181	0x3d085b09	0.033289943
182	0xbd4a31df	-0.049363967
183	0x3bf51a98	0.007479977
184	0xbc0d7148	-0.008632965
185	0x3cdf2f3e	0.027244207
186	0x3c143bc0	0.009047449
187	0xbd1f5420	-0.038898587
188	0x3bd13d50	0.006385483
189	0xbc7314c0	-0.01483649
190	0x3d3fa151	0.046784703
191	0xbd3a1122	-0.045426495
192	0x3bd91950	0.006625332
193	0x3d397771	0.045279924
194	0xbc184e78	-0.009296052
195	0x3d40eeb5	0.04710265
196	0x3cb45782	0.022014383
197	0xbd3be48a	-0.04587225
198	0xbc67cb74	-0.014147628
199	0xbd344f23	-0.044020783
200	0x3d17f8ed	0.03710263
201	0x3cb9d636	0.022685152
202	0x3d3c8629	0.046026383
203	0x3d472d0d	0.04862695
204	0x3c667a6c	0.014067274
205	0x3d454037	0.048156943
206	0xbd0109d5	-0.031503517
207	0xbc0a796c	-0.008451801
208	0x3cc56d0e	0.024099853
209	0xbbf64d30	-0.0075165257
210	0xbd3fc1a0	-0.046815515
211	0xbd0e3a56	-0.034723602
212	0x3d1ee1f7	0.038789716
213	0xbd102770	-0.03519386
214	0x3d39efe1	0.045394782
215	0x3ce49682	0.027903799
216	0xbd0e96ce	-0.034811787
217	0x3c1f4b40	0.009722531
218	0xbceef2f0	-0.029168576
219	0x3b847728	0.004042525
220	0x3d4c0875	0.049812753
221	0xbc6f5220	-0.0146069825
222	0xbc857bca	-0.016294379
223	0x3cad03b6	0.021119934
224	0xbd2b97ca	-0.041892804
225	0xbc8d314c	-0.01723542
226	0x3d07a135	0.033112723
227	0x3d3e503d	0.04646324
228	0x3d121e69	0.035673533
229	0x3c0d7c8c	0.008635651
230	0x3d13bb9f	0.0360676
231	0x3d2155d9	0.03938851
232	0x3c83bc3a	0.016080964
233	0xbd39b20d	-0.045335818
234	0x3c072e4c	0.008250784
235	0x3d3958b1	0.0452506
236	0x3d3cd6b3	0.04610319
237	0x3d47d361	0.04878557
238	0xbc491034	-0.0122719295
239	0xbbd100e8	-0.006378282
240	0x3bd23998	0.006415557
241	0xbd41feff	-0.047362324
242	0x3d131359	0.035907123
243	0x3c5f1904	0.013616804
244	0xbc9bbe9a	-0.019011784
245	0xbc98fee4	-0.018676229
246	0x39b68700	0.00034814328
247	0xbd1b48c3	-0.037911188
248	0x3cc3046e	0.023805823
249	0xbd4c5b03	-0.049891483
250	0xbcfced57	-0.030874891
251	0x3bb7cc00	0.0056090355
252	0xbc8f5a3a	-0.017499078
253	0x3cc99642	0.024607781
254	0xbd01c51e	-0.031682126
255	0x3cca73ea	0.024713475

fc1.bias f4 [120]
0	0xbcceb067	-0.0252306
1	0x3c62a034	0.013832141
2	0x3d153fc7	0.036437776
3	0xbced2837	-0.02894984
4	0x3d4cc655	0.04999383
5	0xbcb080ca	-0.021545786
6	0xbcc9010a	-0.024536628
7	0xbca6734a	-0.020318646
8	0x3c2573e8	0.010098435
9	0x3d48ce99	0.049025152
10	0xbd3fb8bb	-0.046807032
11	0x3ad550c0	0.0016274676
12	0xbd02c1e0	-0.031923175
13	0x3cda442a	0.026643831
14	0xbd098625	-0.033575196
15	0x3d39d697	0.045370664
16	0xbd16610a	-0.036713637
17	0xbd15356a	-0.036427893
18	0xbd2ccd77	-0.042188134
19	0x3ba48990	0.0050212815
20	0x3caa75e6	0.020808171
21	0xbd1a8a18	-0.037729353
22	0xbd05de4c	-0.032682702
23	0x3b816a00	0.0039494038
24	0x3c9c8e12	0.019110713
25	0xbc31b638	-0.010846667
26	0xbd36b882	-0.044609554
27	0xbcef1467	-0.029184533
28	0x3cd56916	0.026051085
29	0x3c805c32	0.015668962
30	0xbc0f02c0	-0.008728683
31	0xbcc57fd7	-0.02410881
32	0x3d462649	0.048376355
33	0xbd1698b8	-0.036766738
34	0x3d213c1b	0.03936396
35	0xbd2052ae	-0.03914135
36	0x3cae5c96	0.021284383
37	0xbc9563e0	-0.0182361
38	0x3c98b2be	0.018639918
39	0xbc191ba8	-0.009344973
40	0x3cf4414e	0.029816296
41	0xba4b9280	-0.00077656657
42	0xbcde6ed0	-0.027152449
43	0xbbbf93e8	-0.005846489
44	0x3cef9342	0.029245023
45	0xbd18809a	-0.03723202
46	0xbcf5ef7d	-0.030021423
47	0xbc8eb1ec	-0.017418824
48	0xbd12c2c0	-0.03583026
49	0x3c9b05f6	0.01892374
50	0xbd3b3715	-0.045706827
51	0x3c494720	0.012285024
52	0xbca2757a	-0.019831408
53	0xbb7f09b0	-0.0038915686
54	0xbd02d132	-0.031937785
55	0x3c45c994	0.012071986
56	0x3d309749	0.043113027
57	0x3cb5d0ae	0.022194233
58	0x3d4ca019	0.04995737
59	0xbd0ea3ea	-0.03482429
60	0x3d11aea7	0.035566952
61	0xbcf14ae0	-0.029454648
62	0xbd0d197e	-0.03444814
63	0xbd00a0da	-0.0314034
64	0xbc833470	-0.016016215
65	0xba0c0380	-0.0005341098
66	0x3d3311a9	0.043718014
67	0x3c0ddbcc	0.008658361
68	0xbcc0d970	-0.023541182
69	0x3c9f072e	0.019412603
70	0xbcc9478d	-0.02457025
71	0x3d3ee375	0.04660364
72	0x3a864ba0	0.0010245927
73	0x3c3ff2b8	0.0117155835
74	0xbd00a71c	-0.031409368
75	0x3c0fb208	0.008770473
76	0xbafbbdc0	-0.001920633
77	0x3cbd3612	0.023097072
78	0x3ab96e40	0.0014147237
79	0x3c1bb160	0.009502739
80	0x3d491ce5	0.04909982
81	0xbc488f18	-0.012241147
82	0x3d21182f	0.039329704
83	0xbcc190c3	-0.023628598
84	0x3b9a69c0	0.0047123134
85	0xbcd7005d	-0.02624529
86	0x3d20345b	0.03911243
87	0x3c9a68b2	0.01884875
88	0xbce50783	-0.027957683
89	0x3d0e6209	0.034761462
90	0x3a9bef00	0.0011896789
91	0x3ccddcaa	0.025129635
92	0xbd0c23d0	-0.03421384
93	0xbcb53b07	-0.022122873
94	0x3c24c50c	0.010056745
95	0x3d39d66b	0.0453705
96	0x3cd6cba2	0.026220147
97	0xbc56fd8c	-0.013121974
98	0x3c93108e	0.01795223
99	0x3c8fa616	0.01753525
100	0x3d35aa5f	0.04435193
101	0x3c79c4bc	0.015244659
102	0x3d15b643	0.03655077
103	0xbd24baeb	-0.04021732
104	0xbc1f00b8	-0.009704761
105	0xbcfc9307	-0.030831827
106	0xbc46cacc	-0.0121333115
107	0xbce03583	-0.027369266
108	0xbd45e39b	-0.048312765
109	0xbd08351a	-0.033253767
110	0x3d43ce3f	0.047804113
111	0xbb8d09a8	-0.0043041296
112	0xbc8b396c	-0.016995154
113	0x3d07d089	0.03315786
114	0xbd45e087	-0.04830983
115	0x3cc47692	0.02398232
116	0xbd3dc722	-0.046332486
117	0x3b39d730	0.0028357022
118	0x3cf2b716	0.029628318
119	0x3c8e7d82	0.017393831

fc2.weight f4 [84, 120]
0	0x3c918180	0.017761946
1	0xbd04d86f	-0.03243297
2	0xbcfe8dc0	-0.031073451
3	0xbd636662	-0.05551756
4	0xbd4dda74	-0.05025716
5	0x3c6e72d0	0.014553741
6	0xbd019bb2	-0.031642623
7	0x3d86d4f8	0.06583589
8	0xbc156aa8	-0.009119667
9	0xbd2d8146	-0.042359613
10	0xbd9ae106	-0.07562451
11	0xbdaa9714	-0.08329597
12	0x3d240504	0.040043846
13	0x3db90432	0.09034003
14	0xbca26f18	-0.019828364
15	0x3cf5962c	0.029978834
16	0xbd2fdc66	-0.042934798
17	0x3da61b20	0.081106424
18	0x3d813ec4	0.063108
19	0x3d238bdc	0.039928302
20	0xbb4644e0	-0.0030253455
21	0x3d34fe8c	0.044188067
22	0xbd2a3219	-0.041551683
23	0xbd8244cc	-0.06360778
24	0xbd82cbd3	-0.06386533
25	0xbd6827e4	-0.056678668
26	0x3d318fd8	0.04335007
27	0x3d92e4aa	0.071725205
28	0xbd1b2c00	-0.03788376
29	0xbc5a4db8	-0.013324194
30	0xbd53d8e8	-0.05172053
31	0xbc1e5c80	-0.009665608
32	0xbd1d519b	-0.038407903
33	0x3db7dd5e	0.08977769
34	0x3d5d93cc	0.05409603
35	0xbc9a21b0	-0.018814892
36	0xbd19dd06	-0.0375643
37	0x3ca20f90	0.019782811
38	0x3d9e3c0a	0.07726295
39	0xbc5e3010	-0.013561264
40	0x3a531580	0.0008052215
41	0x3c7f0e68	0.0155674
42	0xbda11320	-0.07864976
43	0x3d569e78	0.05239722
44	0xbd3e44da	-0.04645238
45	0xbda075fd	-0.078350045
46	0xbd787b4c	-0.06066446
47	0x3da3fcca	0.080072
48	0xbda97bdd	-0.08275578
49	0x3c629568	0.013829567
50	0x3da1dbc6	0.079032466
51	0xbda687cf	-0.08131372
52	0x3db2eb20	0.08736253
53	0x3d0c14bc	0.03419946
54	0x3daae51c	0.083444804
55	0x3b390a80	0.0028235018
56	0x3d804610	0.06263363
57	0xbc675f98	-0.014121912
58	0x3d743bf0	0.059627473
59	0x3d0c1410	0.03419882
60	0xbc6118f8	-0.013738863
61	0x3d9cca7e	0.0765581
62	0xbd0b4ed5	-0.034010727
63	0xbd85f502	-0.06540872
64	0x3c886b9c	0.016652875
65	0xbc03e280	-0.008049607
66	0xbdaa6d14	-0.08321586
67	0x3d293ce0	0.04131782
68	0xbd006c85	-0.031353492
69	0xbb8e8590	-0.004349418
70	0x3a8f5b80	0.0010937303
71	0x3cf7c2a8	0.030244187
72	0xbc8e9278	-0.017403826
73	0x3c9d2218	0.019181296
74	0x3d7ba48c	0.06143622
75	0x3cdbb8fc	0.026821606
76	0xbd8bf800	-0.068344116
77	0x3db68bce	0.089133844
78	0x3db8b386	0.090186164
79	0x3d41d648	0.047323495
80	0xbd2e85f2	-0.04260821
81	0xbd991b32	-0.0747589
82	0x3d8dee6e	0.069302425
83	0xbd99d0ed	-0.075105526
84	0x3ceeac18	0.029134795
85	0xbd24477c	-0.040107235
86	0x3d0329ec	0.0320224
87	0xbd43eaa5	-0.047831196
88	0xbc9d4538	-0.019198045
89	0xbd9108d7	-0.07081764
90	0xbca4c13c	-0.020111673
91	0x3d85263e	0.06501435
92	0x3d256474	0.040379003
93	0xbdb0f28b	-0.086400114
94	0xbcd0c5e0	-0.02548498
95	0xbd5dab12	-0.054118223
96	0x3d572274	0.05252309
97	0xbc821c54	-0.015882649
98	0xbc93e7b8	-0.018054828
99	0xbcb548ec	-0.022129498
100	0x3db6ab74	0.08919421
101	0x3d6a783c	0.05724357
102	0x3d92172c	0.07133326
103	0x3d84ea62	0.064900175
104	0x3d77b9f0	0.06048006
105	0x3b316460	0.0027067885
106	0x3d7217f0	0.05910486
107	0xbda84bda	-0.082175925
108	0x3d7d2a30	0.06180781
109	0xbd269f98	-0.040679544
110	0x3d7b3040	0.06132531
111	0x3b471fc0	0.0030383915
112	0x3d394660	0.04523313
113	0x3b9483a0	0.0045322925
114	0x3c90d480	0.017679453
115	0xbd9733b9	-0.07382912
116	0xbd1cefb6	-0.038314544
117	0x3cc3d648	0.023905888
118	0x3d90308a	0.07040508
119	0x3d560b84	0.052257076
120	0xbd4aa542	-0.04947401
121	0x3d5d1098	0.053970903
122	0x3d93774c	0.072004884
123	0x3bb2d3c0	0.0054573715
124	0x3d1ce0f0	0.038300455
125	0xbd8e0a9f	-0.069356196
126	0x3cc154c0	0.023599982
127	0x3d609e1c	0.054838285
128	0xbd79346b	-0.060841005
129	0xbd8794cc	-0.066201776
130	0xbd072f36	-0.03300401
131	0xbbc57a00	-0.0060265064
132	0xbda09398	-0.07840651
133	0xbd78c3e5	-0.060733695
134	0xbd4c4e35	-0.04987927
135	0x3a96ec00	0.0011514425
136	0x3d186030	0.037201107
137	0x3d8edeac	0.06976065
138	0x3d49f638	0.049307078
139	0xbd0ce2ad	-0.034395862
140	0x3ca65e50	0.020308644
141	0xbc23bb30	-0.009993359
142	0x3c5c0408	0.0134286955
143	0x3cc5806c	0.024109088
144	0x3da6b2c0	0.081395626
145	0xbd3b6069	-0.04574624
146	0x3d227a4c	0.039667413
147	0xbcc2e840	-0.023792386
148	0xbc229eb0	-0.009925529
149	0x3d07eb7e	0.033183567
150	0x3c592320	0.013253003
151	0x3d3b36dc	0.045706615
152	0xbcc09394	-0.02350787
153	0x3d848bf2	0.06472005
154	0x3daa814e	0.08325444
155	0xbc9ea20c	-0.01936438
156	0x3da8400c	0.08215341
157	0x3d10effc	0.035385117
158	0x3d93b3bc	0.07212016
159	0x3d9a7df0	0.07543552
160	0x3cb3e1d8	0.021958277
161	0xbdb81a3b	-0.08989378
162	0x3db2720e	0.087131605
163	0x3d338f08	0.043837577
164	0xbc5c0e98	-0.013431214
165	0xbd04a64c	-0.032385156
166	0x3b3fc080	0.0029259026
167	0xbd053bd0	-0.032527745
168	0xbd4ebadc	-0.05047117
169	0xbd82a402	-0.06378938
170	0x3cd48604	0.02594281
171	0x3b5ea340	0.0033971816
172	0xbd8df544	-0.06931546
173	0xbd613861	-0.054985408
174	0x3d304164	0.04303111
175	0x3da4e238	0.0805096
176	0x3d83b6b0	0.06431329
177	0xbd594dc8	-0.053052694
178	0x3dac8f5a	0.0842578
179	0x3da36eb8	0.07980102
180	0xbdaf52fb	-0.08560749
181	0xbc1f1c40	-0.009711325
182	0x3db06da4	0.08614662
183	0x3da254be	0.079263195
184	0x3bad9190	0.0052968934
185	0x3d864a46	0.06557135
186	0xbcca3108	-0.024681583
187	0xbd950de1	-0.07278038
188	0x3ce06bb0	0.0273951
189	0xbda04262	-0.078251615
190	0xbd97cecc	-0.0741249
191	0x3d98c48a	0.07459362
192	0x3c0d75a0	0.008634001
193	0x3d78ab80	0.06071043
194	0x3d9e94b2	0.07743205
195	0x3d96ea06	0.07368855
196	0x3d84348a	0.064553335
197	0xbd1cf201	-0.03831673
198	0x3d5606bc	0.052252516
199	0xbd80f270	-0.06296241
200	0x3cf11b80	0.029432058
201	0x3d0ace94	0.033888415
202	0x3d091d62	0.033475287
203	0xbc1708c8	-0.009218402
204	0xbd1b1b8c	-0.037868068
205	0xbda8c212	-0.08240141
206	0xbce3e9b0	-0.027821392
207	0xbc83cb58	-0.016088173
208	0x3d3a5538	0.045491427
209	0x3d80bdf8	0.06286234
210	0x3dabd72a	0.08390649
211	0x3b9e6e80	0.00483495
212	0x3db8a4b0	0.09015787
213	0x3dba2cf8	0.09090608
214	0x3c774078	0.015091054
215	0xbcc8a3c0	-0.024492145
216	0x3d33c224	0.04388632
217	0x3cc5d1ac	0.02414783
218	0xbd9bf147	-0.076143794
219	0xbd93d159	-0.07217664
220	0xbd98d8bc	-0.07463214
221	0x3c63d6d8	0.013906203
222	0x3db960f6	0.09051697
223	0x3cec3cf8	0.028837666
224	0x3ce81da0	0.028334439
225	0xbd071daf	-0.032987293
226	0x3c47ffa8	0.012206949
227	0xbd377ae8	-0.044794947
228	0x3da85e42	0.08221103
229	0x3d364e98	0.044508547
230	0xbd842f35	-0.064543165
231	0xbd448e2a	-0.04798714
232	0xbd9bdc0e	-0.076103315
233	0x3d62ff7c	0.05541943
234	0xbce045bc	-0.027377002
235	0xbd6daa84	-0.058023944
236	0xbc7878e8	-0.015165545
237	0x3bdb9bb0	0.006701909
238	0x3da7f15c	0.082003325
239	0x3dafd400	0.08585358
240	0xbca2d6c8	-0.019877806
241	0x3cdece70	0.027198046
242	0xbca3fad4	-0.020017065
243	0xbd8e5281	-0.0694933
244	0x3d16f348	0.036853105
245	0x3b1c5ba0	0.0023858324
246	0xbd566014	-0.05233772
247	0x3daa21a8	0.08307201
248	0x3ce63684	0.028102167
249	0x3d1c37bc	0.03813909
250	0x3c072f50	0.008251026
251	0xbd109786	-0.035300754
252	0x3cbfe9fc	0.023427002
253	0x3d18d3c0	0.037311316
254	0x3ba94660	0.00516586
255	0xbcea1944	-0.0285765

fc2.bias f4 [84]
0	0x3d3996b4	0.045309737
1	0x3d866630	0.065624595
2	0x3c9407c8	0.018070117
3	0xbd9ae850	-0.07563841
4	0x3d466e5c	0.04844509
5	0xbcda580c	-0.026653312
6	0x3b61de20	0.0034464672
7	0xbd82cdd6	-0.06386916
8	0xbd81327a	-0.06308456
9	0x3cc44340	0.023957849
10	0xb9cf1700	-0.00039499253
11	0x3d8f8522	0.07007815
12	0xbc048418	-0.008088134
13	0x3d6abefc	0.057311043
14	0xbd91447a	-0.07093139
15	0x3d464240	0.048403025
16	0xbc712fd0	-0.014720872
17	0xbc41d4c8	-0.011830516
18	0x3bc7a390	0.006092496
19	0x3d959f1e	0.0730574
20	0xbc846400	-0.016160965
21	0x3c797668	0.015225984
22	0xbda94d39	-0.08266682
23	0x3d93f622	0.072246805
24	0x3d84b0d2	0.06479038
25	0xbce454cc	-0.027872466
26	0x3bdf2bb0	0.006810628
27	0xbb0c2a60	-0.0021387562
28	0xbd9ee613	-0.07758727
29	0xbca6cb44	-0.020360596
30	0x3c8a8ba4	0.016912289
31	0x3b1cae80	0.002390772
32	0xbc14cac8	-0.00908155
33	0x3d0aa520	0.03384888
34	0x3d982878	0.07429594
35	0xbb49b860	-0.0030780062
36	0xbc3f2b80	-0.011668086
37	0x3d73f520	0.05955994
38	0xbd83d446	-0.06436972
39	0xbcbb81ec	-0.0228891
40	0xbd896160	-0.06708026
41	0xbd3b8f38	-0.04579088
42	0xbc2824c8	-0.010262676
43	0xbd652798	-0.055945963
44	0x3d947e74	0.072506815
45	0xbd418d8d	-0.047254134
46	0xbda988ae	-0.08278023
47	0xbd51073a	-0.051032282
48	0xbc4cfeb8	-0.012511902
49	0x3dabd75c	0.08390686
50	0xbbbec250	-0.0058215037
51	0xbb4f2ae0	-0.003161125
52	0xbbb98460	-0.0056615323
53	0x3d147630	0.036245525
54	0x3d07af3e	0.03312611
55	0xbd0413ab	-0.03224532
56	0x3d971072	0.073761836
57	0xbd14efb8	-0.036361426
58	0x3d18417c	0.037171826
59	0x3c3e0dc0	0.011599958
60	0xbc7afc60	-0.01531896
61	0x3cd2362c	0.025660597
62	0x3db7db3e	0.08977364
63	0x3da9675e	0.08271669
64	0x3d41f458	0.047352165
65	0x3db4e0ce	0.088319406
66	0x3cbf4814	0.0233498
67	0xbd8416c5	-0.064496554
68	0x3d35a674	0.044348195
69	0x3ccc0748	0.024905816
70	0xbda300f0	-0.07959163
71	0x3da56806	0.080764815
72	0x3db1f98a	0.08690174
73	0x3d2c3304	0.04204084
74	0xbd359a39	-0.04433653
75	0xbc0fe410	-0.008782402
76	0x3ccb5814	0.024822272
77	0x3d7c8340	0.061648607
78	0xbda1bdbb	-0.07897516
79	0xbd096880	-0.033546925
80	0x3c59c8d0	0.013292506
81	0x3d2d5cb8	0.04232475
82	0xbc35cb08	-0.01109577
83	0x3d799410	0.06093222

fc3.weight f4 [10, 84]
0	0xbd80d22e	-0.062900886
1	0x3dda89f9	0.106708474
2	0x3d6113de	0.054950587
3	0xbcc39918	-0.023876712
4	0x3db51873	0.08842554
5	0x3d2bdb5e	0.04195725
6	0x3c85f13c	0.016350381
7	0xbdad11b0	-0.08450639
8	0xbce778bc	-0.028255813
9	0x3da077eb	0.078353725
10	0xbd1a4fac	-0.037673637
11	0x3d92ec17	0.07173937
12	0x3c985ae4	0.018598028
13	0x3d453f22	0.04815591
14	0x3bec9030	0.007219337
15	0x3d8e1e7d	0.06939409
16	0xbc8d8e0c	-0.017279647
17	0x3d1f5e26	0.038908146
18	0xbd9c3149	-0.07626588
19	0xbc145dc0	-0.009055555
20	0x3d34650e	0.044041686
21	0x3bceee70	0.006315045
22	0x3c719690	0.01474537
23	0x3c5d3fc0	0.013503969
24	0xbdb8db8b	-0.090262495
25	0x3dab1ed7	0.083554916
26	0x3d629912	0.05532176
27	0xbd83d248	-0.06436592
28	0x3da05bd9	0.078300186
29	0xba9d9900	-0.0012023747
30	0x3d312b46	0.04325416
31	0x3d4e6c52	0.05039627
32	0x3dd731d7	0.10507553
33	0x3d788b5e	0.060679786
34	0x3cccefdc	0.025016718
35	0x3b497c00	0.0030744076
36	0x3d557416	0.05211266
37	0xbc9c3ccc	-0.019071959
38	0xbd75342a	-0.0598642
39	0xbddcaad8	-0.10774773
40	0xbcc3898c	-0.023869298
41	0xbd355452	-0.044269867
42	0x3b8895a0	0.0041682273
43	0xbd26a2d4	-0.04068263
44	0x3d40c622	0.047063954
45	0x3d8ed4a9	0.069741555
46	0xbdca3322	-0.09873034
47	0xbd95c30b	-0.07312592
48	0xbd3b441c	-0.04571925
49	0x3d3def32	0.046370693
50	0xbdc43ecb	-0.09582289
51	0x3c3da3d0	0.0115747005
52	0x3ca18da4	0.01972086
53	0xbb960060	-0.0045776814
54	0x3dd7c467	0.10535508
55	0xbb981810	-0.0046415403
56	0x3c9c0cdc	0.0190491
57	0xbbdd8370	-0.0067600533
58	0x3dc434c5	0.095803775
59	0xbcc4b970	-0.024014205
60	0xbd00de08	-0.031461746
61	0x3dd339b9	0.10313744
62	0xbdd47f4b	-0.10375842
63	0x3ca285a4	0.019839115
64	0xbd301b4c	-0.042994782
65	0xbdbd2ef0	-0.09237468
66	0x3d1b09b2	0.037851043
67	0xbd31b57e	-0.043385975
68	0x3b6d2040	0.0036182553
69	0xbd13de46	-0.03610065
70	0xbd521633	-0.051290702
71	0xbd685492	-0.056721278
72	0x3d082dca	0.033246793
73	0xbd0704b8	-0.032963485
74	0x3c7da9c8	0.015482374
75	0x3d9e78bf	0.07737874
76	0x3dc3bf91	0.09558023
77	0x3cc56474	0.024095751
78	0xbda4033e	-0.08008431
79	0x3d472d5e	0.04862725
80	0xbdb58d19	-0.08864803
81	0x3d1d661e	0.038427465
82	0x3d564b5a	0.052317955
83	0x3c323d40	0.010878861
84	0x3dcd135f	0.1001346
85	0xbd3393cc	-0.043842122
86	0xbbd5d900	-0.0065261126
87	0x3d66d972	0.056359716
88	0x3d898903	0.06715586
89	0xbd547564	-0.051869765
90	0xbca358c4	-0.019939788
91	0xbd898354	-0.06714502
92	0xbd59a7d3	-0.053138565
93	0x3be3c210	0.0069506243
94	0xbd0d109c	-0.034439668
95	0x3d79f136	0.061021052
96	0xbdba81da	-0.091067985
97	0xbd526607	-0.051366832
98	0xbd284e86	-0.04109051
99	0x3d229576	0.03969332
100	0xbdc390ab	-0.095490776
101	0xbd2aa10e	-0.0416575
102	0x3c96ff3c	0.018432252
103	0x3d323956	0.04351171
104	0x3ced9e74	0.02900622
105	0xbd7f360e	-0.06230741
106	0xbdc903b7	-0.09815162
107	0x3d578b7a	0.05262325
108	0xbdc2ed89	-0.095179625
109	0x3d61c232	0.05511684
110	0xbcbeeebc	-0.023307197
111	0xbc845598	-0.016154096
112	0x3db9e273	0.09076395
113	0x3dbad473	0.09122553
114	0x3cf7e5bc	0.030260913
115	0x3db958d5	0.090501465
116	0xbce6cce4	-0.028173871
117	0x3d898cf9	0.067163415
118	0x3da88063	0.08227613
119	0x3d3fcc76	0.04682585
120	0x3c8d6f8c	0.017265104
121	0x3d27400a	0.040832557
122	0x3d80a9f3	0.06282415
123	0xbd3eb524	-0.046559468
124	0x3d72f16e	0.059312277
125	0xbd89d05f	-0.06729197
126	0x3dd8dc57	0.105889015
127	0xbda99388	-0.082800925
128	0x3ddac463	0.10681989
129	0x3d9a068f	0.07520782
130	0x3d8e8d2b	0.069605194
131	0xbdcce421	-0.1000445
132	0xbc5bf708	-0.013425596
133	0x3d09a786	0.03360703
134	0xbd8895d1	-0.066692
135	0x3a93dec0	0.0011281595
136	0x3c6ea640	0.014566004
137	0x3dcc8643	0.09986546
138	0xbd36f3e0	-0.04466617
139	0x3cfb5504	0.030680187
140	0x3d737dc2	0.059446104
141	0xbd60074e	-0.054694466
142	0xbd835c26	-0.0641406
143	0x3d3844da	0.044987537
144	0xbc960114	-0.018311061
145	0xbdc1d65a	-0.094647124
146	0xbdb4bcca	-0.08825071
147	0x3ca9bef4	0.020720936
148	0x3cf84454	0.030306019
149	0xbd9867b4	-0.07441655
150	0x3cbda87c	0.023151629
151	0x3db9d459	0.09073705
152	0xbd97b224	-0.074070245
153	0xbcab78d4	-0.020931639
154	0xbdb7a412	-0.08966841
155	0x3d8ec495	0.06971089
156	0xbd96af53	-0.07357659
157	0xbb16d500	-0.0023015141
158	0xbdca222e	-0.098698005
159	0x3da4d34b	0.080481134
160	0x3cfcf08c	0.03087642
161	0xbd64b39a	-0.055835344
162	0x3d18f4ee	0.03734296
163	0x3d210d66	0.03931942
164	0xbb996710	-0.0046814755
165	0xbd4ce1fb	-0.0500202
166	0xbce389e8	-0.02777572
167	0x3d372ffe	0.044723503
168	0x3c887bdc	0.016660623
169	0xbd73b1f9	-0.0594959
170	0x3d8d6c81	0.06905461
171	0xbd587609	-0.052846942
172	0x3cd7e204	0.02635289
173	0xbd779fdd	-0.060455192
174	0xbdb8179e	-0.089888796
175	0x3d96c93f	0.073626034
176	0x3d9323a3	0.071845315
177	0xbd97ee11	-0.074184544
178	0xbdd4e1b2	-0.103946105
179	0x3d2bcefe	0.04194545
180	0xbca29214	-0.019845046
181	0xbdd352a1	-0.103184946
182	0x3d9a4071	0.075318225
183	0xbbb133e0	-0.0054077953
184	0x3d5fa906	0.054604553
185	0x3d7f1f36	0.062285624
186	0x3d554c4a	0.052074708
187	0x3a776280	0.000943698
188	0x3cca130c	0.024667285
189	0x3cb3040c	0.021852516
190	0x3dac5113	0.08413901
191	0x3c66a2a8	0.014076866
192	0x3d821845	0.06352285
193	0x3d8197d3	0.06327786
194	0xbd81222f	-0.06305348
195	0x3d78dada	0.060755588
196	0xbd67f843	-0.056633245
197	0x3d9bbbaf	0.07604157
198	0x3c709b70	0.014685497
199	0x3d98c795	0.07459942
200	0x3d980bc5	0.0742412
201	0x3d13e366	0.036105536
202	0x3c921a74	0.01783488
203	0x3dd28ad3	0.10280385
204	0xbd9dd418	-0.07706469
205	0xbd7c8b44	-0.06165625
206	0xbd946fb2	-0.07247867
207	0xbd7c29a4	-0.06156315
208	0x3d4cd996	0.050012194
209	0x3d97decf	0.07415544
210	0x3d9ab9df	0.07554983
211	0x3cc36d9c	0.023855977
212	0x3d02d4f6	0.031941377
213	0xbdc94562	-0.09827687
214	0xbd06418c	-0.032777354
215	0x3db9a52f	0.090647094
216	0x3c86424c	0.016389035
217	0x3cd00954	0.025395073
218	0x3c7790f8	0.015110247
219	0x3d82df7b	0.06390282
220	0xbd6b44eb	-0.057438772
221	0xbd89116e	-0.066927776
222	0xbcd82d3c	-0.026388757
223	0x3d9402cd	0.07227097
224	0xbd8a7284	-0.06760123
225	0xbdbef6b8	-0.093244016
226	0x3d3f9b42	0.046778925
227	0x3c6ffef8	0.014648192
228	0x3dc5af77	0.09652608
229	0x3da0269d	0.07819865
230	0x3db4ca5b	0.08827659
231	0x3d4b57ce	0.049644284
232	0xbbd50820	-0.0065012127
233	0x3d87c78b	0.06629857
234	0x3d2b1c02	0.041774757
235	0xbcbf9d10	-0.023390323
236	0x3c211e10	0.009833828
237	0x3bd5cda0	0.0065247566
238	0xbd8af3e2	-0.06784798
239	0xbddd77cc	-0.10813865
240	0x3b869a60	0.0041077584
241	0xbc87a08c	-0.016556047
242	0x3cb6a8ec	0.022297345
243	0x3c875e64	0.016524501
244	0xbbec7fd0	-0.007217385
245	0x3c8f730c	0.017510913
246	0x3c8fadac	0.017538868
247	0xbdbfd008	-0.09365851
248	0x3bac71f0	0.005262606
249	0xbdb531c2	-0.08847381
250	0x3da24899	0.07924003
251	0x3d515b4a	0.05111245
252	0x3d9a974d	0.075483896
253	0x3cbc228c	0.022965692
254	0xbd59909d	-0.05311643
255	0xbc9d68b0	-0.019214958

fc3.bias f4 [10]
0	0x3cf50ab4	0.02991233
1	0x3d45710e	0.04820352
2	0x3d74d002	0.059768684
3	0xbda05507	-0.07828718
4	0x3d63598a	0.055505313
5	0x3ca3f7bc	0.02001559
6	0xbab7e2c0	-0.0014029369
7	0x3d63338a	0.055469073
8	0xbda0f5b0	-0.07859361
9	0x3d962e25	0.0733302
