mymodel.pth (torch, 250887 bytes, 10 tensors)

conv1.weight f4 [6, 3, 5, 5]
0	0xbc834c59	-0.016027616
1	0xbdf248b3	-0.118302725
2	0xbe3a614d	-0.1820118
3	0xbe0638e7	-0.13107644
4	0xbd8f47fc	-0.06996152
5	0xbe44b3a3	-0.19209151
6	0xbe5333c2	-0.20625213
7	0xbe0f8df9	-0.14019002
8	0xbd4dd724	-0.050254002
9	0xbe0a4043	-0.13501076
10	0xbe594496	-0.2121757
11	0xbe764acc	-0.2405197
12	0xbe0fa82c	-0.14028996
13	0xbeb042d9	-0.34426
14	0xbec229c4	-0.3792249
15	0xbda6b97c	-0.08140847
16	0xbd1276ec	-0.035757944
17	0xbdb4f5b5	-0.088359274
18	0xbd94b8a2	-0.072617784
19	0xbd387c79	-0.04504058
20	0xbe537b3b	-0.20652477
21	0xbe1902be	-0.14942452
22	0xbe610d30	-0.21977687
23	0xbe48809b	-0.19580309
24	0xbe90042e	-0.2812819
25	0xbe55fc8e	-0.20897123
26	0x3adf37b8	0.0017030155
27	0xbd8425b8	-0.06452507
28	0xbd92f8ee	-0.07176386
29	0xbdafe4ca	-0.0858856
30	0x3d567309	0.0523558
31	0x3d0d1e62	0.034452803
32	0x3df9d81d	0.121994235
33	0x3c9edea0	0.019393265
34	0x3d53bdb7	0.051694598
35	0xbd6d97b5	-0.058006007
36	0x3b268ce1	0.002541356
37	0xbe12c730	-0.14333797
38	0x3bf36e33	0.0074289083
39	0xbe463bf4	-0.19358808
40	0xbba070f4	-0.0048962776
41	0xbd882e74	-0.06649485
42	0x3b805a00	0.003916979
43	0x3dd91049	0.10598809
44	0xbc30537e	-0.010762094
45	0xbe65ab0a	-0.22428527
46	0xbd688e25	-0.056776185
47	0xbd9f1825	-0.07768277
48	0xbdd8f045	-0.10592703
49	0xbe7dcf0f	-0.24786018
50	0x3dfea79a	0.12434311
51	0x3e3ea5f8	0.18618
52	0x3e9649ef	0.29353282
53	0x3ea3476a	0.31890422
54	0x3e47d851	0.19516112
55	0x3e67c92e	0.22635338
56	0x3e9bd595	0.30436388
57	0x3ea27eef	0.31737468
58	0x3e839363	0.25698385
59	0x3e46c0fd	0.19409557
60	0x3e69aed5	0.228206
61	0x3e116cae	0.14201614
62	0x3d6880d2	0.056763478
63	0x3e2dc528	0.1696974
64	0x3e3d266f	0.18471693
65	0x3dc0dc16	0.09416978
66	0x3e9d5342	0.30727583
67	0x3e699590	0.2281096
68	0x3e72b8a0	0.23703241
69	0x3e377d61	0.17918922
70	0x3d81e805	0.06343082
71	0x3e0163e3	0.1263576
72	0x3d9b0415	0.07569138
73	0x3df420e5	0.11920337
74	0x3d8b3a30	0.06798208
75	0x3f1b69c6	0.6070827
76	0x3ea8332a	0.32851535
77	0x3d1ba577	0.037999596
78	0xbd8b48a7	-0.06800967
79	0xbd1376bc	-0.036001906
80	0x3ef0f1cd	0.4705948
81	0xbe45e6b3	-0.19326286
82	0xbe96f168	-0.29481053
83	0x3dd36b4a	0.10323198
84	0x3e077d2b	0.13231342
85	0xbd181bbf	-0.037135836
86	0xbef93ea0	-0.48680592
87	0xbe3443b2	-0.17603949
88	0x3e32f68a	0.1747686
89	0x3eaf0e1a	0.34190446
90	0xbe3d86c7	-0.18508445
91	0xbe8fac44	-0.28061116
92	0xbe212233	-0.15735702
93	0x3cea080b	0.028568288
94	0x3e1d3170	0.1535089
95	0x3e146e93	0.14495306
96	0x3c4f5bae	0.0126561355
97	0xbe52131b	-0.205151
98	0xbe55e0ae	-0.2088649
99	0xbdfb64f6	-0.12275116
100	0x3e87fafc	0.26558673
101	0xbdf6525c	-0.120274276
102	0xbef871c4	-0.48524296
103	0xbe64eb26	-0.22355327
104	0xbe74e49c	-0.23915333
105	0x3e165d0b	0.1468393
106	0xbed099df	-0.40742394
107	0xbeb1248c	-0.34598196
108	0x3d67fb7a	0.05663631
109	0x3d42a080	0.047516346
110	0xbd8bd8ee	-0.068284854
111	0xbf104080	-0.5634842
112	0xbe5a38e3	-0.21310763
113	0x3e98415c	0.29737365
114	0x3e6f6dad	0.23381682
115	0xbcf7e2b5	-0.03025947
116	0xbe82b565	-0.25529018
117	0xbe151e5b	-0.14562361
118	0x3dc78fef	0.0974425
119	0x3dfca9b4	0.12337056
120	0x3e4af5e9	0.1982037
121	0x3dc2775c	0.09495422
122	0xbb798670	-0.0038074516
123	0x3dac96e5	0.08427218
124	0x3e0a9039	0.13531579
125	0x3deada47	0.11467414
126	0xbd249208	-0.04017833
127	0xbe54a917	-0.20767628
128	0xbe4a6094	-0.19763404
129	0xbd5309f8	-0.05152318
130	0x3eace428	0.3376782
131	0xbe8ecae1	-0.2788916
132	0xbebcc220	-0.36866856
133	0xbd0ac2c0	-0.033877134
134	0x3e2053b9	0.15656938
135	0xbd497215	-0.049181063
136	0xbec1af93	-0.37829265
137	0xbe172f15	-0.14764054
138	0x3e714d4e	0.23564646
139	0x3e9ff6d4	0.31243002
140	0xbd3bcc85	-0.045849342
141	0xbd83ee4a	-0.064419344
142	0xbdf801ef	-0.12109744
143	0x3e841b00	0.2580185
144	0x3dfcea41	0.12349368
145	0x3ebbe0e2	0.3669501
146	0x3e43cc74	0.19120961
147	0x3d50a6ca	0.050940312
148	0x3e24e4f1	0.16102959
149	0x3e684de6	0.22685966
150	0xbdeb539e	-0.11490558
151	0xbe06c3ef	-0.1316068
152	0xbd30c0e7	-0.043152716
153	0xbc3578cc	-0.0110761635
154	0x3e121d3f	0.14268969
155	0xbe1a4ada	-0.15067616
156	0xbd326cf8	-0.043560952
157	0xbd94e90e	-0.07271014
158	0x3def214b	0.11676272
159	0x3e16681d	0.14688154
160	0xbdac6efd	-0.08419607
161	0x3caf56b2	0.021403644
162	0x3e0f5a69	0.13999332
163	0x3e20d982	0.15707973
164	0xbb8de1cc	-0.0043298956
165	0xbdc5d380	-0.09659481
166	0xbcda9f96	-0.026687425
167	0x3d8ecdfa	0.06972881
168	0x3db995c0	0.09061766
169	0xbd9b0cee	-0.075708255
170	0x3dcfdff9	0.10150141
171	0xbd90d1f1	-0.07071293
172	0x3d273d16	0.04082974
173	0x3d3e4f34	0.046462253
174	0xbcfb17cc	-0.030650996
175	0xbdff753d	-0.12473533
176	0xbe0514c8	-0.12996209
177	0xbdf0c078	-0.117554605
178	0xbc339aab	-0.010962169
179	0x3d57ac05	0.052654285
180	0xbddfb65c	-0.10923454
181	0xbe0d9a2f	-0.13828348
182	0x3ddfd000	0.10928345
183	0x3dd90440	0.10596514
184	0xbe13cea6	-0.14434299
185	0xbd9b3a7f	-0.075795166
186	0xbd29f2a0	-0.04149115
187	0xbd17a1fb	-0.03701971
188	0xbd29de9d	-0.041472066
189	0xbd21040c	-0.0393105
190	0xbda3037a	-0.079596475
191	0x3dafef35	0.08590547
192	0xbd859d99	-0.065242
193	0xbbb8f217	-0.0056440937
194	0xbd5de81e	-0.054176442
195	0xbd2634c9	-0.040577684
196	0x3d9b7b3b	0.07591864
197	0xbdd516ca	-0.10404737
198	0xbdfc5aa2	-0.12321974
199	0xbe00e06f	-0.12585615
200	0xbd84c862	-0.064835325
201	0xbce5d1e4	-0.028054185
202	0x3dd0d1dd	0.10196278
203	0x3e93f00b	0.28894076
204	0x3ddf383f	0.108994
205	0x3be6a741	0.007038981
206	0x3e2dcc5b	0.16972487
207	0x3e8ad1c4	0.27113163
208	0x3e1ebdaf	0.15502046
209	0x3e3597b0	0.17733645
210	0x3b8b71c4	0.0042555053
211	0x3e5e19be	0.21689507
212	0x3e6a0057	0.22851692
213	0x3e011d7f	0.12608908
214	0x3d6fb881	0.058525566
215	0x3e65b5ec	0.22432679
216	0x3dcc37f3	0.09971609
217	0x3e371ed4	0.17882854
218	0xbc37cdbc	-0.0112184845
219	0x3d9b6af8	0.07588762
220	0x3e295ddb	0.1653971
221	0x3e2ec61d	0.17067762
222	0x3e1042c5	0.1408797
223	0xbcaef50d	-0.021357084
224	0x3c0979c9	0.008390852
225	0xbe807888	-0.25091958
226	0xbeb21a10	-0.3478551
227	0xbeb581c1	-0.35450557
228	0xbe9f1fea	-0.31079036
229	0xbece8e82	-0.403431
230	0xbe6216c1	-0.22078992
231	0xbd457785	-0.048209686
232	0xbe4d1e69	-0.20031132
233	0xbe85316a	-0.26014262
234	0xbdfe9395	-0.12430493
235	0x3d3a0f9a	0.045425035
236	0x3dd50dbd	0.10403011
237	0x3e0b7134	0.13617402
238	0x3e6fa048	0.23400986
239	0x3d8e91fa	0.069614366
240	0x3e524a22	0.20536092
241	0x3e3f91ea	0.18708006
242	0x3d862ed7	0.06551903
243	0x3dee205a	0.11627264
244	0x3e8b5ede	0.27220815
245	0x3ed9997f	0.4249992
246	0x3e5f46e6	0.2180439
247	0x3ea040a7	0.31299326
248	0x3e9e01f7	0.30860874
249	0x3ea46fa8	0.32116437
250	0xbe03deb1	-0.12877919
251	0xbe7dea82	-0.24796489
252	0xbdf90ca7	-0.12160616
253	0xbdae75a9	-0.08518536
254	0xbe1ce73c	-0.15322584
255	0xbe02b38c	-0.12763804

conv1.bias f4 [6]
0	0x3ebe577c	0.3717612
1	0xbe255292	-0.1614478
2	0x3e325362	0.1741462
3	0xbeb4f009	-0.35339382
4	0xbe6161f7	-0.22010027
5	0xbefc7d32	-0.49314266

conv2.weight f4 [16, 6, 5, 5]
0	0x3d974216	0.07385652
1	0xbd91321f	-0.07089638
2	0xbe77c535	-0.24196322
3	0xbc71c684	-0.0147568025
4	0x3e2a9bd5	0.16661008
5	0x3e23c2b0	0.15992236
6	0xbe207adf	-0.15671872
7	0xbe4fe15f	-0.20300816
8	0xbe1d2cea	-0.15349165
9	0xbd0471e3	-0.032335173
10	0x3e828532	0.25492245
11	0x3d9c121f	0.07620644
12	0xbdc50678	-0.096203744
13	0xbe92c162	-0.28663164
14	0xbd580cd5	-0.052746613
15	0x3e4d3b0d	0.20042057
16	0x3e20d761	0.1570716
17	0xbdef5725	-0.116865434
18	0xbe610524	-0.21974617
19	0xbde86736	-0.11347811
20	0x3e8b521c	0.27211082
21	0x3e510b74	0.20414525
22	0xbd1b3ed1	-0.037901703
23	0xbe12637c	-0.14295763
24	0xbe278086	-0.16357622
25	0xbda341de	-0.079715475
26	0xbd8b82f6	-0.06812088
27	0x3cf8a714	0.030353107
28	0x3e0da9e2	0.13834336
29	0x3e1668ae	0.1468837
30	0xbd7895ff	-0.060689922
31	0xbdb6d74e	-0.08927785
32	0xbd297276	-0.041368924
33	0x3e24b792	0.16085652
34	0x3e21e979	0.15811719
35	0xbdf82659	-0.12116689
36	0xbe1d95a5	-0.15389116
37	0xbd709de2	-0.05874432
38	0x3e101e8c	0.14074153
39	0x3df49122	0.119417444
40	0xbdc282f3	-0.09497633
41	0xbe31b881	-0.17355539
42	0xbd8a9881	-0.06767369
43	0x3daf5403	0.08560946
44	0x3e155b33	0.14585571
45	0xbde31ad2	-0.110891
46	0xbde91101	-0.11380196
47	0xbdbab956	-0.09117381
48	0xbc28d00d	-0.010303509
49	0x3e2368fc	0.15958017
50	0x3dc9b4a3	0.09848907
51	0x3d5c3d65	0.053769488
52	0xbdcdab45	-0.10042433
53	0xbe751435	-0.2393349
54	0xbdde0c59	-0.10842199
55	0x3e98baae	0.29829925
56	0x3d11f0b0	0.035629928
57	0xbd7fa3a3	-0.062411916
58	0xbe986781	-0.29766467
59	0xbe70ed09	-0.23527922
60	0x3e9a8f35	0.30187383
61	0x3e279908	0.1636697
62	0xbe0c844d	-0.13722344
63	0xbe8da76b	-0.27666792
64	0xbe6a9016	-0.22906527
65	0x3e8f09a4	0.27937043
66	0x3e400507	0.18751918
67	0xbd631979	-0.055444214
68	0xbe0d8d8b	-0.13823526
69	0xbe9944fc	-0.29935443
70	0x3e9ff754	0.31243384
71	0x3e770c81	0.24125864
72	0x3d60e68b	0.054907363
73	0xbe15e9ca	-0.14639965
74	0xbe8e6722	-0.2781306
75	0x3dca9ab3	0.09892788
76	0x3db44dd3	0.08803906
77	0x3c852410	0.016252548
78	0xbcd45568	-0.025919631
79	0xbd4065a9	-0.04697195
80	0x3d262a37	0.040567603
81	0x3e271226	0.16315517
82	0x3d7383b4	0.059451774
83	0xbdc175e7	-0.09446316
84	0xbde9e67f	-0.11420917
85	0xbd79f1c9	-0.0610216
86	0x3cb76560	0.022387207
87	0x3b5ddb22	0.0033852537
88	0xbe0531fc	-0.13007349
89	0xbd739de5	-0.05947675
90	0xbd37946b	-0.044819277
91	0xbb98c2e6	-0.0046619056
92	0xbd58fe75	-0.052977044
93	0xbd95d695	-0.07316319
94	0xbd45e5d2	-0.048314877
95	0x3c3d4f7f	0.011554598
96	0xbde350d2	-0.110993996
97	0xbe06d24f	-0.13166164
98	0xbc59d6a8	-0.013295807
99	0xbd02c430	-0.03192538
100	0x3d0703ea	0.032962717
101	0xbbbc8766	-0.0057534454
102	0xbe0eed20	-0.13957644
103	0x3cf8f8b9	0.030392038
104	0x3dbe8795	0.09303204
105	0x3d18d9e8	0.037317187
106	0xbc74444f	-0.014908864
107	0xbdeba70d	-0.11506472
108	0xbe24be2a	-0.16088167
109	0x3cfa8e37	0.030585391
110	0x3dd4ef55	0.103972115
111	0x3e4626b9	0.19350709
112	0xbdd6185f	-0.10453867
113	0xbd9be6c8	-0.076123774
114	0xbcc1ff73	-0.023681378
115	0x3e2c57d5	0.1683038
116	0x3dffaa6d	0.12483678
117	0xbd620933	-0.055184554
118	0xbdb7df5b	-0.089781485
119	0x3c4502c3	0.012024584
120	0x3e38859a	0.18019715
121	0x3dcf2524	0.10114506
122	0xbd40e7a7	-0.04709592
123	0x3bd2134e	0.0064109927
124	0xbdde6b88	-0.10860354
125	0xbd224f47	-0.039626386
126	0xbd33d0c9	-0.043900285
127	0xbd9ac3b9	-0.075568624
128	0xbd2b28f9	-0.04178712
129	0x3dff0a7b	0.12453171
130	0x3df30e66	0.11867981
131	0xbd603d5e	-0.054746024
132	0xbc97d40d	-0.01853373
133	0xbd1427e8	-0.03617087
134	0xbbb022d7	-0.005375247
135	0xbc7e600a	-0.015525827
136	0xbcd41504	-0.025888927
137	0xbdb552a0	-0.0885365
138	0xbdf0720e	-0.11740504
139	0xbd8e6bee	-0.0695418
140	0xbe197153	-0.14984636
141	0xbde6077e	-0.11231898
142	0xbe084d3e	-0.13310716
143	0xbd556d84	-0.052106395
144	0xbd3672d7	-0.044543114
145	0xbdd710b9	-0.105012365
146	0xbe25db17	-0.16196857
147	0xba9227ac	-0.0011150739
148	0xbd969800	-0.073532104
149	0xbccb322e	-0.024804201
150	0x3e2eaeb8	0.17058837
151	0x3df8a6ac	0.12141165
152	0x3e1d9cd4	0.15391856
153	0x3e596679	0.21230496
154	0x3dc77061	0.097382315
155	0x3d6624eb	0.05618755
156	0xbda51eff	-0.08062553
157	0xbd5c701b	-0.05381785
158	0xbdd27d35	-0.102777876
159	0xbe1626a7	-0.14663182
160	0xbde176af	-0.11008965
161	0xbe417128	-0.18890822
162	0xbdc59417	-0.096473865
163	0xbe067827	-0.13131772
164	0xbca9cd3b	-0.020727744
165	0xbd777e53	-0.060423207
166	0x3cf16584	0.029467352
167	0xbc39f17d	-0.011349079
168	0xbd05989d	-0.032616246
169	0xbc2b67ac	-0.010461729
170	0x3db527e3	0.088454984
171	0x3dbd527c	0.09244248
172	0xbd489f15	-0.048979837
173	0xbd276840	-0.040870905
174	0xbc42304a	-0.011852333
175	0xbe05ed93	-0.13078909
176	0xbde8708c	-0.113495916
177	0xbe5152c7	-0.20441733
178	0xbdcada6b	-0.09904941
179	0x3c95050f	0.018190889
180	0xbdccd430	-0.10001409
181	0xbda057d9	-0.078292556
182	0x3afbdf32	0.0019216298
183	0x3d66a561	0.05631006
184	0x3c4e2be6	0.012583708
185	0x3ca8213d	0.020523662
186	0x3ce6b38f	0.028161792
187	0x3bc921bd	0.006138055
188	0xbdb49f33	-0.08819427
189	0xbd93a8c8	-0.07209927
190	0x3da46728	0.08027488
191	0xbda10959	-0.07863111
192	0xbcf427f0	-0.0298042
193	0xbd63f914	-0.05565746
194	0xbdc0b343	-0.094091915
195	0xbcef7c38	-0.029234037
196	0xbcdbf8f8	-0.026852116
197	0xbca2b014	-0.019859351
198	0xbdb721e4	-0.08942011
199	0xbe08b789	-0.13351263
200	0x3ea1d315	0.31606355
201	0x3e6960dd	0.22790857
202	0x3d9846f5	0.07435409
203	0xbc7b35cf	-0.015332653
204	0xbbdac624	-0.0066764522
205	0x3de750ce	0.11294709
206	0x3d6b523f	0.057451483
207	0xbd981016	-0.07424943
208	0xbe022eed	-0.12713213
209	0xbb4f0257	-0.0031587088
210	0x3d149b52	0.036280937
211	0x3c18b006	0.009319311
212	0xbc49cb3c	-0.012316521
213	0x3d392915	0.045205195
214	0x3c9444fc	0.0180993
215	0x3e203e6e	0.15648815
216	0x3de5754c	0.11204013
217	0xbd33d7b0	-0.043906868
218	0x3d1444fb	0.036198597
219	0xbd75e5ae	-0.060033493
220	0x3d82ed44	0.06392911
221	0xbdb3b452	-0.08774628
222	0xbdb570ed	-0.088594295
223	0xbe3e9410	-0.18611169
224	0xbdfd414e	-0.123659715
225	0x3d541e8e	0.05178695
226	0xbd58a77b	-0.052894097
227	0xbc5fff3c	-0.013671692
228	0xbda763ca	-0.0817333
229	0xbc76594a	-0.015035937
230	0x3e072eb8	0.13201416
231	0x3d7c1958	0.061547607
232	0x3dcf89b6	0.10133688
233	0x3d964884	0.0733805
234	0x3e5092fb	0.20368569
235	0x3e5df2d9	0.2167467
236	0x3de9fe64	0.11425474
237	0x3dda1d5b	0.1065013
238	0x3d61253e	0.054967158
239	0x3caad87b	0.020855179
240	0x3e014333	0.1262329
241	0x3d3cd9b2	0.046106048
242	0x3c210fc0	0.009830415
243	0xbd6aa37e	-0.057284825
244	0x3cd6f79d	0.026241118
245	0xbdf6b97c	-0.12047097
246	0xbc60589c	-0.013693001
247	0xbdd2bcb3	-0.10289898
248	0xbdc13c2a	-0.094353035
249	0xbd988f74	-0.074492365
250	0xbdacec63	-0.08443525
251	0xbd0c8d96	-0.034314714
252	0xbdba3759	-0.09092588
253	0xbc4212f9	-0.011845344
254	0x3cfbf003	0.030754095
255	0xbd6fb9cf	-0.05852681

conv2.bias f4 [16]
0	0x3be11af1	0.0068696667
1	0xbc47654b	-0.012170146
2	0xbe07d667	-0.13265382
3	0xbecd378b	-0.40081438
4	0xbe9d5a3d	-0.3073291
5	0xbf69a494	-0.9126675
6	0xbdca262d	-0.09870563
7	0xbd79c881	-0.06098223
8	0x3f4a8556	0.79109704
9	0x3e22f2e5	0.1591297
10	0xbd6f5433	-0.058429908
11	0x3ee7b99f	0.45258805
12	0xbd7e2955	-0.062051136
13	0xbd253871	-0.04033703
14	0x3f3f0ecc	0.74631953
15	0xbd436c32	-0.047710605

fc1.weight f4 [120, 400]
0	0x3de09f1a	0.10967846
1	0x3db05daf	0.08611619
2	0x3c92d944	0.017925866
3	0xbcadbeaf	-0.02120909
4	0x3d1cc3b8	0.03827259
5	0x3dd197b5	0.10234014
6	0x3c983d4a	0.018583912
7	0x3cd6c848	0.026218548
8	0xbcaebbe5	-0.02132983
9	0x3c422ad8	0.011851035
10	0xbc807f41	-0.01568568
11	0xbb0b2173	-0.0021229654
12	0xbbb5e4f7	-0.0055509764
13	0x3c66ccfe	0.01408696
14	0x3d63b497	0.055592146
15	0x3c874b45	0.016515383
16	0xbe05f4f0	-0.13081717
17	0xbc9d6d50	-0.019217163
18	0x3d6920e6	0.05691614
19	0x3c49ca42	0.012316288
20	0x3d1a65ff	0.037694927
21	0xbd6d0ba1	-0.05787242
22	0xbd18c081	-0.03729296
23	0x3de90d87	0.11379533
24	0x3bb3044f	0.00546316
25	0xbd85f7cc	-0.06541404
26	0xbcac0733	-0.020999527
27	0xbd5a2cfe	-0.053265564
28	0xbd552023	-0.0520326
29	0xbdbaafe4	-0.0911558
30	0x3d463c7d	0.04839753
31	0x3d1f67f3	0.038917493
32	0x3d138114	0.03601177
33	0xbd01b1ba	-0.031663634
34	0xbb47ba44	-0.0030476013
35	0xbcbff22d	-0.023430908
36	0xbd4a7f1b	-0.049437623
37	0x3cd5fff7	0.02612303
38	0x3c8b9509	0.017038839
39	0xbcfe2e89	-0.031028049
40	0x3d01feb6	0.031737052
41	0xbce75917	-0.028240724
42	0xbcdd5976	-0.027020197
43	0xbc9a8530	-0.018862337
44	0x3ccd3e1e	0.025054034
45	0x3c75a4a9	0.014992871
46	0xbcb3d140	-0.021950364
47	0xbc75fd34	-0.015013982
48	0xbd239b4b	-0.03994302
49	0x3c6a6615	0.014306565
50	0xbd4840dd	-0.048889983
51	0x3d68bf1d	0.056822885
52	0x3d782895	0.060585577
53	0x3da8fc46	0.08251242
54	0x3da5866e	0.08082281
55	0xbc915e7d	-0.01774525
56	0xbd96c866	-0.07362442
57	0xbc7a6fdc	-0.015285458
58	0xbcf637e2	-0.030055944
59	0x3d698d7b	0.057019692
60	0xba9be092	-0.0011892489
61	0xbda7339e	-0.08164142
62	0xbd671e95	-0.05642565
63	0xbcccfb7c	-0.02502226
64	0x3d1e9ef1	0.038725797
65	0xbd458d10	-0.04823023
66	0xbd326bb7	-0.043559756
67	0xbdd79a9d	-0.10527537
68	0xbc5c3bb6	-0.013441971
69	0xbd4cc402	-0.049991615
70	0x3c26ef91	0.010188953
71	0x3cf6108a	0.030037183
72	0x3a99dfc2	0.0011739659
73	0x3b926172	0.004467183
74	0xbd84d353	-0.064856194
75	0x3d452191	0.048127715
76	0x3d52e786	0.05149033
77	0x3cad0c7e	0.02112412
78	0x3d7748bc	0.0603721
79	0x3dbe2b1d	0.09285567
80	0xbd782be4	-0.060588732
81	0xbbf932ae	-0.0076049184
82	0xbc1f6393	-0.00972833
83	0x3d04ee07	0.032453563
84	0x3d64ec65	0.055889506
85	0xbd5a2c27	-0.053264763
86	0xbd422150	-0.04739505
87	0xbd52bd34	-0.05144997
88	0x3d5c0059	0.05371127
89	0x3c972029	0.018447952
90	0xbd129fb6	-0.035796843
91	0x3a93124c	0.0011220663
92	0xbd2e9fda	-0.042632915
93	0x3ba7dbe4	0.0051226486
94	0x3bbfec8d	0.0058570565
95	0xbd58e5ba	-0.05295346
96	0x3b6a8423	0.0035784326
97	0x3cbe128e	0.023202207
98	0xbcbc8179	-0.023010956
99	0x3d94b202	0.07260515
100	0x3b7ccda3	0.0038574717
101	0x3cc9920a	0.02460577
102	0x3d4e8338	0.05041811
103	0x3dd7678c	0.10517797
104	0x3c42c1b8	0.011887006
105	0xbc1313ca	-0.008976886
106	0xbc027aad	-0.0079638185
107	0x3c3829b8	0.011240415
108	0xbc272084	-0.010200623
109	0xbc6fce59	-0.014636599
110	0xbd944846	-0.072403476
111	0x3bb2363c	0.005438594
112	0x3bb99135	0.005663062
113	0xbd414f19	-0.047194574
114	0x3d12be06	0.03582575
115	0xbd1a81f1	-0.037721578
116	0xbba7b712	-0.005118259
117	0xbd8defd7	-0.069305114
118	0x3c828ed2	0.015937243
119	0xbcfdc725	-0.030978749
120	0xbc8d4d48	-0.017248765
121	0x3c952cf2	0.018209908
122	0xbd9802d3	-0.07422414
123	0x3c8b5b73	0.01701138
124	0xbdb2ef4f	-0.08737051
125	0x3df0a34f	0.11749899
126	0x3ddf9ec9	0.10918958
127	0x3dc207a0	0.094741106
128	0x3ce8ce32	0.028418634
129	0x3d7d6d9c	0.06187211
130	0x3d8267b0	0.06367433
131	0x3ca60ee4	0.020270772
132	0x3b505d4b	0.0031793888
133	0xbc6eb795	-0.014570137
134	0x3cc6a479	0.024248349
135	0x3d0b12dc	0.033953533
136	0xbcd58951	-0.026066454
137	0xbde0f744	-0.10984662
138	0xbda821e9	-0.08209593
139	0xba8a8cf0	-0.0010570567
140	0xbb4af3bb	-0.0030968029
141	0x3c7a2e07	0.015269763
142	0xbac0c397	-0.0014706728
143	0xbc4d6165	-0.012535428
144	0x39b4cf26	0.00034486613
145	0x3d3bd0e1	0.0458535
146	0xbb266e02	-0.002539516
147	0x3d291200	0.04127693
148	0xbbb08695	-0.005387137
149	0xbd590142	-0.052979715
150	0x3b40faae	0.0029446292
151	0x3d1f8abe	0.038950674
152	0x3d0b959e	0.034078233
153	0xbca3377d	-0.01992392
154	0x3d0eb990	0.034844935
155	0xbb4b466e	-0.003101732
156	0xb9a87122	-0.00032127748
157	0xbd32faaf	-0.0436961
158	0x3c7eb442	0.0155459065
159	0x3ce6c6b3	0.028170919
160	0x3b1d46a2	0.00239984
161	0x3a2b31c3	0.00065305474
162	0xbd5ee79e	-0.054420106
163	0xbd41d879	-0.047325585
164	0x3ce3d2be	0.02781045
165	0x3d8ba951	0.06819404
166	0x3cce1876	0.025158148
167	0xbcc7e7db	-0.02440255
168	0x3d0fed5b	0.03513847
169	0x3d4a547a	0.04939697
170	0x3d8d6b49	0.06905229
171	0x3c4e29fe	0.012583254
172	0xbc560d82	-0.013064744
173	0x3dd48f20	0.103788614
174	0x3e1be36c	0.15223473
175	0x3c9b0422	0.01892287
176	0x3d3380e9	0.04382411
177	0xbcacfa1b	-0.021115353
178	0xbc8bfc28	-0.01708801
179	0x3c6b7deb	0.014373283
180	0x3c8674d0	0.016413122
181	0x3d1a58bd	0.037682284
182	0xbcadbbb0	-0.02120766
183	0xb9a933ec	-0.00032272877
184	0x3b3f1de7	0.002916211
185	0x3d30d7ec	0.04317467
186	0xbce2f31d	-0.027703816
187	0xbca95a92	-0.02067307
188	0xbac403fc	-0.0014954801
189	0xbcef8e64	-0.029242702
190	0x3c6d2b66	0.014475679
191	0x3cec183b	0.028820148
192	0x3bd5af1f	0.00652112
193	0xba1cef9e	-0.00059866335
194	0xbcbf984a	-0.023388047
195	0x3cd9eab9	0.026601182
196	0xbc6742b6	-0.014115026
197	0x3cc50c3b	0.024053684
198	0xbd2e327c	-0.042528614
199	0xbb487890	-0.003058944
200	0x3bebbb8f	0.0071939896
201	0x3d5c05f5	0.05371662
202	0x3d5de3ad	0.054172207
203	0x3d8f12e8	0.06986028
204	0x3e1a3d7b	0.15062515
205	0x3c6b462f	0.014359995
206	0x3d8db1b5	0.069186606
207	0x3d92d212	0.07168974
208	0x3d111a15	0.035425264
209	0x3debbd37	0.11510699
210	0x3d2ae253	0.041719746
211	0xbb37a51c	-0.0028021997
212	0x3d663271	0.05620045
213	0x3c770871	0.015077696
214	0xbba7cd34	-0.0051208977
215	0x3bb73583	0.005591096
216	0xbd5850e7	-0.05281153
217	0xbdcf53c2	-0.101233974
218	0xbd6cf121	-0.057847146
219	0xbda723c0	-0.08161116
220	0x3c2a1574	0.010381091
221	0x3c42a00f	0.011878981
222	0xbd8baf75	-0.06820575
223	0xbe07e21d	-0.13269849
224	0x3c38ebac	0.011286657
225	0x3d474535	0.048649985
226	0x3d9b0e63	0.075711034
227	0x3d271ef0	0.04080099
228	0xbc5f7153	-0.013637858
229	0x3da2567a	0.0792665
230	0x3c3fb811	0.0117016
231	0x3d35a925	0.044350762
232	0xbcac2b48	-0.021016732
233	0xbd031da9	-0.032010708
234	0x3cb7dfd5	0.022445599
235	0xbc8b46e5	-0.017001579
236	0xbd5ccb6e	-0.053904943
237	0x3a9f79fe	0.0012167094
238	0x3cc1829b	0.023621848
239	0x39a12047	0.00030732361
240	0x3be9fadb	0.0071405
241	0xbbf66090	-0.0075188354
242	0xbce62900	-0.028095722
243	0xb887e962	-6.4807726e-05
244	0xbc27f7e4	-0.010251973
245	0xbcd51563	-0.026011175
246	0xbb676567	-0.0035308243
247	0x3c276d9e	0.010219006
248	0xbc8c670e	-0.017138984
249	0xbcdc9020	-0.026924193
250	0x3bdef21b	0.0068037636
251	0xbdab8e43	-0.08376744
252	0xbcde8e7b	-0.02716755
253	0xbaf2a518	-0.0018512337
254	0x3da14441	0.078743465
255	0xbce10423	-0.027467793

fc1.bias f4 [120]
0	0xbcb5bda0	-0.022185147
1	0xbd9f60e3	-0.077821516
2	0xbd911e61	-0.070858724
3	0xbc8622f7	-0.016374094
4	0xbbc799ef	-0.0060913484
5	0xbd93db5a	-0.07219572
6	0x3d9a2ac0	0.07527685
7	0x3e31bf2a	0.1735808
8	0xbd417b2e	-0.047236614
9	0x3d9d253d	0.07673118
10	0x3c73e8b1	0.014887021
11	0xbe0ceaf9	-0.1376151
12	0x3d2c3eca	0.042052068
13	0x3d9063f1	0.07050312
14	0x3e1a0c9e	0.15043876
15	0xbd4b0238	-0.049562663
16	0x3d781894	0.060570315
17	0xbd40df9b	-0.047088247
18	0x3cfe829f	0.031068144
19	0x3d5244cc	0.05133514
20	0xbe11dd82	-0.14244655
21	0x3e19ba05	0.15012367
22	0xbe12c7b8	-0.14333999
23	0xbd9de00c	-0.07708749
24	0x3d92963f	0.071575634
25	0x3bef3f00	0.0073012114
26	0xbc40f8aa	-0.011778036
27	0xbd2e937a	-0.042621113
28	0x3dc9d1e7	0.09854489
29	0x3e41456e	0.18874142
30	0xbb249a68	-0.0025116447
31	0xbcb4b432	-0.02205858
32	0xbda32b8c	-0.0796729
33	0x3db3e965	0.08784751
34	0x3dd8ba7a	0.105824426
35	0x3db73dc5	0.089473285
36	0x3e09d3d7	0.13459717
37	0x3c83b74d	0.016078616
38	0xbd261b4c	-0.040553376
39	0x3e860af9	0.26180246
40	0x3db4596f	0.088061206
41	0x3d13ef35	0.036116797
42	0xbc444f30	-0.01198177
43	0x3c642008	0.0139236525
44	0xbd556056	-0.052093826
45	0x3d0412b2	0.03224439
46	0xbc384d23	-0.01124886
47	0x3d69cf90	0.057082713
48	0x3e009325	0.12556131
49	0xbcc436ce	-0.023951914
50	0x3c8e5879	0.017376171
51	0x3b9adccc	0.004726028
52	0xbb7dfe54	-0.0038756328
53	0xbe1d592c	-0.15366048
54	0xbd5c2e05	-0.053754825
55	0xbc5553e9	-0.013020494
56	0x3d468b30	0.048472583
57	0x3c7f5513	0.015584248
58	0xbbc6b3b1	-0.0060639014
59	0xbe135b10	-0.14390206
60	0x3e165864	0.14682156
61	0x3e10a20b	0.14124314
62	0xbd00f08b	-0.0314794
63	0x3d9550b4	0.072907835
64	0xbda7ff56	-0.08202998
65	0xbcae7c76	-0.021299582
66	0x3d9d67e8	0.07685834
67	0x3de4c5e6	0.11170559
68	0xbd852061	-0.065003164
69	0x3d36e963	0.04465617
70	0xbd93a5c4	-0.07209352
71	0xbd1cb68d	-0.03826003
72	0xbde6af5c	-0.11263916
73	0x3ddd7ebc	0.10815188
74	0x3d495696	0.04915484
75	0x3aed789e	0.0018117612
76	0x3e88c162	0.2671004
77	0x3da113b6	0.07865088
78	0xbc0985e0	-0.008393735
79	0xbe201e5e	-0.15636584
80	0xbd6465d7	-0.055761185
81	0xbc042979	-0.0080665285
82	0xbd7fed8d	-0.062482405
83	0x3d87ddb6	0.06634085
84	0xbd916503	-0.070993446
85	0x3c447566	0.011990881
86	0xbcb9d2fd	-0.022683615
87	0xbd9cbbbd	-0.07652996
88	0x3d00bd56	0.031430565
89	0xbb99dcc2	-0.004695506
90	0xbdc6b52b	-0.09702524
91	0x3bbcf74e	0.0057667857
92	0x3e293adf	0.16526364
93	0x3e73022e	0.237313
94	0x3dace293	0.08441653
95	0xbced678a	-0.028980035
96	0x3e4689eb	0.19388549
97	0xbd54416f	-0.051820215
98	0x3dacd285	0.08438591
99	0x3ce5f4c1	0.02807081
100	0x3cbb9b60	0.022901237
101	0xbb94c84b	-0.0045404783
102	0x3e08d29a	0.13361588
103	0x3dd07bf0	0.10179889
104	0x3d40c0e9	0.047058973
105	0xbce35217	-0.027749104
106	0x3cc3db1e	0.023908194
107	0xbdd1cfe0	-0.10244727
108	0xbb78d524	-0.0037968839
109	0x3d184825	0.037178177
110	0xbd3946c4	-0.045233503
111	0x3cecc738	0.028903589
112	0xbcd5a603	-0.026080137
113	0xbcf78796	-0.03021602
114	0x3ce13089	0.027488964
115	0x3c93050c	0.017946742
116	0x3dcbb413	0.09946456
117	0x3b24f288	0.0025168974
118	0x3d22c817	0.0397416
119	0xbce0ac79	-0.027425991

fc2.weight f4 [84, 120]
0	0x3cd900c4	0.026489623
1	0xbd56dc0a	-0.05245594
2	0xbcebf951	-0.028805407
3	0xbd84807c	-0.06469819
4	0x3c375474	0.011189569
5	0xbc899512	-0.016794715
6	0xbcbfd242	-0.023415688
7	0xbd8e7a53	-0.06956925
8	0xbce66577	-0.028124554
9	0x3c19ddac	0.00939123
10	0x3cf2ee0c	0.029654525
11	0x3c310669	0.010804751
12	0x3d17e64b	0.03708486
13	0xbd66df9a	-0.056365587
14	0xbdd5f7fd	-0.10447691
15	0x3d3c414b	0.045960706
16	0x3c9e3e98	0.019316956
17	0x3da1fda0	0.07909703
18	0x3d86a8e4	0.06575182
19	0xbc92aa13	-0.017903363
20	0x3d9d6b78	0.07686514
21	0xbdbba45e	-0.0916221
22	0x3c1e6d31	0.009669588
23	0x3ad2938b	0.00160657
24	0x3d60fb86	0.05492737
25	0xbde6cfaa	-0.112700775
26	0xbd7c091e	-0.061532132
27	0xbadd802a	-0.0016899158
28	0xbdbb3f28	-0.091429055
29	0x3bf176ab	0.0073688827
30	0x3d6d4ebc	0.057936415
31	0xbd3c9c26	-0.046047352
32	0xbcad6ec6	-0.021170985
33	0xbbd90fb1	-0.006624185
34	0x3d5a37f8	0.053276032
35	0xbdf255a9	-0.11832745
36	0xbd191b83	-0.037379753
37	0x3ca1edc6	0.0197667
38	0xbd8ae407	-0.06781774
39	0xbd9b514e	-0.07583867
40	0x3ccec6da	0.025241304
41	0xbd395bcf	-0.04525357
42	0xbc6d3b76	-0.014479509
43	0xbc11ce6c	-0.0088993125
44	0x3dfd83ee	0.12378679
45	0xbc0ced87	-0.008601553
46	0xbc7bd662	-0.015370937
47	0xbd8add41	-0.06780482
48	0x3d8c6e32	0.068569556
49	0x3d078282	0.033083446
50	0x3d983ddc	0.07433674
51	0x3c4e7474	0.012601007
52	0xbd9a7c43	-0.07543232
53	0xbbe9958d	-0.0071284235
54	0xbcab7d4f	-0.020933775
55	0x3cf25485	0.029581318
56	0x3da9ef17	0.08297556
57	0xbd8c6701	-0.06855584
58	0x3d2f6358	0.04281935
59	0x3c3424a1	0.010995061
60	0xbd0d4c36	-0.03449651
61	0x3d1490e5	0.036270995
62	0x3dbb3b6e	0.09142195
63	0xbda55748	-0.08073288
64	0xbdd15318	-0.10220927
65	0xbdf2e4b3	-0.11860027
66	0xbc566fda	-0.013088191
67	0xbda5ef7d	-0.081023194
68	0xbb74eea5	-0.0037373689
69	0x3ddbd035	0.10733072
70	0x3d84f4b3	0.06491985
71	0xbc56dd18	-0.013114236
72	0x3df3f8f3	0.11912718
73	0xbd09284f	-0.033485707
74	0xbd1c7d39	-0.03820536
75	0x3d633460	0.05546987
76	0xbd576fc1	-0.05259681
77	0x3c0fd246	0.00877816
78	0xbce83833	-0.02834711
79	0x3c2c3811	0.010511414
80	0x3d4f101c	0.050552472
81	0x3c974170	0.01846382
82	0x3cf23051	0.029564055
83	0xbb51599a	-0.0031944276
84	0x3d170a44	0.036875024
85	0x3d8166dd	0.06318448
86	0xbdab9771	-0.083784945
87	0x3cad1b6a	0.021131236
88	0xbcefa3c1	-0.029252889
89	0x3d8bf672	0.06834115
90	0x3d7a871c	0.061164007
91	0xbd164b60	-0.036692977
92	0xbcb41dc6	-0.021986853
93	0x3cf9113a	0.030403722
94	0x3defc6bb	0.11707827
95	0x3cb13d4c	0.021635674
96	0xbd109876	-0.035301648
97	0xbd7de209	-0.061983142
98	0xbd660f8f	-0.05616718
99	0xbd93950a	-0.07206161
100	0xbda6273f	-0.08112954
101	0x3d640e83	0.055677902
102	0xbdea8873	-0.11451807
103	0x3e15ad91	0.14616992
104	0xbde3481c	-0.11097738
105	0x3d128585	0.035771865
106	0xbd64d41b	-0.055866342
107	0x3c99e012	0.018783603
108	0x3a5e1619	0.0008471921
109	0x3dd64211	0.1046182
110	0x3d810977	0.063006334
111	0xbd8d9b41	-0.06914378
112	0xbcef5f93	-0.029220378
113	0xbd53728b	-0.05162291
114	0xbcd5b7ee	-0.026088681
115	0x3d3523af	0.044223484
116	0xbcb8bc1c	-0.022550635
117	0x3dc733de	0.0972669
118	0x3d817662	0.06321408
119	0x3cc489af	0.023991434
120	0x3d740f63	0.059584986
121	0x3df0842c	0.1174396
122	0xbc9a4b73	-0.018834805
123	0x3c593700	0.013257742
124	0x3d9768c8	0.07393032
125	0xbd2b9036	-0.041885577
126	0xbd86ac19	-0.06575794
127	0xbd1026b4	-0.03519316
128	0x3ccd7ccb	0.02508392
129	0x3d6d600d	0.05795293
130	0x3d37f8e6	0.044915102
131	0x3ce70cb6	0.028204303
132	0xbdd1e4bf	-0.10248708
133	0x3d7e01ae	0.06201332
134	0xbcba04d8	-0.022707388
135	0xbcb6ccc6	-0.02231444
136	0x3d8423be	0.0645213
137	0xbd12914b	-0.035783093
138	0x3dcdb68d	0.100445844
139	0xbd7df602	-0.06200219
140	0x3ba9d6e7	0.005183089
141	0xbd8ee5e9	-0.06977446
142	0x3cbee952	0.023304615
143	0x3a0b8237	0.0005321833
144	0x3d8cfc2f	0.06884038
145	0x3e08fd4f	0.1337788
146	0x3dcbd3cc	0.099525064
147	0x3c29042a	0.010315934
148	0xbce023a5	-0.027360747
149	0xbd25ee0c	-0.040510222
150	0xbce7ecc4	-0.02831114
151	0xbd021cbd	-0.03176569
152	0xbd357299	-0.044298742
153	0xbc505438	-0.012715392
154	0xbd6ea48a	-0.058262385
155	0xbd71c520	-0.059025884
156	0xbd14cdeb	-0.03632919
157	0xbd6a56c4	-0.057211652
158	0xbd173a2a	-0.036920704
159	0xbdb7baad	-0.089711525
160	0xbc7d4ade	-0.015459744
161	0x3de51327	0.11185294
162	0x3d72e697	0.05930194
163	0xbdcf0e6c	-0.10110173
164	0x3b9bdd0f	0.004756577
165	0xbdf30a6e	-0.11867224
166	0xbcc85c40	-0.02445805
167	0xbccd8643	-0.025088435
168	0xbbbbaa87	-0.0057271156
169	0xbcf5ec2e	-0.030019846
170	0x3d7d05d0	0.06177312
171	0x3aa5df0b	0.0012654973
172	0xbd4fb1a8	-0.050706536
173	0x3a44bff3	0.00075054093
174	0xbd32f5b4	-0.043691352
175	0xbd40e89c	-0.047096834
176	0xbd0380eb	-0.032105368
177	0xbc5c148a	-0.013432631
178	0xbddfd678	-0.109295785
179	0xbc923064	-0.01784534
180	0x3e10e3aa	0.14149347
181	0xbd3660bf	-0.044525858
182	0x3d86f968	0.06590539
183	0x3b26c49a	0.0025446774
184	0xbd091c68	-0.033474356
185	0xbcb93d69	-0.02261229
186	0x3ca0a3fb	0.019609442
187	0x3d06e15c	0.032929763
188	0xbd5b1cf5	-0.053494412
189	0x3d342fd3	0.04399092
190	0xbd550e7c	-0.052015767
191	0x3d8c1814	0.0684053
192	0x3bca6295	0.0061763027
193	0xbd2eac5e	-0.04264485
194	0x3d99e3aa	0.075141266
195	0xbd878258	-0.06616658
196	0x3d8ef4d3	0.0698029
197	0xbced3539	-0.028956043
198	0xbc4f84e8	-0.012665965
199	0x3ba9ece7	0.0051857117
200	0xbd870204	-0.06592181
201	0xbd0823e6	-0.03323736
202	0x3d83b584	0.06431106
203	0xbd61515a	-0.055009224
204	0x3d37ddb1	0.044889156
205	0xbd2c7875	-0.042107064
206	0xbd3dcf45	-0.046340246
207	0xbd191d3f	-0.037381407
208	0xbcb6a475	-0.022295216
209	0x3caef35f	0.021356283
210	0xbcbb281b	-0.022846272
211	0xbe20d12e	-0.15704796
212	0x3dd3df1b	0.10345288
213	0x3cb48327	0.022035195
214	0x3dd213e3	0.10257699
215	0xbdf2d236	-0.11856501
216	0x3d3b785d	0.045769084
217	0x3d0f7c42	0.03503061
218	0xbc848ea1	-0.016181292
219	0xbdcaf8b1	-0.09910715
220	0x3dabddf4	0.083919436
221	0xbdad9101	-0.08474923
222	0x3da9938c	0.082800955
223	0x3d8fff91	0.07031167
224	0x3d95f762	0.07322575
225	0x3d863025	0.065521516
226	0xbd19f739	-0.037589286
227	0xbda6c872	-0.08143701
228	0x38cd9c77	9.8043056e-05
229	0x3e07468d	0.13210507
230	0xbcb36a83	-0.021901375
231	0xbc6c4701	-0.0144212255
232	0x3d1da56f	0.038487848
233	0xbdaa62db	-0.083196364
234	0x3d64054b	0.05566911
235	0x3df8f3f1	0.12155903
236	0xbd524ec5	-0.05134465
237	0xbdba016b	-0.09082302
238	0xbdfcfecb	-0.123532854
239	0x3dda61ec	0.10663208
240	0xbd85b05c	-0.065277785
241	0xbc1c141a	-0.009526277
242	0xbcbab4f8	-0.02279137
243	0x3e0237d4	0.12716609
244	0xbcaee1a3	-0.021347826
245	0xbdcbf2a3	-0.09958389
246	0xbc70284d	-0.014658046
247	0xbdb05fc1	-0.086120136
248	0xbcec140e	-0.028818157
249	0xbdaa3de3	-0.08312585
250	0x3c6eb1f6	0.014568796
251	0x3dc41f9a	0.0957634
252	0x3d11d65f	0.03560483
253	0x3d208a77	0.03919455
254	0xbcceafc4	-0.025230296
255	0xbd2a160e	-0.04152494

fc2.bias f4 [84]
0	0xbe1d1353	-0.15339403
1	0x3e323abe	0.17405221
2	0xbd072af9	-0.032999966
3	0x3e1199d9	0.14218844
4	0xbd44125a	-0.047869064
5	0x3cae3bd0	0.021268755
6	0x3d685cf5	0.056729276
7	0x3e7d17e4	0.24716145
8	0x3dc02a15	0.093830265
9	0x3ee2b2f2	0.4427715
10	0x3e224ae6	0.15848884
11	0x3c68f8a5	0.014219438
12	0x3e05c6f3	0.13064174
13	0x3d59bfb4	0.053161338
14	0x3dc3545f	0.09537577
15	0x3bbe2693	0.0058029382
16	0x3e7a04f5	0.24415953
17	0xbdaac366	-0.083380505
18	0x3e44250e	0.1915476
19	0x3dbc9083	0.09207251
20	0x3e3d3b71	0.18479706
21	0x3e730823	0.23733573
22	0xbe83cb4f	-0.2574105
23	0x3dccd685	0.10001854
24	0x3ecb49c4	0.39704716
25	0xbd28fba4	-0.04125561
26	0xbd8a475e	-0.067518935
27	0xbda57304	-0.08078578
28	0x3dbbac35	0.09163705
29	0xbd8465cd	-0.064647295
30	0xbd92337e	-0.071387276
31	0xbd83cc80	-0.0643549
32	0xbc1be8c9	-0.0095159495
33	0xbbfecb04	-0.007775666
34	0x3e4047d7	0.18777405
35	0x3ccd534a	0.02506413
36	0xbdd6df3a	-0.10491796
37	0xbdf9b38e	-0.121924505
38	0xbd05cc6a	-0.032665648
39	0x3e16d612	0.14730099
40	0x3e9761e0	0.2956686
41	0xbd7a49e7	-0.061105635
42	0x3dfbfee2	0.123044744
43	0xbd1e59d3	-0.03865988
44	0x3e710730	0.23537898
45	0xbd4bd4e8	-0.04976359
46	0xbc13a7f4	-0.009012211
47	0xbd428be7	-0.047496703
48	0x3d677a44	0.056513086
49	0x3eb685ee	0.35649055
50	0xbd1ce369	-0.038302813
51	0x3dfe0795	0.1240379
52	0x3a8d5b52	0.0010784662
53	0x3c32a430	0.010903403
54	0xbd8c6f1f	-0.06857132
55	0xbda4ac8c	-0.08040723
56	0xbdd40feb	-0.103545986
57	0x3e7d2093	0.24719457
58	0xbc81189a	-0.015758801
59	0xbd999745	-0.074995555
60	0xbd085010	-0.03327948
61	0x3eb25e1b	0.34837422
62	0x3df0ba43	0.117542766
63	0x3e04693c	0.12930769
64	0x3eac27c8	0.336241
65	0x3e15bc50	0.14622617
66	0x3e4a9c07	0.19786082
67	0xbe2d3868	-0.16916049
68	0x3e6e74e7	0.23286782
69	0x3cfc1328	0.030770853
70	0x3c9ad76b	0.018901547
71	0x3d87cbb9	0.06630654
72	0x3d3c345d	0.045948375
73	0x3cbeec44	0.02330602
74	0x3dfec2ab	0.12439474
75	0xbca1696b	-0.019703588
76	0x3dc09ad9	0.09404535
77	0x3de28d39	0.11062092
78	0xbd89eb40	-0.067343235
79	0x3e3ffd69	0.18749012
80	0x3e2b2046	0.1671153
81	0xbc48c01b	-0.012252833
82	0xbda57666	-0.08079223
83	0x3e88059a	0.26566774

fc3.weight f4 [10, 84]
0	0xbd9884ff	-0.07447242
1	0x3daf303a	0.0855412
2	0x3d305c16	0.04305657
3	0xbe2ad047	-0.16681014
4	0xbd57378c	-0.052543208
5	0xbcebe7a8	-0.028796986
6	0xbcffcbe3	-0.03122515
7	0x3e9fba7f	0.31196973
8	0xbd00bbe5	-0.03142919
9	0xbe469eb3	-0.19396476
10	0x3db4a2e2	0.0882013
11	0x3cd71cc2	0.02625883
12	0x3f007ee2	0.5019361
13	0x3d1e8442	0.03870035
14	0x3ea8f5be	0.32999986
15	0xbe0ae0bf	-0.13562296
16	0x3eabb144	0.3353368
17	0xbd06f82e	-0.032951526
18	0x3dae8cff	0.085229866
19	0xbe1645ae	-0.14675018
20	0x3e5cfb4b	0.21580236
21	0x3c251797	0.010076425
22	0x3db1a246	0.08673529
23	0xbd818577	-0.063242845
24	0xbe86592e	-0.26239914
25	0xbd3ee8aa	-0.046608604
26	0xbd746b0f	-0.05967241
27	0xbda09791	-0.07841409
28	0xbdc36809	-0.095413275
29	0xbda50db4	-0.08059254
30	0xbcec02b8	-0.02880989
31	0x3d4e20c4	0.050324216
32	0x3c3502ad	0.011048001
33	0xbd674ba3	-0.056468617
34	0xbe689d0e	-0.22716162
35	0xbab3edbb	-0.0013727465
36	0xbde42e9c	-0.111417025
37	0x3e613241	0.21991827
38	0xbb83a929	-0.004017968
39	0xbe28cdaf	-0.16484712
40	0x3e1c7a87	0.15281115
41	0xbd91b18e	-0.07113944
42	0xbd04b85c	-0.03240238
43	0x3d099bd7	0.033595886
44	0x3dfa5461	0.12223125
45	0xbd857244	-0.06515935
46	0xbd08679d	-0.03330194
47	0x3dd7a13c	0.105288
48	0xbdd00e7b	-0.10159012
49	0x3ba982aa	0.005173047
50	0x3cb96d64	0.02263517
51	0xbd145815	-0.036216814
52	0x3deae3d8	0.11469239
53	0x3e81054e	0.2519936
54	0x3dc55a43	0.09636357
55	0xbd871968	-0.06596643
56	0x3cbf2b38	0.023336038
57	0x3e0e0467	0.13868867
58	0xbc8daac0	-0.017293334
59	0xbd4b7fd8	-0.04968247
60	0xbdded37e	-0.10880183
61	0xbe23cee6	-0.15996894
62	0xbd4ce43a	-0.05002234
63	0xbdb50bb2	-0.08840121
64	0xbb14ea1a	-0.0022722543
65	0xbe1c02ef	-0.15235494
66	0xbe418803	-0.1889954
67	0x3d62d49e	0.05537855
68	0xbd25a5de	-0.040441386
69	0x3e10ee64	0.14153439
70	0x3d96c2b4	0.073613554
71	0xbe0e447e	-0.13893315
72	0x3dd39030	0.10330236
73	0x3c5e2367	0.013558245
74	0xbd2dcfdd	-0.042434562
75	0xbcd7db31	-0.026349636
76	0xbe07c600	-0.13259125
77	0x3e00bd40	0.12572193
78	0xbdb5d719	-0.08878917
79	0x3d42022b	0.04736535
80	0xbe3ee836	-0.18643269
81	0xbd81c2e7	-0.06336003
82	0x3ddccf31	0.10781706
83	0x3e446e70	0.19182754
84	0x3dbb273c	0.09138343
85	0xbde8d95a	-0.113695815
86	0x3a4ffc83	0.00079340505
87	0xbea72d65	-0.3265182
88	0x3d54d7d9	0.05196366
89	0x3e523a4c	0.20530051
90	0xbdf09b7a	-0.11748405
91	0xbdabb11f	-0.083833925
92	0x3d849a87	0.06474786
93	0xbe8c55b7	-0.27409145
94	0x3dd9b0c2	0.10629417
95	0x3a1352e6	0.0005619958
96	0x3eb5069b	0.35356602
97	0x3dcfc788	0.101454794
98	0xbe24f7e2	-0.16110185
99	0x3e787719	0.24264182
100	0x3deb764b	0.11497172
101	0xbdc1a9be	-0.09456204
102	0xbe3d5f51	-0.18493392
103	0xbd7e90d1	-0.062149826
104	0x3c19d230	0.0093884915
105	0xbdeece2b	-0.11660417
106	0x3e9910b6	0.29895562
107	0xbe399c13	-0.18125944
108	0xbdf7f516	-0.12107293
109	0x3d399fa1	0.04531825
110	0x3d82f004	0.063934356
111	0xbd5bc381	-0.053653244
112	0xbe0bdddb	-0.1365885
113	0x3e553f6c	0.20824975
114	0x3dcd329f	0.10019421
115	0x3d2ca62d	0.042150665
116	0x3ddbadaa	0.10726483
117	0x3d566f73	0.05235238
118	0xbd6fbdb7	-0.058530536
119	0x3c92b872	0.017910216
120	0x3e1f11bd	0.1553411
121	0xbcf49600	-0.029856682
122	0xbd0907e1	-0.03345478
123	0x3d44fe73	0.048094224
124	0xbe4dfd85	-0.20116241
125	0x3d7072ed	0.05870335
126	0xbdc55ae1	-0.096364744
127	0x3e1aeea2	0.15130094
128	0x3d966d61	0.07345081
129	0xbd0952bb	-0.033526164
130	0x3c9c93df	0.01911348
131	0x3e3473ba	0.17622271
132	0xbddb2220	-0.10699868
133	0x3d70c1b4	0.05877848
134	0x3c560623	0.013062987
135	0x3ca7a1d1	0.020462902
136	0xbc78421f	-0.015152483
137	0xbe16479f	-0.14675759
138	0x3d58c633	0.052923393
139	0x3e3fb2ae	0.18720505
140	0xbddddbfc	-0.10832974
141	0xbe074677	-0.13210474
142	0xbe1acb96	-0.15116724
143	0x3db55d32	0.08855666
144	0x3e1c56ab	0.15267436
145	0xbe58f73c	-0.21188062
146	0xbdc0b8aa	-0.09410222
147	0x3e230cc8	0.15922844
148	0xbe5705be	-0.20998284
149	0xbdb205c7	-0.08692508
150	0xbe25f59a	-0.16206971
151	0x3e05e274	0.13074666
152	0xbcf9bea5	-0.030486414
153	0xbdcea5d5	-0.10090224
154	0x3e4c2c47	0.19938765
155	0x3d22a87d	0.039711464
156	0x3dd109c4	0.10206941
157	0x3ebaaf30	0.36461782
158	0x3e3bb008	0.1832887
159	0xbe85f243	-0.26161394
160	0xbd4172a3	-0.047228467
161	0xbd926f1a	-0.07150097
162	0x3d83f58e	0.0644332
163	0xbddbc8ed	-0.10731683
164	0xbe34d9d8	-0.17661226
165	0x3e0aa389	0.13538946
166	0xbd5d1e29	-0.05398384
167	0xbe81839e	-0.25295728
168	0xbc259c9d	-0.01010814
169	0x3dd2c84f	0.10292112
170	0x3db4c3a8	0.08826381
171	0x3e7feef1	0.24993493
172	0x3e6c8b1d	0.23099943
173	0xbdac4fb7	-0.08413642
174	0x3c57a300	0.013161421
175	0x3ea3d109	0.3199542
176	0xbde884f4	-0.11353484
177	0x3e5d6bd5	0.21623166
178	0xbd955d69	-0.07293207
179	0xbe5a9ed1	-0.21349646
180	0x3d04992c	0.03237264
181	0x3d70a09e	0.058746926
182	0x392b99d8	0.00016365142
183	0xbd0e98cf	-0.0348137
184	0xbde15c26	-0.11003904
185	0xbd8f482e	-0.06996189
186	0x3e555faf	0.20837282
187	0x3da7f309	0.08200652
188	0xbd14ad5c	-0.03629814
189	0xbdea47e3	-0.114394926
190	0xbd90b667	-0.070660405
191	0x3c8e5f94	0.01737956
192	0x3e8d391a	0.27582628
193	0x3d364e36	0.04450818
194	0xbd9c232f	-0.07623898
195	0xbd0ea36d	-0.034823824
196	0xbe62b753	-0.22140245
197	0xbda2fed5	-0.079587616
198	0x3e1bf323	0.15229468
199	0x3d536f71	0.05161995
200	0x3d37b20b	0.04484753
201	0x3e7d2345	0.24720486
202	0x3d810581	0.06299878
203	0xbd5f11f2	-0.054460473
204	0xbca55f6e	-0.020187106
205	0x3dc574f6	0.09641449
206	0x3cd442c0	0.025910735
207	0xbda3793d	-0.07982109
208	0x3e18524c	0.14875144
209	0x3d60b53a	0.05486033
210	0x3e0817c9	0.13290323
211	0x3d75ccb4	0.060009673
212	0x3e95d72a	0.2926572
213	0xbd47c0c4	-0.04876782
214	0x3c37c3f9	0.011216157
215	0xbdd7f89b	-0.105454646
216	0xbdae8a61	-0.085224874
217	0x3dcefbed	0.10106645
218	0xbe78ed1b	-0.24309199
219	0x3e149438	0.14509666
220	0x3d807d66	0.06273918
221	0x3df78421	0.120857485
222	0xbd0fac46	-0.035076402
223	0xbca6ee2d	-0.020377243
224	0x3a6cd7e6	0.0009034857
225	0xbcffe043	-0.031234866
226	0xbdf14007	-0.1177979
227	0xbdcc00b1	-0.099610694
228	0xbe117618	-0.14205205
229	0xbd59737c	-0.05308865
230	0x3bab94a9	0.0052362275
231	0xbbcbf851	-0.00622467
232	0x3e04a92f	0.12955163
233	0xbd626dec	-0.05528061
234	0xbd704aad	-0.058664966
235	0xbdd0a45a	-0.101875976
236	0xbdbbaec5	-0.09164194
237	0x3e736026	0.23767146
238	0xbe3df3a7	-0.18549977
239	0xbd66ed23	-0.056378495
240	0x3d1b4324	0.037905827
241	0xbe77c8f9	-0.24197759
242	0xbd61c3f6	-0.055118524
243	0x3dcbc2aa	0.099492386
244	0xbe1ac7d4	-0.15115291
245	0x3d14d59a	0.03633652
246	0xbb1fe89a	-0.0024400116
247	0x3c40f021	0.011776001
248	0x3dea8aeb	0.11452278
249	0x3d7dc4f8	0.061955422
250	0x3de40a86	0.1113482
251	0x3e510db5	0.20415385
252	0xbdb3a1ad	-0.087710716
253	0x3de6e95a	0.11274977
254	0x3d2922e7	0.04129305
255	0x3e07b607	0.13253032

fc3.bias f4 [10]
0	0xbd9e7356	-0.07736842
1	0xbf0d0785	-0.550896
2	0x3e0b8ab8	0.13627136
3	0x3e86f2bb	0.26357064
4	0x3ee647e3	0.4497672
5	0xbe33c3d3	-0.1755517
6	0x3e2f045b	0.17091505
7	0xbe9a5545	-0.3014318
8	0x3eb28826	0.34869498
9	0xbe85f180	-0.26160812
