Models/07-04-2023-16-03-09/model_CNN_SGD.pth (torch, 250951 bytes, 10 tensors)

conv1.weight f4 [6, 3, 5, 5]
00000000: af63 e9bd b0f5 3fbc b634 893d 60b7 1f3d
00000010: 4275 1abd 2802 633d c6c7 54bd 2099 383d
00000020: 884c cf3d 0024 28bb 3292 36bd 24d0 d03d
00000030: 317a dfbd de34 bd3d da7d dcbd 34ef a93d
00000040: 647c 37bd be5f cbbd 759d e6bd 64b0 07bd
00000050: 6a0d d13d 5b08 bebd cc17 a8bc d0c8 96bb
00000060: 8054 8cbc 1e4e e83d 4c62 243d 8851 b53d
00000070: 8982 b5bd 7c2b a1bd a6c4 b5bd e059 3cbc
00000080: 63d4 63bd 48bc 943d e4cf bdbd 6b81 64bd
00000090: 04d7 febc 6491 a3bc e415 0e3d 7056 d1bb
000000a0: 0c45 aabc bc84 143d e093 acbc 50cb 39bd
000000b0: 16c1 af3d 8030 6dba 3062 21bd 0a99 953d
000000c0: dfc8 83bd e89c f8bc 6a91 d93d 9680 e43d
000000d0: 5215 ab3d a090 ae3d 1cfa 123d 8c6e d83d
000000e0: dedb d0bd 90a9 bcbb cac1 c33d 2c35 8d3d
000000f0: 6ad7 cbbd d0d1 ab3d 62e0 dc3d 5e06 933d
00000100: f2f3 d6bd d610 04bd ee60 c93d ecb5 a9bc
00000110: 1053 9cbb a459 7f3d 1e82 e13d de3c 51bd
00000120: 9e07 dc3d 0038 6339 0065 043a f0a2 9ebc
00000130: e0bc 1bbd a25b c8bd fa06 c33d af10 85bd
00000140: 7a0a acbd d3c5 d8bd a8bb 933d 4c44 3a3d
00000150: 7cad bb3d ec2a 21bd b204 a3bd 6470 c9bd
00000160: 080e 0b3d f539 d5bd 3647 c6bd 0042 01ba
00000170: b02c 0b3c ec81 d93d 283e e23d 74ef b7bd
00000180: 6ece e63d 0ec6 c43d 7cee 7f3d edde c1bd
00000190: 604d 8fbd b0db e53d 76de 4fbd 0489 3ebd
000001a0: fb21 9cbd c01c 08bb 4467 8bbc 4021 c63c
000001b0: 600b 1ebb 78f7 3c3d 30d7 b13b f7ee 7abd
000001c0: 5ebf d0bd 605b 973c 4a3d a13d 4c6d 2b3d
000001d0: 0792 d6bd 46ea 93bd d8d5 59bc cae2 b53d
000001e0: fae5 e63d 2aee 49bd 95f2 c0bd ad79 65bd
000001f0: 88a7 353d c0f9 85ba 2cae 293d 4c2c 6b3d
00000200: 1e68 19bd 0626 94bd 7afb cb3d 1a16 3dbd
00000210: 762c c9bd a434 6d3d 0969 bbbd 92f2 933d
00000220: e68c 2cbd 3ce5 c03d 3690 e7bd 3a4d 943d
00000230: ac37 99bc d9bc 7fbd 6c1e e5bd ac89 9cbd
00000240: c275 2bbd acb8 7b3d 5a10 913d 0837 753d
00000250: a892 353d 30a8 1cbc 4cd0 95bd cc27 293d
00000260: 10b5 ebbd 3a9f 98bd b8a7 94bc 1023 bf3d
00000270: 708c 9f3b 5614 9dbd 8cc0 3c3d faeb bdbd
00000280: baef b53d 8c9a d9bd 1c5d e2bc b2c1 873d
00000290: 98e7 d0bd 06f7 c43d 90d4 74bc dce3 a2bd
000002a0: 48db ca3c 96f0 d53d 34fb 35bd e642 b93d
000002b0: 3162 c3bd a846 61bc 801e 85bc 888b b73d
000002c0: a44f 9abd 78ee a43c e853 013d 1409 16bd
000002d0: b0eb 99bc 8093 eb3d a09d 90bd 7852 c63c
000002e0: dc9c acbd 5477 83bd 427b 8bbd 807d 1d3b
000002f0: 086f 2a3d 982e d73d 30c3 f6bc 647a 85bc
00000300: 00e7 8739 b021 523d 7402 263d 8e27 ce3d
00000310: ec46 463d 119d d2bd ace9 24bd 2055 4c3c
00000320: 54f7 22bd 443c 56bd 588d 7cbd e07b 343d
00000330: c8ec 973d 965b bc3d 20b2 fcbb 8899 9f3d
00000340: 0063 213a 10df cb3c dcbe 73bd 9400 3d3d
00000350: 0a2b d33d a8af 20bd 7010 163d a485 cd3d
00000360: a416 f7bc d4f3 163d f20e 32bd 4db8 cebd
00000370: 0570 c0bd 44af d53d 70f9 793d c863 48bd
00000380: c055 64bb 14a1 7a3d 2130 b1bd 6875 e03d
00000390: 00ab b6ba 843a b0bd a042 6c3d 202b 503d
000003a0: 2e74 ae3d c0b3 31bc c057 733c bc30 de3d
000003b0: 0cf5 b83d 8031 223c 288f d33d 00f6 abbd
000003c0: 2000 81bd f56d 7ebd 7847 dcbd 60d0 f6bc
000003d0: 3435 8bbd 7e1e e8bd aa5c 2bbd ce02 9bbd
000003e0: 9067 b93c 4883 8b3c 6223 833d a027 ee3b
000003f0: 4ad6 a43d 5204 993d bce9 bdbc c212 a33d
-0.11395966 -0.011716291 0.06699507 0.03899324 -0.037709482 0.05542198 -0.05194833 0.045067906
0.10122019 -0.0025656223 -0.044573016 0.1019595 -0.10911978 0.09238599 -0.10766192 0.082975775
-0.044796363 -0.09930371 -0.11260501 -0.033127204 0.10207637 -0.092789374 -0.02051916 -0.0046015754
-0.017130136 0.11343025 0.040132806 0.088534415 -0.08862788 -0.07869622 -0.08875398 -0.011496037
-0.05562247 0.07262474 -0.092681676 -0.055787485 -0.031108387 -0.019966789 0.034688845 -0.006388478
-0.020784877 0.036259398 -0.021066606 -0.04535991 0.0858175 -0.00090480596 -0.03940028 0.073045805
-0.064347975 -0.030348256 0.10623439 0.11157338 0.08353676 0.08523679 0.035883054 0.1056796
-0.10198186 -0.005757518 0.09558447 0.06894907 -0.09953196 0.08389628 0.10784985 0.07178949
-0.104957476 -0.03224262 0.09832941 -0.02071663 -0.004770644 0.062341347 0.11011146 -0.051083438
0.1074364 0.00021669269 0.00050504506 -0.019364804 -0.038021922 -0.097831026 0.09522815 -0.06497323
-0.08400436 -0.10584607 0.07213527 0.04547529 0.09163949 -0.039347574 -0.0795988 -0.0983589
0.033948928 -0.10411445 -0.09681551 -0.0004930794 0.008494541 0.10620484 0.110470116 -0.08981219
0.11269842 0.096080884 0.062483296 -0.09466348 -0.0699718 0.11223543 -0.050749265 -0.046517387
-0.07623669 -0.002076909 -0.017017014 0.024185777 -0.0024115667 0.046134442 0.0054272637 -0.06126305
-0.101927504 0.018476188 0.07873018 0.04185228 -0.10477071 -0.072224185 -0.013295613 0.08881147
0.11274333 -0.049299397 -0.09421269 -0.056024242 0.044349223 -0.0010221526 0.04142587 0.05741529
-0.03745281 -0.07233815 0.09960075 -0.046163656 -0.098229334 0.05791153 -0.09150893 0.07224001
-0.04212656 0.09418723 -0.11306803 0.07241292 -0.018703304 -0.06243596 -0.11187443 -0.07643446
-0.04186035 0.061455414 0.07083197 0.059866935 0.044329315 -0.009561583 -0.0731512 0.04129772
-0.11509144 -0.07452245 -0.01814638 0.093328595 0.0048690364 -0.076698944 0.046082065 -0.092735246
0.08883615 -0.106251806 -0.027632289 0.06628741 -0.10200423 0.096174285 -0.014943257 -0.07953617
0.024762765 0.10446279 -0.04442902 0.09045963 -0.09540213 -0.013749756 -0.016249895 0.0896216
-0.075347215 0.020133242 0.03157416 -0.03662975 -0.018789142 0.11502743 -0.070613146 0.024209246
-0.08428356 -0.064192444 -0.06810619 0.0024031103 0.041609794 0.10506934 -0.03012237 -0.016293712
0.00025921315 0.05130166 0.040529683 0.10066138 0.04840748 -0.10283864 -0.04026191 0.012471467
-0.03978665 -0.052303568 -0.061658233 0.04406345 0.07418209 0.09197156 -0.007711664 0.07792956
0.0006156415 0.024886638 -0.05950819 0.04614313 0.103109434 -0.03923002 0.03663677 0.100352556
-0.030162163 0.036853626 -0.043471284 -0.10093746 -0.09396366 0.1043382 0.061028898 -0.048923284
-0.003484115 0.061188772 -0.08651758 0.109598935 -0.001393646 -0.08604911 0.057680726 0.050822377
0.08518253 -0.010846078 0.014852464 0.10849139 0.09031114 0.009899497 0.10330039 -0.0839653
-0.06298852 -0.062116582 -0.10755819 -0.030128658 -0.06797257 -0.11333941 -0.04183642 -0.07568894
0.02263239 0.017030373 0.06403233 0.0072679073 0.08048685 0.07471527 -0.023182742 0.07962562

conv1.bias f4 [6]
00000000: 92fe 20bd 98af 493d 14a1 8c3d 507e b0bc
00000010: c4d5 383d da74 a8bd
-0.039305277 0.049239725 0.06866661 -0.021544605 0.045125738 -0.08225413

conv2.weight f4 [16, 6, 5, 5]
00000000: c077 4dbb 004a d43c 5806 003c 4a5d a4bd
00000010: ccbc 243d 117d 6abd e4af 9cbd 640d a8bc
00000020: a288 9b3d 35ac 04bd 04a7 573d 60e2 3fbd
00000030: 40f5 e5bb 3f88 9ebd 54b4 693d cc67 94bc
00000040: e2b7 983d ee73 efbc 8656 10bd 9eb6 7abd
00000050: f877 19bd a44e 6b3d 5388 36bd 009f ce3a
00000060: a0e2 b7bc cadc a3bd a44c 9b3d 8828 5c3c
00000070: ecbe 973d dcbf c9bc 9897 3c3d aaf6 8e3d
00000080: 2069 a8bc 8079 353d 087c 263d f823 a1bd
00000090: 18e0 4ebd dc8f 073d 362d 8b3d 6091 35bb
000000a0: cf47 1abd 72ad a13d 3635 183d 3a7a 7abd
000000b0: 8ff1 93bd 40d6 773d a0cd 67bb b6ee 1e3d
000000c0: ccad 75bd 2081 6b3d affd 1abd 1421 fe3c
000000d0: 9c23 70bd c0d2 edbb e448 893d 7cd9 51bd
000000e0: 0212 223d 8bc6 2dbd ea8b 0b3d 08e3 44bc
000000f0: bc9c 8cbd d883 0a3c 9ab5 74bd 4d19 84bd
00000100: 00be 9ebd 603b 35bc 801d f3ba 1850 8b3d
00000110: dd2b 9abd e850 5a3c 2e68 a6bd 3604 113d
00000120: 3079 473d e1d9 7fbd e65e 833d 3a64 18bd
00000130: a262 f5bc 564b a33d 90ac e13c 1875 7f3d
00000140: 103c bbbc d684 8f3d 6a08 3cbd b7e5 2ebd
00000150: 5078 683d 9c82 543d f83c 903d a099 a0bb
00000160: 3aea 243d 6a02 b7bc c23c 8f3d a0a8 ff3b
00000170: 600f 3cbc 60fd 69bc 1ec8 9abd 6c40 453d
00000180: f335 47bd 0e0f a13d ac33 00bd a853 27bd
00000190: a4cb 8b3c ac16 8e3d a8c0 0bbd e8fa 48bc
000001a0: ded4 1dbd e09d bd3b 1d8d 97bd 8c2c b33c
000001b0: 8ae2 993d 703a cabc 9aa1 e6bc 3a81 833d
000001c0: c06c 0cbc f848 043c 0606 e6bc 94e0 a63d
000001d0: 78e0 9a3d 644d 8abc e80b 4c3d b444 6ebd
000001e0: 600c 02bd 2a5b 9b3d b25e 05bd 362e 283d
000001f0: abfd 8fbd 0028 51bd 20cf 1c3d e823 05bc
00000200: 2472 703d 4907 0cbd 0868 5d3d 96cd 6fbd
00000210: c8e1 fb3c db7e 70bd 006a 83bd 4692 1ebd
00000220: a080 8c3d 5ae8 98bd 50cf 76bd 24a6 79bd
00000230: 3cd2 b73c b4dc 89bc 5c21 4d3d b8a7 423c
00000240: 04aa a13d b0f6 fb3b f073 783d 48b1 883d
00000250: 6b95 24bd 48e3 62bd 480c 703c 1b1a 12bd
00000260: e028 633c d08a e5bc 90a7 9c3d 2a3f 9f3d
00000270: b089 da3c 0f65 3dbd f9c0 40bd 28fe 723c
00000280: 90d0 793d d29f 133d 8e30 023d 8cb8 6bbd
00000290: 00dd f8b9 9822 be3c c89f 0abd 00a4 0dbc
000002a0: 785a 773c 0c2b 3dbd 246d 41bd 12ee 0a3d
000002b0: 1059 f33b 91af 9bbd a812 5bbc b0de 8fbc
000002c0: d84f 973c 4052 d03c 521e 97bd 261f 1b3d
000002d0: 2073 293b 402c e73b a08e 1bbb 50a9 ac3c
000002e0: f8bf 6cbc 44d8 803c 68ba 4a3d fe5b 813d
000002f0: b0aa a8bb 5ba7 0bbd 4d96 9bbd 1780 8fbd
00000300: 3e13 a73d ac7d 97bd bca2 6d3d 2eea 1ebd
00000310: 04f7 d1bc 8023 373b fcd1 ba3c c6f6 9fbd
00000320: 40ce af3a 9493 963d 84be 3f3d 3883 363d
00000330: 448a a9bc 8246 9e3d 32f6 06bd 37fc 30bd
00000340: 0a11 8ebd ac87 373d 40e8 11bd f0de 5d3d
00000350: 810d 95bd 0019 86b9 f31f 75bd 9024 83bb
00000360: 7316 69bd 3c27 353d b2e3 51bd d037 453d
00000370: 1425 133d 881a 4abd 1ca4 18bd 209b 03bc
00000380: 90f8 363d 5e4d 2e3d 007a a3bd 2008 163c
00000390: 0098 4b39 bc22 613d b0b6 913b 4892 72bc
000003a0: 107a d13c f8a4 97bd a5e9 a1bd a581 81bd
000003b0: 2074 5e3d aa1a d8bc 2cd1 da3c 2b05 37bd
000003c0: 381d be3c 7226 ffbc 9b21 8abd 0272 1e3d
000003d0: 00fb a73a ee74 963d 5300 16bd 9028 253d
000003e0: 1876 0ebc 0086 6e3a 7817 403d fc1c 3c3d
000003f0: 0098 e7bc b24d bebc e020 42bc c90a 8cbd
-0.0031351894 0.025914192 0.0078140125 -0.08025606 0.040219113 -0.05724818 -0.07650736 -0.020514198
0.0759442 -0.032390792 0.052649513 -0.046846747 -0.0070177615 -0.07740831 0.05705674 -0.0181159
0.07456948 -0.029230084 -0.035238765 -0.061209314 -0.037467927 0.057448044 -0.044563603 0.0015763938
-0.02244693 -0.080010965 0.075829774 0.013437398 0.07409462 -0.024627618 0.04604301 0.06980641
-0.02055794 0.044305325 0.04064563 -0.078681886 -0.05050668 0.03309618 0.06795733 -0.0027705058
-0.03766614 0.0789441 0.03716012 -0.06115172 -0.07223808 0.06050706 -0.0035370365 0.03880187
-0.0599802 0.05749619 -0.037839588 0.031021632 -0.05862771 -0.0072577894 0.06703356 -0.0512328
0.039567955 -0.042425673 0.03406898 -0.012017019 -0.06865832 0.008454286 -0.0597435 -0.06450138
-0.077510834 -0.011061519 -0.001854822 0.06802386 -0.075278975 0.013324954 -0.081253394 0.035404406
0.048699558 -0.062463645 0.06414585 -0.03720496 -0.029954258 0.079733536 0.027548105 0.06236753
-0.022855788 0.07007758 -0.04590646 -0.042699542 0.056755364 0.05188237 0.07042879 -0.004901126
0.04026244 -0.022340018 0.069940105 0.007802084 -0.011478275 -0.014281601 -0.075577006 0.04815714
-0.048635434 0.078641996 -0.03129928 -0.040851265 0.017064877 0.06937918 -0.03411928 -0.012266852
-0.038533084 0.0057866424 -0.07399962 0.021871828 0.07513912 -0.024686068 -0.02815323 0.064211324
-0.00857085 0.008074038 -0.028079044 0.08148304 0.07562345 -0.016882606 0.049816042 -0.05817099
-0.031750083 0.075857475 -0.03256101 0.041059695 -0.07030805 -0.051063538 0.038283467 -0.0081262365
0.058702603 -0.034186635 0.05405429 -0.05854567 0.03074731 -0.05871473 -0.06416702 -0.038713716
0.06860471 -0.074661925 -0.060256302 -0.06094946 0.022439115 -0.016828872 0.050080642 0.011880808
0.07893756 0.0076893196 0.06065744 0.06674439 -0.04018156 -0.055392534 0.014651366 -0.035669427
0.013864726 -0.028020293 0.076491475 0.077757195 0.026676983 -0.046238955 -0.047059033 0.014831103
0.060989916 0.03604109 0.031784587 -0.057549044 -0.00047466904 0.023209855 -0.033843786 -0.008645058
0.015097253 -0.04618363 -0.047223225 0.033918448 0.0074263886 -0.07601846 -0.013371147 -0.01756224
0.01847069 0.025429845 -0.0737883 0.037871502 0.0025855973 0.0070548356 -0.0023736134 0.021076828
-0.014450066 0.015728123 0.049494177 0.06316374 -0.0051473007 -0.03409515 -0.07597027 -0.07006853
0.08157967 -0.07397017 0.058016524 -0.03879755 -0.025630482 0.0027944744 0.022805206 -0.0781074
0.0013412908 0.07352367 0.04681255 0.044558734 -0.020695813 0.07728292 -0.032949634 -0.04320928
-0.06936844 0.04480712 -0.03562188 0.054167688 -0.07277966 -0.00025577098 -0.059844922 -0.0040021613
-0.056906175 0.04422687 -0.051242538 0.04814893 0.035924032 -0.04934171 -0.037265882 -0.00803259
0.04467064 0.04255425 -0.07982254 0.009157211 0.00019416213 0.054964766 0.004446827 -0.014805384
0.0255709 -0.07404512 -0.07905892 -0.06323556 0.054309964 -0.026379902 0.026711069 -0.044682663
0.023207292 -0.031146262 -0.06744691 0.038682945 0.0012815893 0.07346521 -0.036621403 0.040321887
-0.008695148 0.0009098947 0.04689738 0.04592608 -0.028270721 -0.023230407 -0.011848658 -0.068379946

conv2.bias f4 [16]
00000000: 0cf7 08bd dc89 343d a66f 37bd 840a 253d
00000010: 81f6 2ebd 709a 093c ae0d 963d 2017 abbc
00000020: 940c 923c 8851 d13c dc5c 3cbd dae9 60bd
00000030: b4bc 273d 805b 563d 54f8 1f3d 9272 27bd
-0.033438727 0.044076785 -0.04478421 0.04029323 -0.042715553 0.008398637 0.07326828 -0.02088505
0.017828263 0.025551572 -0.045986995 -0.05491052 0.040951446 0.052333355 0.039055184 -0.040880747

fc1.weight f4 [120, 400]
00000000: 003d 0139 002f 90bc 43f1 d6bc c181 153d
00000010: c45e 563c 317a 193d 9702 313d 9a94 9a3c
00000020: 0000 aeb8 3fb3 2dbd 29d1 423d 97b2 423d
00000030: c803 70bc d294 a13c 9907 083d 8e3e 883c
00000040: 60b7 213c 60eb 7fbc 9285 11bd e821 97bb
00000050: 40a4 eaba 34c1 4d3c 4e20 f43c 3adb ea3c
00000060: ea8d 8c3c f41a 68bc 2ac6 df3c d2ac b23c
00000070: 80d3 263a 85de 12bd de03 28bd d685 c53c
00000080: ac3f 08bc 815a 083d 169d 943c 383c 6cbc
00000090: 8031 e53b c369 17bd 110f 0b3d 204a 82bc
000000a0: 8f2b 063d d404 1dbc 008b 36bc c05c bdbb
000000b0: fe4b ee3c b179 183d e032 1cbc 28f9 b73b
000000c0: d0a8 2fbd 3f50 2d3d 56ef 13bd 6dc2 f4bc
000000d0: 0099 9b3a 6397 23bd 75ef 09bd 148c 49bc
000000e0: 5af6 f93c d4c8 5d3c 583a 09bd 7212 34bd
000000f0: e857 aebb 601c f4bc cc3d 37bc ca5d ebbc
00000100: b006 05bb e2e9 fb3c d6e6 a83c 20bb 433b
00000110: b334 1cbd 7e70 d73c e110 033d 5618 ed3c
00000120: f9bb 373d e7d8 e8bc 10f7 a4bb f052 ce3b
00000130: b0f1 25bd 2a7f ff3c 8099 ddbb aa8e afbc
00000140: d003 cebb 720c 1dbd c4e8 593c 1e2d d93c
00000150: fa6d 9cbc 2953 353d a33d 2b3d 87e9 a9bc
00000160: eac5 13bd f245 db3c 488f 2b3c 4bc6 483d
00000170: 503f 863b cfdb 233d 00b4 f03a c1a0 043d
00000180: 984b a03b c8f4 6bbc 9ddf a5bc 88d3 7fbc
00000190: 59fe 063d ea1d f8bc 010e 1c3d 5225 e13c
000001a0: 3820 1d3c 4e73 1dbd 986c 443c 9a83 b7bc
000001b0: 2ddb 09bd 80a5 14bb 8065 6eba c8ee 08bc
000001c0: df4c 003d aad9 e13c f2af b13c f497 54bc
000001d0: 00a0 85ba 8635 e73c 5277 20bd 1a29 e1bc
000001e0: 0cb7 1c3c f13d 003d 87ee 453d c06c 083c
000001f0: 306a 8a3b a7dd c9bc 2c9d 88bc 27bc e9bc
00000200: 3087 babb 05b6 48bd d883 93bb 84d6 713c
00000210: b40f 533c 70de 873b a8eb 72bc 40fe d8bb
00000220: 82b4 b23c c077 bdbc ee86 d73c aae1 db3c
00000230: 537f fcbc 8ea0 e53c 5313 9dbc 1874 823b
00000240: b4b0 313c d273 aa3c fa55 0bbd c650 8f3c
00000250: 9c3e 04bd 286c cf3b 7aeb 1cbd f01c b3bb
00000260: e63a 89bc 82ec 31bd 504a 433b 5df5 1c3d
00000270: c130 0e3d 8f07 003d 48d3 38bc 0ae6 f6bc
00000280: 00b8 3d38 a03e 1ebc f151 383d 4d5b 46bd
00000290: d25e b83c 5c4f 8dbc 01dc 213d 1338 0c3d
000002a0: 804c debb 6cd8 45bc 8280 de3c d000 4ebb
000002b0: a022 14bc 865f a33c 820a e73c 908e ccbb
000002c0: 5a79 c3bc 688c 36bc a8eb 56bc 804a 64bc
000002d0: 2e3e 16bd 5e1d 9d3c 325c cb3c 52f1 fe3c
000002e0: 682d 323c 691f 413d cde4 3cbd 00b4 d9b9
000002f0: 1639 c63c 8859 09bc e081 33bb 0a99 b93c
00000300: 993d 073d 5252 c13c 4818 46bd 0030 25bb
00000310: a08b 99bc d103 0b3d 0ba8 2cbd b2bc e13c
00000320: 8a20 32bd 21b6 173d bf97 343d 7d5f e0bc
00000330: c074 38ba 40b9 57bc 610f 193d 0cb8 473c
00000340: 4c67 08bd 8a0f e23c 5492 233c 3238 983c
00000350: e3f2 a4bc 44a7 5b3c 7aa3 05bd 1237 e43c
00000360: 9465 5b3c 230e 2ebd 4b13 133d 80c2 9db9
00000370: 0dfa 05bd 8b53 143d 1420 54bc 101d d9bb
00000380: 8dd8 1dbd 9017 cfbb 20a6 79bc 37d2 d4bc
00000390: 4768 c5bc 6839 4bbc e09a 08bb 9ab3 d93c
000003a0: 968d 913c 0398 36bd 008a 35bd 1ec3 15bd
000003b0: 9df6 aebc a80c 4dbc b1a0 093d 18d3 19bd
000003c0: 9640 16bd 0be9 273d 2117 4c3d 28a0 7dbc
000003d0: 8237 e43c 8893 00bc ea4c bdbc b521 1f3d
000003e0: adcd bdbc 5910 433d c3af 9bbc 882c 11bc
000003f0: b302 343d dd06 333d f68f 16bd ed5a 2dbd
0.00012325123 -0.017600536 -0.02623809 0.036500696 0.013084117 0.037470046 0.04321536 0.018869687
-8.2969666e-05 -0.04240727 0.047562752 0.047533598 -0.014649339 0.019724283 0.03321037 0.01663139
0.00987038 -0.015620083 -0.035527773 -0.0046121962 -0.0017901734 0.01255827 0.02980056 0.028668988
0.017157514 -0.014166582 0.027316172 0.021810923 0.00063639134 -0.035856742 -0.041019313 0.02411167
-0.008315962 0.033289436 0.01814131 -0.014418654 0.0069944263 -0.036966097 0.033949915 -0.015904486
0.032756384 -0.009583671 -0.011141539 -0.005778879 0.02908897 0.03722543 -0.009533614 0.0056144185
-0.0428856 0.042312857 -0.03611692 -0.029877866 0.0011871159 -0.039939296 -0.03367563 -0.012301464
0.030512977 0.013536651 -0.033502907 -0.043962903 -0.005320538 -0.029798687 -0.011184167 -0.028731246
-0.0020298176 0.030751172 0.020617884 0.0029866174 -0.038136195 0.026298758 0.03199852 0.028942268
0.044857 -0.02842374 -0.005034335 0.006296508 -0.040513694 0.031188566 -0.0067626834 -0.021430332
-0.0062870756 -0.038341947 0.013300125 0.026510771 -0.01909541 0.04426876 0.04180683 -0.020741237
-0.036077417 0.026766751 0.010471173 0.049017232 0.004096903 0.040004548 0.0018364191 0.03237987
0.004891824 -0.014401622 -0.020248229 -0.015614398 0.03295741 -0.030287702 0.038099293 0.027483616
0.009590201 -0.03844004 0.011988781 -0.02240162 -0.033656288 -0.0022681653 -0.0009094104 -0.008357711
0.03132331 0.02756961 0.021690343 -0.012975682 -0.0010194778 0.028223764 -0.039176293 -0.027485419
0.009565126 0.031309072 0.04832318 0.008326709 0.0042240843 -0.024641825 -0.016676508 -0.0285321
-0.005692385 -0.049001712 -0.004501801 0.014760617 0.012882162 0.0041463897 -0.014826693 -0.006622106
0.021814588 -0.02312839 0.026309457 0.026841003 -0.030822432 0.02803066 -0.019174254 0.0039811246
0.010845352 0.02080718 -0.03401754 0.01749457 -0.03228627 0.006330032 -0.038310505 -0.005466096
-0.016751718 -0.043438442 0.0029798932 0.038319934 0.034714464 0.03125721 -0.011280842 -0.030138988
4.5232475e-05 -0.009658486 0.04500002 -0.048426915 0.022506151 -0.017249756 0.039516453 0.034233164
-0.006784022 -0.012075525 0.027160887 -0.003143359 -0.009041458 0.01994301 0.028203253 -0.0062425807
-0.023861576 -0.011141874 -0.013117708 -0.013933778 -0.036680393 0.019179042 0.024824236 0.03112093
0.0108750835 0.047149096 -0.04611664 -0.00041523576 0.024197143 -0.008383162 -0.0027390644 0.022655983
0.03301773 0.023598824 -0.048363 -0.0025205612 -0.018743336 0.033939186 -0.042152446 0.027555797
-0.043488063 0.037038926 0.04409003 -0.027389282 -0.000703644 -0.013166726 0.037368182 0.012189876
-0.033301637 0.0275953 0.009983618 0.018581484 -0.020135349 0.013406578 -0.032626607 0.02785829
0.013390917 -0.04249395 0.03590707 -0.00030090287 -0.03270917 0.036212485 -0.012947101 -0.006625779
-0.038536597 -0.0063199475 -0.015237361 -0.025979144 -0.024097575 -0.012403823 -0.0020844266 0.026574899
0.017767709 -0.044578563 -0.04432106 -0.03656303 -0.021357829 -0.0125152245 0.033600513 -0.03755483
-0.036682688 0.04099373 0.049826745 -0.015480079 0.0278585 -0.007847674 -0.023107965 0.038850505
-0.023169363 0.047623012 -0.019004708 -0.008860715 0.043947887 0.043707717 -0.036758386 -0.04232304

fc1.bias f4 [120]
00000000: 54af 6f3c ad3b cebc 0045 cbba ccc8 10bc
00000010: 6423 85bc d8b1 333c 2c6c 403c 919a 2f3d
00000020: e833 08bc 1e99 20bd 4670 d73c d62d 8bbc
00000030: 0421 6a3c f8c6 35bd e0b3 1e3c a0f5 2b3b
00000040: 1acd e9bc 1fea 453d a26f ea3c 5050 2ebd
00000050: a81d 933b 4dfa bcbc ea7e 893c 8040 353b
00000060: c0d4 6eba d4ab 97bc ec39 02bc 8c4c 57bc
00000070: 541f 29bc 5813 1bbc 7240 e43c ba7b 813c
00000080: 8671 f83c 291f 2a3d 75cd 10bd 00f8 ed3a
00000090: c8a8 39bd 8766 2fbd 7286 3cbd 965d ec3c
000000a0: 65b9 14bd 39fa 383d c0d8 1dbc bae5 c63c
000000b0: 4869 12bd 132f 423d 209e 4c3c 802d b3bb
000000c0: ac19 493c 9a27 ecbc e510 0cbd 2c6f 62bc
000000d0: f599 1abd d35e 14bd 1074 8dbc 616c 3e3d
000000e0: a5d9 2d3d cc76 8fbc 509b 863b c4de 87bc
000000f0: 8e3b 1fbd 81f4 123d 200d 5a3b b0be b43b
00000100: b271 e63c 6201 853c f9fd 453d b27d 1ebd
00000110: 589b 2ebd f65e 21bd 4a82 a8bc 8a90 8e3c
00000120: 70ab bebc d410 79bc cf85 2d3d 8b62 363d
00000130: df30 183d b641 c63c e38d 9ebc 5641 aa3c
00000140: e09c fdbc c3d8 353d 8660 0fbd 1eb3 22bd
00000150: c0fc 193a a5c6 1ebd 4ded 48bd 535e 163d
00000160: 406a 0b3c f040 fdbc c09f 113c 6a05 c33c
00000170: 356f 3c3d 9ce8 88bc 60a4 adbc 82d6 823c
00000180: 330e c2bc 647c 593c 03ac b6bc 78de 1dbc
00000190: 1f22 3cbd 1f44 283d 61ee 3d3d 0041 043b
000001a0: c431 693c 55bc 093d f4ca 3dbc 602c 9ebc
000001b0: d818 fd3b 00d8 49ba 1891 28bd 07b7 033d
000001c0: 1826 98bb a650 1ebd b09b 563b 0c44 44bc
000001d0: 98cd b5bb 77da ebbc 26a4 23bd 0f33 0f3d
0.014629204 -0.02517494 -0.0015508235 -0.008836936 -0.016252227 0.010967694 0.01174454 0.042872015
-0.008313157 -0.039208524 0.026298653 -0.01698963 0.014290098 -0.044379205 0.00968644 0.0026238933
-0.028540183 0.04831898 0.028617684 -0.04255706 0.0044896193 -0.023068571 0.01678415 0.0027656853
-0.0009110682 -0.018514551 -0.00794838 -0.013140809 -0.010322411 -0.009465061 0.027862761 0.015806068
0.03032757 0.041533623 -0.03535219 0.0018155575 -0.045326978 -0.042822387 -0.046026655 0.028853219
-0.03630962 0.045160506 -0.009634197 0.024279464 -0.035744935 0.047408175 0.012488872 -0.0054680705
0.012274187 -0.028827477 -0.0341958 -0.013820451 -0.03774448 -0.036223244 -0.017267257 0.046490077
0.04244389 -0.017512701 0.00410787 -0.016585715 -0.038875155 0.03587771 0.0033271983 0.005515896
0.028130386 0.016236011 0.04833791 -0.03869409 -0.042628616 -0.039397202 -0.02056994 0.017402906
-0.023275107 -0.015201766 0.042363938 0.04452757 0.037155982 0.024201255 -0.019354766 0.020783108
-0.030958593 0.044396173 -0.03500416 -0.0397216 0.00058741495 -0.03876366 -0.049054433 0.03671105
0.008509219 -0.030914754 0.008888185 0.023806293 0.046004493 -0.01671248 -0.021196544 0.015971426
-0.023688411 0.013274286 -0.022298818 -0.00963556 -0.045930978 0.04108059 0.046369914 0.0020180345
0.014233056 0.033626873 -0.011584032 -0.019308269 0.007723909 -0.0007699728 -0.041153997 0.03215697
-0.004643213 -0.03865113 0.0032746606 -0.011979114 -0.0055481903 -0.028790696 -0.039951466 0.034960803

fc2.weight f4 [84, 120]
00000000: aca2 a83c 9664 fabc f019 973d dcf9 7d3d
00000010: 010a 53bd f937 34bd 0868 a0bc 10ea 933b
00000020: 565f 28bd de7f 44bd c035 27bc 3812 82bc
00000030: 5b56 a3bd 7455 7abd d619 a23d f406 453d
00000040: bc46 103d 2876 cb3c 4856 843d 75a6 a4bd
00000050: d82f 193d 96c8 853d 245c 81bd 082d 903d
00000060: f537 13bd cb21 35bd 6d1d 72bd 903a c63b
00000070: fb51 89bd fc5e fe3c 100a 153d 6094 9ebc
00000080: f280 92bd c4ce d1bc aeb4 ba3d 8da7 47bd
00000090: 3462 143d 5fa2 6abd bcb5 a5bd 2215 9c3d
000000a0: 5b0e 30bd 44ce ad3c 2d48 8ebd 5271 f2bc
000000b0: 7c15 aabc 309e b2bc bc4d aabc 0c64 7abd
000000c0: a019 3c3d 29ab 59bd 64bf 973d 4089 18bc
000000d0: ca13 003d 5297 a6bd 4183 75bd 50ab 8dbd
000000e0: 2ae1 b2bd a888 783d c0d3 8c3b 9055 e83c
000000f0: 4726 99bd 953a 29bd 3ef2 86bd 2a3c 873d
00000100: f483 403d 4cbd a03d fa5d 67bd 6c90 2d3d
00000110: ecc0 603d 0058 5638 6d23 44bd 4127 77bd
00000120: 0e95 ab3d 642d 83bd afae 86bd d0d5 a13b
00000130: 6c17 c23c 5720 b3bd 24ae 833d e0b7 ebbb
00000140: e007 9cbd ac2e 543d c0d1 c43b 4ed0 b2bd
00000150: 6dc4 94bd 486d 46bc c0f0 74bd e471 783d
00000160: b84b a83d f060 8a3b 55f4 3bbd 3006 853c
00000170: 0800 6ebc f4e8 343d 11c9 a6bd 1712 a5bd
00000180: 6235 a03d aa65 a83d d92b 56bd fa62 af3d
00000190: 70cf fabc 600f 253b 1027 413d aa45 873d
000001a0: f852 f13c 881b 93bd 0034 afbd 10c4 883b
000001b0: d84c a1bc f029 b4bd cf23 5ebd 0a9d 81bd
000001c0: c84f 043d 98b3 c2bc b611 58bd 4c5d 653d
000001d0: 4ca7 92bc 0055 b23a 5f55 9bbd e4c2 af3d
000001e0: 60ef 23bc 6813 6e3c 6600 a73d 206f 023b
000001f0: 8ca6 943d 2028 babb e05c 2e3d 7541 aebd
00000200: e4b2 b73d fa74 97bd 11d8 98bd 6453 a7bd
00000210: 728d 52bd a0c8 743b 2030 103b fc3d a73d
00000220: 9485 413d 467a a6bd ab87 aabd 08c0 80bd
00000230: 499b 20bd f0c0 723d aca2 383d 4027 b5bc
00000240: 14b4 863d 0aa6 ab3d d844 523d b022 1e3c
00000250: 0021 993c d8ee ae3c ecc7 9c3c 28df 0fbc
00000260: dc6b a63d 5895 9bbd 24ba 72bd 4167 48bd
00000270: 4495 8fbd 4f4e 81bd a0a6 0abb c0e2 243c
00000280: e049 e4bc e2ac 52bd b08b 6ebd ea68 923d
00000290: 808f e83b fdf9 b7bd 3edb a43d 2611 b33d
000002a0: 703c fb3c 93b5 0bbd d078 a63d e423 a83c
000002b0: d005 a83d 0036 9e3c 1096 ef3b 8670 1fbd
000002c0: e45c 27bd e0d0 313d 1774 2bbd 5beb 5dbd
000002d0: 1fc8 17bd c468 f13c d628 3abd 6528 98bd
000002e0: 5cfa 963d f0d8 a13d a86a 6a3d f044 ef3c
000002f0: 5ee2 b8bd bc52 573d f299 b4bd e85e e73c
00000300: e496 733d 2076 643d a07a 873b 5c4a e23c
00000310: 80dd b3bd ece7 693d 8baf 6cbd e0b6 b53c
00000320: a8c8 4b3c e43a 2a3d a477 403d e17f b3bd
00000330: b046 9f3b f851 75bc 3c2d 9e3c a48a 383d
00000340: 20be c13c 0a5e 8fbd bc77 513d 004b f3b9
00000350: c092 203d e1f2 b5bd 102a 213c a08c 09bd
00000360: 12d0 8fbd ec9f 9a3d 489e 6f3c 00b3 a5ba
00000370: 071b 84bd 4413 493d d0f6 d7bc d456 c73c
00000380: 409b 27bd 1a02 9b3d 7a6b 91bd 46b1 3cbd
00000390: 36bc 8ebd acd1 bb3c cb86 9dbd 2092 39bb
000003a0: c856 49bd 78fe 583d 80d6 543b 98e4 4e3c
000003b0: 6cf9 b7bc 00b7 05ba 283c 6a3d fba9 85bd
000003c0: 80b5 5f3b c8f2 953d 1087 1cbc 768a 62bd
000003d0: 481e 103d be77 053d 1869 ca3c 36d6 973d
000003e0: f0f7 b6bc 85f1 52bd 9055 833b a064 c93c
000003f0: 0463 ab3d 0863 e23c 404d 733d 008f a43b
0.02058538 -0.030565541 0.07377994 0.062005863 -0.051523212 -0.043998692 -0.019580856 0.0045139864
-0.041106544 -0.047973506 -0.010205686 -0.015877828 -0.079754554 -0.06111665 0.07915084 0.048102334
0.035223708 0.024836615 0.06461769 -0.08039562 0.037399143 0.06532399 -0.063164026 0.07039839
-0.035942037 -0.04422168 -0.059110094 0.0060494617 -0.0670509 0.031051151 0.03638655 -0.01935786
-0.071535006 -0.025611289 0.09116493 -0.048743773 0.036226466 -0.057283755 -0.08091304 0.07621218
-0.04298244 0.02121652 -0.0694736 -0.029595051 -0.020762198 -0.021803945 -0.02078902 -0.06113057
0.045922875 -0.053141747 0.07409552 -0.009310067 0.031268872 -0.08134331 -0.059939627 -0.06917441
-0.08734353 0.0606772 0.0042977035 0.028361112 -0.07478004 -0.041315634 -0.06589173 0.06603272
0.04700084 0.078486055 -0.056486107 0.04237406 0.054871485 5.1103532e-05 -0.047885347 -0.06034017
0.08378039 -0.06405142 -0.06576287 0.0049388185 0.023692809 -0.08746403 0.06429699 -0.0071935505
-0.076186895 0.051802322 0.0060064495 -0.08731137 -0.07264028 -0.012111016 -0.05979991 0.06065549
0.08217567 0.0042229816 -0.04588731 0.016238302 -0.014526375 0.044167474 -0.08143819 -0.08060091
0.07822682 0.08222516 -0.05228791 0.085638 -0.030616492 0.0025186166 0.047156394 0.06605084
0.029458508 -0.071829855 -0.0855484 0.004173763 -0.019689962 -0.087970614 -0.05423337 -0.06328781
0.032302648 -0.023767278 -0.052751265 0.055997178 -0.017902039 0.0013605654 -0.075846426 0.08582094
-0.010005802 0.014530994 0.08154373 0.0019902661 0.07258329 -0.005681053 0.04256904 -0.08508579
0.089696676 -0.073953584 -0.074630864 -0.081702024 -0.051404424 0.0037351027 0.002200134 0.081661195
0.04724653 -0.081287906 -0.08326658 -0.06286627 -0.03921059 0.05926603 0.04507701 -0.022113442
0.06577316 0.08381279 0.051335186 0.009651825 0.018692493 0.021354124 0.019138299 -0.008781232
0.08126041 -0.075968444 -0.05925955 -0.048926596 -0.07010892 -0.06313764 -0.0021156445 0.010063827
-0.027867258 -0.051434405 -0.058238685 0.07148917 0.0070971847 -0.08983228 0.0804963 0.08743505
0.030668467 -0.03410871 0.08128512 0.020524926 0.08204234 0.019312859 0.00731159 -0.03892567
-0.04086007 0.04341209 -0.04185876 -0.05417953 -0.037056085 0.029468901 -0.0454491 -0.0742958
0.07371971 0.07902706 0.05723062 0.029207677 -0.09027551 0.052569136 -0.08818425 0.028243497
0.059470072 0.055776715 0.004134491 0.027623348 -0.08782482 0.057105944 -0.0577846 0.022181928
0.012437977 0.04156007 0.0469891 -0.08764625 0.0048607215 -0.014973156 0.019308679 0.045054093
0.023650229 -0.070003584 0.05113958 -0.0004640445 0.03920245 -0.08884216 0.009836689 -0.033581376
-0.07022108 0.07550034 0.01462514 -0.0012641847 -0.064504676 0.04909064 -0.026362807 0.024333395
-0.040919542 0.0756876 -0.07100578 -0.0460675 -0.06969492 0.022927128 -0.07691725 -0.0028315857
-0.049155027 0.052977055 0.0032476485 0.012627743 -0.0224578 -0.00051008165 0.057186276 -0.06526562
0.0034135282 0.073216975 -0.009553686 -0.055307828 0.03518513 0.0325849 0.024708316 0.07413904
-0.022335023 -0.051499862 0.0040080026 0.024584115 0.08368495 0.027635112 0.059399843 0.0050219297

fc2.bias f4 [84]
00000000: a63b 9e3d f076 483d f0ab b13d 7013 983c
00000010: 00fc a3bd 2414 93bc acd1 113d b028 b4bb
00000020: 6897 4e3d 2878 3bbd a521 1dbd d879 bfbc
00000030: 410d 44bd 88ea cfbc 80c3 bdbc 484a 623c
00000040: 6f44 b4bd e467 0c3d 7084 403d d855 b93c
00000050: e89e abbc 30f2 c93b 324f 863d bb95 45bd
00000060: 5494 3d3d 780c 8d3c 2642 af3d c645 88bd
00000070: 3c5c 84bc 5217 9b3d 3458 93bd 3045 993d
00000080: ae99 9b3d bfb3 a1bd 886a 433d 381f 9a3c
00000090: 3e81 b13d 604f adbb c04d bf3a 3013 2d3c
000000a0: e433 9ebc 2051 9f3d a928 43bd 6e20 a53d
000000b0: 801d 68ba d882 5d3c fd80 62bd e7f2 b9bd
000000c0: 9197 6bbd f823 413d 7678 a6bd d467 633d
000000d0: 18d1 5b3d 8cab 08bd 186f 253d 5453 8cbd
000000e0: 5d99 a2bd ac55 0a3d ea69 8abd 9fae 38bd
000000f0: d689 00bd 6e13 2fbd f883 07bd f8b2 20bc
00000100: cae7 883d 33ff b9bd 80e0 2eba 6cbb 903d
00000110: 98f3 8dbd c2c5 b1bd 0028 2ebd 230a 32bd
00000120: 8ab2 86bd cc31 473d bcbd 2b3d 0cfa 963c
00000130: e4fc 69bd 38b5 363d eef3 853d 3aa7 a53d
00000140: 90e2 493d 98b4 90bd f9b8 93bd b812 4e3d
0.07726221 0.048941553 0.086753726 0.018563956 -0.080070496 -0.01795394 0.03560035 -0.0054980144
0.05043736 -0.045768887 -0.038362164 -0.02337353 -0.047864202 -0.025380388 -0.02316451 0.013811655
-0.08802115 0.034278765 0.047001302 0.022623941 -0.020949796 0.006162904 0.06558074 -0.048238497
0.046284035 0.01721786 0.08557539 -0.06653933 -0.016157262 0.07572807 -0.07194558 0.074838996
0.075976714 -0.07895612 0.047709018 0.018813714 0.08667229 -0.0052890033 0.0014595315 0.010563657
-0.019311853 0.07779145 -0.0476462 0.08062826 -0.00088544935 0.013519965 -0.055298794 -0.09079533
-0.057517592 0.047153443 -0.08128445 0.05551894 0.053666204 -0.033366725 0.04038915 -0.06851831
-0.07939408 0.03377311 -0.06758483 -0.045088407 -0.03138145 -0.04274314 -0.03308484 -0.0098082945
0.06684835 -0.090818785 -0.00066710263 0.07066998 -0.069312274 -0.086802974 -0.042518616 -0.0434667
-0.065770224 0.048631474 0.04192899 0.018429779 -0.05712594 0.044606417 0.065406665 0.080885366
0.049288332 -0.070656955 -0.07213015 0.05031082

fc3.weight f4 [10, 84]
00000000: f759 a0bd 78d5 b1bd bbaa 893d 7a86 2fbd
00000010: 6835 c2bc c81d 2cbc 9c11 b7bd ee1f 5d3d
00000020: 0715 86bd 7088 e73b e056 243b 6334 aabd
00000030: acde 90bc 1cb7 9cbd 909d d3bd 7f67 b83d
00000040: 9fae 863d ad9f a63d c327 d53d a4e7 f03c
00000050: 2044 253b 9405 9f3c 8406 2fbd b1be d2bd
00000060: 30c5 c5bb 90a3 c53b 0757 aebd 4599 cfbd
00000070: 7404 69bd 2057 c1bc d51e 9cbd c04a 7dbc
00000080: 2e19 123d b738 9bbd e0f6 473b 5d01 d5bd
00000090: 20bb b3bd 7162 babd 6691 353d 179d 8bbd
000000a0: 51f6 adbd 603e 4abc a03f d3bc 647a d8bd
000000b0: 8c72 a7bd 70fe d33b 3dcc d23d fc71 bb3c
000000c0: 22f3 8fbd e0e8 e6bc f69e 683d 2052 4dbb
000000d0: 7b8a b83d 7b4a 853d 4003 7bbb 8997 ccbd
000000e0: 3a8d 7f3d 3b4e 9d3d 5727 90bd 68bf 1bbc
000000f0: f5dd 84bd 3ee0 093d e2b3 cabd 0e58 5f3d
00000100: 39ee d83d 85ff dabd 10de dd3b 7e79 373d
00000110: 9759 7dbd 46d9 07bd 8172 883d 182d 8ebd
00000120: ff98 b23d 186d 543c e91c c13d 46e3 243d
00000130: 008c 14bb 2620 793d 0492 ccbd 6cfb d1bd
00000140: 00aa 1eba 664e 3b3d 3228 043d ec83 e53c
00000150: 0428 b8bc 2929 c13d 9034 ea3b 1c3b 44bd
00000160: f979 ae3d cb79 44bd f492 ae3c fb68 a6bd
00000170: 7a1f 4f3d 6298 463d c774 c53d a0e4 7d3b
00000180: 966c 2fbd 58c4 3abc e038 28bb 46be 303d
00000190: 491a 95bd e007 a13b ac38 d03c 070e 883d
000001a0: 3337 50bd 5097 3abc 43ce d4bd dcfb 04bd
000001b0: 35f2 813d 5431 d83c 9c3d b5bd 7c4e 0cbd
000001c0: 6fd8 43bd 4c08 18bd 6525 d13d 581a 623c
000001d0: 0962 9e3d 07ea d7bd b07f a7bc 4b04 8e3d
000001e0: 1fc6 ab3d 30ba 713c 5466 70bd a1b6 9fbd
000001f0: de95 39bd 3e4d 7d3d 38a0 3abd 6af3 1d3d
00000200: 5544 ad3d d666 a5bd 10b6 acbc 2636 8cbd
00000210: d9a4 bcbd e263 99bd 8aad adbd 8076 91bd
00000220: 3232 423d 0a36 2abd baa5 95bd 53e0 c93d
00000230: 1f53 d1bd 982b f9bc 2511 a3bd de56 bfbd
00000240: 00b1 33ba 43e7 c53d a211 11bd 49cb b93d
00000250: 56e9 2c3d b987 d23d 2eca 0d3d 28a9 4dbc
00000260: e976 bb3d 7444 f9bc 4022 de3a d4f3 aa3c
00000270: f371 913d b0c6 153c bfb2 aabd 318a c53d
00000280: 04ea b03c 71f1 41bd ea46 0ebd be29 4a3d
00000290: af9d 8b3d 0109 d73d c967 ae3d 3805 96bd
000002a0: fdb8 db3d 4451 bcbc f7bd a63d d04d 14bc
000002b0: 9575 c1bd 1a79 92bd f002 813b 62a0 24bd
000002c0: deed 733d 566d 213d bb75 b2bd d687 d0bd
000002d0: 3a64 5d3d 6ce7 e13c cd53 dd3d 5b43 7abd
000002e0: 0a3d 403d e83e 60bc 09b3 9fbd fad1 483d
000002f0: 4f4d cbbd eac2 673d 141b b1bd e9a8 a33d
00000300: 0404 b7bc c01e 3cbd 60c1 9cbc 25fe 91bd
00000310: a1bf c53d 652e cf3d 166c cfbd ce3f 4cbd
00000320: 500c 1d3c a245 693d 5859 cebc 8ed8 cabd
00000330: 00a0 a8bc a579 ab3d 74e6 c3bc 00b1 6cbc
00000340: 3621 b6bd 50af b53b 6a07 5d3d ac01 42bd
00000350: 51ec 863d 1adc 623d 408c f53a ec71 c13c
00000360: 8ba7 8ebd 8017 263a 12eb 453d 116b c9bd
00000370: 515c b93d bef5 1cbd 6351 ae3d c240 50bd
00000380: 0347 af3d dee3 673d 00ec bebc 6fb3 b3bd
00000390: d0e8 063c 3c19 17bd d93b ce3d 063b 273d
000003a0: 6d87 bdbd ce97 04bd 8e35 4c3d b8e7 2fbd
000003b0: 094e 903d bce1 edbc 8eb0 80bd 75c3 c1bd
000003c0: 2582 c93d 15bc a13d 3cb3 4ebd 75dc b6bd
000003d0: a84e 43bd 367e 583d 37b8 74bd ca3e 063d
000003e0: 5fea 6abd c8e6 573c 8dbf 86bd 0f3a a83d
000003f0: c2ff 76bd 544c 983c 8385 afbd eed9 1dbd
-0.078296594 -0.08683294 0.067220174 -0.042852856 -0.023707107 -0.010505147 -0.089389056 0.05398553
-0.065469794 0.007065825 0.0025076196 -0.08310773 -0.017684303 -0.07652113 -0.10332787 0.09004115
0.06576275 0.081359245 0.104079746 0.02940733 0.0025217608 0.01941184 -0.042730823 -0.10290278
-0.0060354695 0.006031461 -0.08512693 -0.10136656 -0.056889012 -0.023601115 -0.07623068 -0.015459716
0.035668544 -0.07579177 0.003051214 -0.10400651 -0.08775926 -0.091008075 0.044328116 -0.06817072
-0.08494247 -0.012343973 -0.025787175 -0.10570219 -0.08176145 0.0064695403 0.102928616 0.0228815
-0.07028796 -0.028187215 0.056792222 -0.0031329468 0.09010788 0.06508347 -0.0038301498 -0.099898405
0.062390544 0.07680937 -0.070387535 -0.009506084 -0.064876474 0.03366112 -0.09897591 0.054527335
0.10592312 -0.10693268 0.0067708567 0.0447936 -0.061853018 -0.033166192 0.06662465 -0.06942195
0.08720588 0.012965463 0.09429342 0.040255807 -0.0022666454 0.060821675 -0.09988788 -0.10253033
-0.00060525537 0.045729063 0.032264896 0.028017007 -0.022480018 0.09431679 0.007147379 -0.047907934
0.08519358 -0.047967713 0.021310307 -0.08125492 0.050567128 0.048485167 0.09641414 0.0038741007
-0.042828165 -0.011399351 -0.0025668666 0.04315021 -0.07280404 0.004914269 0.025417648 0.066433005
-0.050833892 -0.011388615 -0.10390904 -0.032466754 0.063450254 0.026390709 -0.08849642 -0.034254536
-0.04781383 -0.037117288 0.102122106 0.013800226 0.077335425 -0.10542684 -0.020446628 0.069344126
0.08387398 0.014753863 -0.058691338 -0.077985056 -0.04530894 0.061841242 -0.045562953 0.038562216
0.08460299 -0.08076255 -0.021082908 -0.068462655 -0.0921113 -0.07489754 -0.084803656 -0.0710268
0.04741115 -0.041555442 -0.073070005 0.098572396 -0.10220932 -0.030416295 -0.079622544 -0.093427405
-0.0006854683 0.0966325 -0.035417207 0.09071977 0.042214714 0.10279793 0.03461664 -0.012552537
0.0915354 -0.030428149 0.0016947463 0.02086822 0.07101812 0.009141609 -0.08334874 0.096454985
0.021595962 -0.047349397 -0.034735598 0.049356215 0.06817185 0.10499764 0.08515889 -0.07325214
0.10728643 -0.02298797 0.08141702 -0.009051755 -0.09446255 -0.071520045 0.0039371178 -0.040192015
0.05955302 0.03941091 -0.087138616 -0.10182159 0.05405066 0.02757617 0.10806999 -0.06109939
0.04693321 -0.013686873 -0.0779782 0.049028374 -0.09926855 0.05658237 -0.08647743 0.079912014
-0.022340782 -0.045927763 -0.019135177 -0.07128552 0.09655691 0.10116271 -0.10128038 -0.049865536
0.009585455 0.056951173 -0.025189087 -0.09904586 -0.020584106 0.08372811 -0.0239136 -0.014446497
-0.08893053 0.0055445805 0.05396215 -0.047364876 0.065880425 0.055385686 0.0018733814 0.023613892
-0.0696555 0.0006335899 0.048319884 -0.098348744 0.09050811 -0.038320296 0.08511617 -0.050843008
0.08558466 0.056613795 -0.023305893 -0.087744586 0.008234218 -0.0368893 0.10070009 0.040827774
-0.09254346 -0.032371335 0.04985576 -0.042945594 0.07046134 -0.029038303 -0.06283675 -0.094611086
0.09839276 0.07897202 -0.0504639 -0.089287676 -0.047682434 0.05285474 -0.059745993 0.032774724
-0.05735242 0.013177581 -0.06579504 0.08214199 -0.060302503 0.018591084 -0.08570387 -0.038537912

fc3.bias f4 [10]
00000000: 8ec8 1f3d ca7d 023d 4cf9 c7bd 26a8 053d
00000010: d4d2 d93c 908b 96bd d680 5e3d 86b7 b4bd
00000020: b047 9dbb 4151 ccbd
0.039009623 0.031858243 -0.097643465 0.032631062 0.026589788 -0.07350838 0.054322086 -0.08824067
-0.0047998056 -0.099764355
