Models/07-04-2023-16-03-09/model_CNN_SGD_M0.pth (torch, 250951 bytes, 10 tensors)

conv1.weight f4 [6, 3, 5, 5]
00000000: ce91 46be 2894 673d 7a88 0abd 9427 a6bd
00000010: ecd7 943e aec0 6dbe f5aa 053f 39de c9bd
00000020: d268 fbbe 9419 9a3e 628b 64be 52f6 533f
00000030: 6f6d b7bd e0b2 45bf 79b4 bd3e 279d 35be
00000040: 399f 203f 33f1 0f3c e7e4 04bf 44aa 413e
00000050: 1448 08bc f502 513e fbfc 39bc ec63 62be
00000060: af10 a03d a965 143e ac42 003e 08a8 67be
00000070: 9f8a 4bbe c97d cb3c da00 05bd c629 1f3f
00000080: 30c2 89be 306b 4abf 43e3 1e3e e465 0d3c
00000090: 471a 6c3f 326e debd 16c3 85bf f48d 073e
000000a0: 1bce 43bc 5be1 2e3f af45 1fbe 1f1d 5bbf
000000b0: 3990 823e 6884 833d f32a 733e c78f 43be
000000c0: b056 9cbe 7fd1 e33d b087 2c3d 25fd 653e
000000d0: de29 433d d6b7 79be ef90 04bd aa48 3d3d
000000e0: 0a57 2b3f 2cc1 1bbe bfad 33bf 8517 593e
000000f0: baac 05be d55a 493f dd6f 163d a438 60bf
00000100: bb0c 6f3e 14bc bdbd 294d 223f c3c3 953d
00000110: bab0 21bf e52d ea3d ea68 b3bd 0c4a 7e3e
00000120: 07e6 a8bd e3ab d7bd b0af 293e ba23 f0bd
00000130: 83a5 c53b f34c ebbd 1259 fcbd 0e0e ac3c
00000140: a15e f1bd 2af7 b8bd c7e2 30be fea0 09bd
00000150: ada1 8abd 8ad8 eabd 3d29 c33b 5bc2 3dbe
00000160: d4b6 88bd 3f19 11bd 173f 7ebd 5ace bebd
00000170: b8c7 e5bd 5c74 88bd d938 0cbe a740 c03b
00000180: a90f c1bd b1c7 c0bd 816d 9cbc e54f 0a3e
00000190: f6e7 5fbe cc55 3bbd 2303 c83d 377e 813d
000001a0: a3fa b3bd 0151 9bbc 3a10 8f3d 767d 503d
000001b0: f480 f93c c751 10be 94ce 8b3d 342c 153e
000001c0: be9e 59bd 18b7 213d 67fb 50be 9fe7 f0ba
000001d0: e09a 323e 672c 193d 4da7 0abe 3008 f9bd
000001e0: 686e 43bd 750d 07bd 30fc 37be be44 2dbe
000001f0: 4801 2ebe ad61 ea3d 3fab d23e 8d92 a83e
00000200: 50af 193e 47ff 28be 0eee 913e ce3b f53e
00000210: c739 033f d087 8f3e 5d00 6a3c ad94 853e
00000220: 3534 fa3e 7b56 e53e f35c 523e c0c3 e7bd
00000230: c2ef 633e c9f2 953e a446 943e 10a9 313e
00000240: 9fe8 acbd d3bf 0d3e 6634 573e 8d23 b13d
00000250: d21c b7bd 0d81 1abe ddc1 463d f62b 73be
00000260: 9d5b 30be a30f 42be 0b7d a93d be9f af3c
00000270: d388 423c 378e 133d ff5b bcbc 311e 0abd
00000280: b3d0 dd3d d9c3 303e b2e7 7b3e 7e33 c83e
00000290: e683 5c3e 6139 99be 159d 0cbf aa50 22bf
000002a0: 7ce2 24bf 2463 89be e90c e3bd a11c 06bf
000002b0: b154 b3be 3cd0 cebe 700b 06be 3678 9cbb
000002c0: 1600 efbd 09d5 dcbd 95f8 75bd e717 1f3e
000002d0: 8e98 4e3e d3bd 2d3e 6eb4 cd3e 234e 8e3e
000002e0: e2c1 b53d 25b9 2d3e 141b 023f f87b 2a3f
000002f0: f8c6 e83e 3d24 7b3e bc2b 8bbe 3360 79be
00000300: 1899 babe a0f7 c0be de3b a6be e1f3 6a3c
00000310: b3a6 8ebe ff1f 23be 97f4 8fbe 1e25 d53c
00000320: 8cf8 4bbe f419 73be f224 92be 95ba eebe
00000330: 5352 a7be abf4 3b3c 1178 afbc 11f9 fa3d
00000340: 5636 94bd 7efb 16be 4b58 cf3d 09dd c83e
00000350: 7837 0c3f fbb9 133f a83e 973e 9905 0c3e
00000360: f992 073e 0778 d93d 7c17 3f3d b71c bb3d
00000370: 77d9 d43e 2907 a33c 80a6 353e 1d29 d03d
00000380: 9e5c c43e 2f19 75be bd99 393e 4b8a 813e
00000390: a4a7 05bf 1fd9 f7be d216 1c3e cfd1 b5bd
000003a0: df55 b73d 9dca 2e3e 69c4 2abf 7763 c03e
000003b0: 48f2 8bbe bd55 ffbe 4a47 cf3e a8c6 a2bc
000003c0: 2658 c13b a694 f83b 672f 003c f67d 98be
000003d0: 5e3c 833d 2317 5fbe 3e5c 5b3d dc52 f83d
000003e0: b0b7 e7bd 2184 71bd 0403 6dbe fd9f b13e
000003f0: c076 9f3e 1801 d2be 8df9 95be 6ebb 6a3e
-0.19391558 0.056537777 -0.03382156 -0.08113018 0.29070985 -0.23218033 0.52213985 -0.09856839
-0.4910341 0.3009764 -0.22318795 0.8279773 -0.0895642 -0.77226067 0.37051752 -0.1773573
0.62742954 0.008785534 -0.5191178 0.18912607 -0.008317966 0.20411284 -0.011351819 -0.2210843
0.07815682 0.14491905 0.12525433 -0.22622693 -0.19877099 0.024840252 -0.032471515 0.62173116
-0.26905966 -0.79069805 0.15516381 0.00863025 0.92227596 -0.10860862 -1.045016 0.13237745
-0.011950995 0.68312615 -0.15553926 -0.8559131 0.25500658 0.06421739 0.23746853 -0.19097815
-0.30534887 0.111239426 0.04212159 0.22459848 0.04764735 -0.24386534 -0.032364782 0.046211876
0.66929686 -0.15210408 -0.7018699 0.21200378 -0.13054171 0.78654224 0.036727775 -0.87586427
0.233447 -0.09264389 0.6339899 0.07312729 -0.6316029 0.11434535 -0.08760245 0.24832934
-0.08246999 -0.10530832 0.16570926 -0.11725564 0.0060316934 -0.11489286 -0.12321676 0.021002796
-0.11785627 -0.09031518 -0.17274009 -0.0336008 -0.067691185 -0.11467083 0.0059558437 -0.18531172
-0.06675497 -0.035424467 -0.062071886 -0.09316702 -0.11219734 -0.06662819 -0.1369356 0.005867082
-0.09426815 -0.09413088 -0.019095184 0.1350704 -0.2186583 -0.04573612 0.09766223 0.06322902
-0.087880395 -0.018959524 0.06985517 0.0509009 0.030456997 -0.14093696 0.06826511 0.14567643
-0.053129904 0.039481252 -0.20408402 -0.0018379575 0.17441893 0.03739586 -0.13540383 -0.12159765
-0.047712713 -0.032971818 -0.17967296 -0.16920754 -0.16992676 0.114444114 0.41146275 0.3292431
0.15008283 -0.1650363 0.28501934 0.4789719 0.51260036 0.28033304 0.014282313 0.26089993
0.48867956 0.44792542 0.2054327 -0.11316633 0.22259429 0.29286793 0.28960145 0.17349648
-0.084428065 0.13842706 0.21016082 0.08649359 -0.08941044 -0.15088291 0.048524726 -0.23747239
-0.17222448 -0.18951277 0.08275803 0.021438476 0.011873442 0.0360243 -0.022993086 -0.0337202
0.10830822 0.1726221 0.24600103 0.39101785 0.2153469 -0.2992659 -0.5492719 -0.63404334
-0.6440809 -0.2683345 -0.11086447 -0.52387434 -0.35025552 -0.40393245 -0.130903 -0.0047750724
-0.11669938 -0.10782821 -0.06005152 0.15536462 0.20175382 0.16966943 0.4017672 0.2779399
0.08874871 0.16965158 0.5082257 0.6659541 0.454643 0.24525543 -0.27181804 -0.24353103
-0.36444926 -0.37688923 -0.3246755 0.014340372 -0.27861556 -0.15930174 -0.28116295 0.026018675
-0.19919032 -0.23740369 -0.28543812 -0.46626726 -0.32679996 0.011471908 -0.021419557 0.12254537
-0.07236926 -0.14744374 0.101242624 0.39231136 0.5477214 0.5770566 0.2953999 0.1367401
0.1323966 0.106185965 0.046653256 0.09136336 0.41572163 0.019900875 0.17739296 0.10164092
0.3835191 -0.23935388 0.18125053 0.25300822 -0.52208924 -0.48407838 0.1524308 -0.088779084
0.089519255 0.17069478 -0.6670595 0.37575886 -0.27333283 -0.498701 0.40484077 -0.019870117
0.0059004007 0.0075860796 0.007823802 -0.297836 0.064079985 -0.2178617 0.053554766 0.12125179
-0.113143325 -0.0589639 -0.23145682 0.34692374 0.31145287 -0.4101646 -0.29291955 0.22923061

conv1.bias f4 [6]
00000000: 1949 3fbd d69d 203f d87a 893e 0b28 1e3f
00000010: ca46 3fbd f501 30bd
-0.04670057 0.6274084 0.26851535 0.6177985 -0.04669837 -0.042970616

conv2.weight f4 [16, 6, 5, 5]
00000000: 82bd 3d3d fe09 523d fecb 313e 4758 0abe
00000010: 41d0 b2bd 7d41 2e3e fb65 13bd d756 223e
00000020: 55f6 453d 830c e4bd 2125 123e 0dcd 18bc
00000030: 7a09 8a3d f7df 363e 2fb0 0f3d 14a6 203d
00000040: 224e 8e3d 3ee7 38be f639 19be ace6 77bc
00000050: 3532 993c e9c8 943d 471b a2bd 7d52 90bd
00000060: 0b95 52bd eeb9 39be 945d 93bd 8bda 85bc
00000070: 109a ad3d c231 103e 1f3a 97be bc8c 93be
00000080: 757d bebd 1e7a 0d3e e0ca a83e 6c9e 9dbe
00000090: d9f2 a8be 090e 5abe a023 ff3d 1cb2 c53e
000000a0: ddc8 38be c565 67be c378 4cbe b41b e6bc
000000b0: 1ef7 843e ddde 68be 6b2d 3abd 0178 91bd
000000c0: d978 08be 514f 9a3d edbe 15be 9dc7 01be
000000d0: 3e2f 21be 591e b53d 53e3 8d3e 0e70 c3be
000000e0: 98f0 99be a32f f43c dc00 ef3d 2148 713e
000000f0: aec7 32be ad37 23be 323e a3bd 23cf 043d
00000100: 8f57 273e 0b76 19be 3f2a 54be da29 10be
00000110: af8b 353d 96f7 033e 1bef 94bd b965 d0bd
00000120: d3dd 3bbd 2fc2 93bc 8a35 9b3d bcce 8f3e
00000130: f23e c53d da19 093e 7d14 ab3d db36 0a3c
00000140: fcb5 413c eb01 cf3e 9774 0a3e e547 acbd
00000150: 27fc 123d 2d7b b13e c0d8 3e3e b48f 883e
00000160: 4217 8c3e 9a8b edbd c833 053e 88ec 82bc
00000170: c598 5c3e 7262 863e 53ff 12be e9fd 273e
00000180: 2a4e f13d 2f23 2ebe 3614 b93d 01b7 ba3d
00000190: 9a8d 89bc 5c4e 073e 995f 82bd cd36 e4bd
000001a0: eb32 063e 0638 e53c 042d 08bd 4dd7 ad3d
000001b0: 1bc3 82bd 04c8 81be 5d44 a03c 6c55 e33d
000001c0: e031 513d 9094 0cbe cf35 67be a3c9 eabd
000001d0: f4b3 43be 850d 22be 59f4 de3d 8e09 f4bd
000001e0: 8039 58bd 593a 493e 3681 083d 8e06 00be
000001f0: 0d9f 8d3d f59a b83d 69c2 d43d a306 23bd
00000200: efa4 18bc badc 91bd 0ba9 783d 413d a13d
00000210: 964a 083e 72b1 2cbe 2ce4 1fbe 6653 95bd
00000220: b05e 17bd 6790 43bd 3879 ed3d 87b3 e63c
00000230: 9d6f d0bd a529 e6bd 31f3 a63d 1304 6e3d
00000240: 57be 8abd 6161 cbbd cd9c 323d 3bf2 77bb
00000250: e0cd 31be 3dcf 90bd 70ab 523d 861b d33c
00000260: a94c 08be 9ba0 35be 4807 6cbd b6e4 b73d
00000270: 3809 18be 0a40 e9bd 0350 80be f7a9 8cbd
00000280: 32d0 873d 1c84 7bbc b6e7 fdbd 4759 b4bd
00000290: 7554 36be 7cb8 bfbc f580 abbd f080 1bbe
000002a0: e3f8 13be ff71 04bd d98f 2dbc 80ab 46bd
000002b0: 0010 093d fc39 b73c 563e 22bd 613c 783c
000002c0: eda4 5d3c 351b 233b 65e3 e43d 535d 123c
000002d0: f373 e53d 59d2 443e 551e d03d f846 c7bd
000002e0: c652 23bd b019 a33d 142e 3f3d f599 1cbd
000002f0: cac9 d9bd 4c3f aebd abe5 123d 49eb 973b
00000300: 5e75 f8bd 8f06 e1bd a9e8 0cbe 4eab e7bd
00000310: b503 6dbd ca75 39be 5acb 78be c262 42be
00000320: a4f5 2f3c f14d 453d 32f1 403d 5410 773e
00000330: bec0 853e ca8f 80bd 3c5f c33d 2392 d83d
00000340: 17b2 063e cfa5 723e 422d 643e 0ad7 523e
00000350: ccc0 b83c 2a56 b8bd 29b0 423e 30bd e43d
00000360: 8f8f 05bd d609 c83c b55c 023e 78f2 7e3e
00000370: e995 a23e 8bda 413e f895 763b a29f 94bb
00000380: 1658 fd3d 37ca 34be b242 e3bd 9f68 04bd
00000390: 9b11 d4bc fadd 23be 649a 3abe 719c f5bd
000003a0: 9499 4ebd 45bd 8d3c 1b33 a73a fe31 af3b
000003b0: 347f 8ebd 8fad 06bd 1d77 55bc b0e8 a7bd
000003c0: 72a7 1e3e c6cf c73d 193e 1b3d 0b10 6b3c
000003d0: 63ef c33d 297b 8c3a 47e4 783d a5b9 1b3e
000003e0: 875b 213e 1eae 8b3e da5a 9e3d 12a9 163e
000003f0: 308c ee3d f55a 263e 1530 903d b043 91bd
0.046323307 0.05127906 0.17362973 -0.13510238 -0.087311275 0.1701717 -0.035985928 0.1585344
0.048330624 -0.11135199 0.14271976 -0.009326232 0.06740089 0.17858873 0.03508013 0.039220884
0.069484964 -0.18056962 -0.14963517 -0.01513068 0.018700698 0.07264883 -0.07915359 -0.070469834
-0.05141167 -0.18137333 -0.07195583 -0.016339561 0.08476651 0.14081481 -0.2953653 -0.2881831
-0.09301273 0.13816115 0.3296728 -0.3078493 -0.32997778 -0.21294416 0.12457967 0.3861245
-0.18045373 -0.22597416 -0.19967942 -0.028089382 0.25969785 -0.22741266 -0.04545347 -0.07102967
-0.1332735 0.0753466 -0.14623614 -0.12673803 -0.15740678 0.08843679 0.27712497 -0.38171428
-0.3006637 0.029807871 0.11670086 0.23562671 -0.17458984 -0.15939207 -0.07970847 0.032424103
0.16341995 -0.14986436 -0.2071924 -0.14078465 0.044322666 0.12887415 -0.07272168 -0.10175652
-0.045865845 -0.01803693 0.07578571 0.28087413 0.096311465 0.13388768 0.08353517 0.00843593
0.011823174 0.4043115 0.13521038 -0.0841215 0.035885002 0.34664288 0.18637371 0.26672137
0.27361494 -0.115988925 0.13008034 -0.015981928 0.21542652 0.26246983 -0.14355211 0.16405453
0.11782487 -0.17005609 0.09037058 0.091169365 -0.016791154 0.13213485 -0.0636589 -0.11143265
0.13105361 0.027980816 -0.033246055 0.08488331 -0.0638487 -0.25347912 0.019563848 0.11100277
0.051072955 -0.13728547 -0.2257912 -0.114642404 -0.19111615 -0.1582547 0.10886449 -0.11915885
-0.05278921 0.19651164 0.03332635 -0.125025 0.06915102 0.09013931 0.10388643 -0.03980125
-0.009316667 -0.071221784 0.060708087 0.078730114 0.13309702 -0.16864565 -0.15614384 -0.072912976
-0.036955535 -0.047745135 0.11595386 0.028161777 -0.101775385 -0.11238412 0.08151854 0.058109354
-0.06774586 -0.09930683 0.043606568 -0.003783359 -0.17363691 -0.070707776 0.051433027 0.02576996
-0.13310494 -0.17737047 -0.05762413 0.0897917 -0.14847267 -0.113891676 -0.25061044 -0.06868356
0.06631507 -0.015351322 -0.12397711 -0.08806091 -0.17805655 -0.023403399 -0.08374206 -0.15185905
-0.14450411 -0.032335278 -0.010593378 -0.0485034 0.033462524 0.022366516 -0.03961023 0.015151114
0.013528091 0.0024888043 0.111761846 0.008933383 0.11203756 0.19220866 0.101620354 -0.09730333
-0.03987386 0.07963884 0.046674803 -0.038232762 -0.10634191 -0.08508167 0.03586356 0.0046362025
-0.12131761 -0.10987579 -0.13760628 -0.11311971 -0.057864863 -0.18111339 -0.24296322 -0.18982986
0.010739718 0.048170034 0.04710502 0.24127322 0.26123613 -0.062774256 0.09539649 0.10574748
0.13153873 0.23696063 0.2228289 0.20589843 0.02255287 -0.090008095 0.19012512 0.11168897
-0.03260761 0.024418753 0.12730677 0.24897182 0.31754997 0.18931024 0.003762601 -0.0045356313
0.12370317 -0.17655264 -0.110967055 -0.032326337 -0.025887301 -0.16002646 -0.18222958 -0.119927295
-0.050439432 0.017302165 0.001275632 0.0053465357 -0.06957856 -0.032880362 -0.013028887 -0.081986785
0.15493563 0.097564265 0.037901018 0.014347087 0.09567144 0.0010717857 0.060764577 0.15207537
0.15757571 0.27281278 0.07732172 0.14712933 0.116478324 0.16245635 0.07040421 -0.070929885

conv2.bias f4 [16]
00000000: ba3e 1cbe f7a2 c9be b6a7 d2bd 0acc 81be
00000010: ca9f 803e b113 a3be 68cb 453d 36a6 3dbe
00000020: e69e f63d ba29 c1be 4579 323f b00d 1d3e
00000030: ccad 54be ee33 42be 4d40 033e 256d 9c3e
-0.15258303 -0.39382145 -0.102858946 -0.25350982 0.2512191 -0.3185096 0.048289686 -0.18520436
0.12042026 -0.37727147 0.6971629 0.15337253 -0.20769423 -0.18965122 0.12817498 0.3055202

fc1.weight f4 [120, 400]
00000000: efe1 54bc db28 fcbc 0b76 823c c40b 6fbc
00000010: 7089 943b 2980 26bb aed0 e9bc 3e5a 87bd
00000020: e681 d73c dfa6 2bbd 2855 e23c a1e6 393b
00000030: cb70 ffbb b036 f03d 6886 81bd 8345 02bd
00000040: ab58 f13d f57d 4a3d 8ad5 b83b 090c adbd
00000050: f226 8cbd 9eb3 1c3c 8cee d73d 607a 083d
00000060: 4203 57bd 8072 5f3d aada 13bd 86e5 21bd
00000070: 7c60 b9bc 3a02 293d 1f58 cabd dc4b a3bb
00000080: 9e50 98bb 052f aebd 6cdf 9cbd 8eee b63c
00000090: 50dd 033d dd85 4f3c b5ef a8bd 58af 213d
000000a0: 17de 6d3d b7cf 333d bb0e ce3b ab9b 83bd
000000b0: fd85 293d cb90 993d 2418 1a3d fb5c c5bc
000000c0: 2ce8 a3bd 1050 0bbd bb19 00bd e8eb 1cbd
000000d0: 0db7 d9bd 1ee2 f0bd 7bdb 03be d1e2 c7bc
000000e0: 88e0 b1bd c95b 14bd e4ad 4dbd 307b 9abc
000000f0: 5713 a93d 35e5 d13d 620b 80bb 087c 50bd
00000100: 3627 9dbd e423 b23d 84a7 e03d a13f 33ba
00000110: a240 323d 4fc2 f4bc 41a1 763d 28cb 883b
00000120: ab6f 9abb cc94 933d 445a 33be c38c bdbc
00000130: c65a 96bc 7bd5 d53d c815 97bc 9b82 ad3d
00000140: 65bd e43c b993 273d 491b 153d ebe4 55bc
00000150: 24ce 753d 37a4 a23d b5a9 b3bc 0a36 12be
00000160: 2644 bcba ec5e 86bc bb70 dd3d 0700 2c3c
00000170: ee87 43bd 1d49 643d 9478 96bc 937d 733d
00000180: 937c 143d ccbf 12bd 53a8 343c 13e5 d5bd
00000190: 3bb2 543d 316f 65bd c0da adbd 61d6 a2bd
000001a0: 2c04 d1bd 9b98 d1bc 4ccb 683c f4dc 953c
000001b0: 9ee6 663b 01b9 5dbd 576d 5fbc 2d1e b53d
000001c0: be79 05bd 9335 203d e4a4 283d c968 99bc
000001d0: cc4b 82bd a044 223d 4d23 873d 2cec a53c
000001e0: e9b3 7cbd a4e0 413d b95c fb3d 4f6d e93c
000001f0: b41e bd3d dfdf 21bc 83e7 183d e4df 00bd
00000200: b02f d03c 53c6 0a3c 8ddc 6abc d47f 263c
00000210: 6673 fb3a d2b1 8abd 36dd 0b3c 69b6 25bb
00000220: 4cf2 b0bc 2154 a33c 27f3 863d d5ae 343d
00000230: 93d4 caba 108f 4d3a 4f26 0dbd b5ae 4c3d
00000240: bc1c aa3d 851c 1ebe fe10 dbbd 758b 6dbd
00000250: b469 5dbc 98e9 bcbc 5244 7c3d d588 9d3c
00000260: e4b1 9e3b aba1 7f3a cb66 b63c 494a 85bd
00000270: fd10 55bd 5739 7f3d 61a2 d9bd 7b49 96bc
00000280: 7564 c33c 363f 1dbd cbdd 663c d9e3 df3d
00000290: 7d3b a9bc 4f5e 15bd 008e 9a3b f7f8 dd3c
000002a0: b185 333d 8159 c1bc f311 3e3d a946 863c
000002b0: 472b 80ba abcc dfbb 9be5 c5bc 15e9 303d
000002c0: 218f 823c b228 2cbc 585c 1c3d c81a ab3c
000002d0: 2939 53bc 636a b4bd 5acb 08be 69f6 35bd
000002e0: 36cd d43c de68 403c b8b3 1ebd 1f40 64bd
000002f0: 2dc1 4fbd def1 12bc 36f0 81bd b7aa 173d
00000300: 6915 fa3c fd4e a6bd 4fc2 a83b 35b4 0bbd
00000310: d0a7 793d 5e4d 7fbc 3370 b73d 2ee9 ebbc
00000320: 588b 57bb 7d8f 42bc 28cd 4e3d bd08 853c
00000330: e54d f13b 3e49 473d 480b c73b b4af 86bd
00000340: d6cd 98bc f95d c03b 8280 843d 71e3 68bc
00000350: b657 af3a 0de2 70bd 2460 043d 865f 8e3d
00000360: 6cae 85bd 0b66 74bd f0bf 02bc e20c 883d
00000370: e2a0 a93d bbab 89bd 89e7 c8bc 3c68 4e3c
00000380: 96e4 e6bd 2220 3cbc 322b c2bb a25b 913d
00000390: 83dd 923d 6e76 333d 2025 10bd f7ce 033c
000003a0: 2df0 9e3d 9987 ea3c bade 28bd 5ef9 8fbd
000003b0: b08f 8cbd f452 423c 0de0 6cbd b36c dcbc
000003c0: 5980 d23d d1c7 dd3b 5427 a33d fb70 adbb
000003d0: f35a b63d d675 e939 c176 cb3b ea55 153d
000003e0: 8b83 273c d437 e0bd 05b7 353d a023 61bd
000003f0: 1d24 b4bb 699e 5e3d 6314 833c 38e2 f7bc
-0.01299332 -0.0307812 0.015925428 -0.0145902075 0.0045329854 -0.002540598 -0.028541889 -0.06609009
0.026307058 -0.041907188 0.027628496 0.0028366225 -0.0077954284 0.11729181 -0.06324464 -0.031804573
0.1178449 0.04943653 0.00564069 -0.08449561 -0.06843366 0.009564308 0.10543546 0.03331983
-0.05249334 0.054552555 -0.036097206 -0.03952553 -0.022629015 0.04126189 -0.09880089 -0.0049834084
-0.004648282 -0.08505062 -0.07659802 0.022330549 0.032193482 0.012666193 -0.082488455 0.03947386
0.05807313 0.043899264 0.006288377 -0.06426176 0.041387547 0.0749832 0.03762068 -0.024092188
-0.08003268 -0.0340119 -0.03127454 -0.038310915 -0.10630617 -0.117618784 -0.12876694 -0.024400147
-0.08685404 -0.036220346 -0.050214663 -0.018857569 0.08255642 0.10248796 -0.003907607 -0.050899535
-0.076734945 0.08698252 0.10969451 -0.00068377896 0.04351867 -0.02987781 0.060212377 0.0041746087
-0.004713019 0.07206115 -0.17514902 -0.02313841 -0.018353831 0.10441109 -0.018443003 0.08472177
0.027922342 0.040912364 0.036402974 -0.013055067 0.060011044 0.07941478 -0.021931509 -0.14278427
-0.0014363572 -0.016402684 0.10812517 0.010498053 -0.047737055 0.05573379 -0.018368043 0.05944593
0.036251616 -0.035827443 0.01102646 -0.10444083 0.051927786 -0.056014244 -0.08488989 -0.07951046
-0.10205874 -0.025585463 0.014208626 0.018293835 0.0035232673 -0.05413151 -0.0136369085 0.08843646
-0.032586806 0.039113592 0.041172877 -0.018726723 -0.06362113 0.039616227 0.0659853 0.020254217
-0.061695013 0.047333375 0.12273545 0.028494505 0.09234372 -0.009880035 0.03733016 -0.03146352
0.025413364 0.008470136 -0.01433481 0.010162313 0.0019184172 -0.06772198 0.0085366275 -0.0025285727
-0.021599911 0.019937577 0.065893464 0.044112045 -0.0015474729 0.00078414474 -0.034460362 0.0499713
0.08306262 -0.15440567 -0.106966004 -0.057994325 -0.013513971 -0.023060605 0.061588593 0.019230286
0.0048429836 0.00097515684 0.022265812 -0.065083094 -0.052018154 0.062310543 -0.106266744 -0.018345585
0.023851613 -0.03839036 0.0140909655 0.1093213 -0.020658249 -0.036466893 0.0047166348 0.027096255
0.04382867 -0.02360225 0.046403836 0.016391115 -0.0009778523 -0.0068298182 -0.024157336 0.043191034
0.01593739 -0.010507749 0.038174003 0.020886794 -0.012892046 -0.08809354 -0.13358822 -0.04442445
0.025976758 0.011743752 -0.038745612 -0.055725213 -0.050721336 -0.008968798 -0.06344645 0.03702804
0.030527787 -0.081205346 0.0051501165 -0.034107406 0.060951054 -0.015582411 0.08956947 -0.028797712
-0.0032889452 -0.011875031 0.05048862 0.016239518 0.007364022 0.048653834 0.006074343 -0.065764815
-0.018652838 0.0058705774 0.064698234 -0.0142143825 0.001337758 -0.05880933 0.03231825 0.069518134
-0.06527409 -0.05966763 -0.007980332 0.06643082 0.08282639 -0.06722208 -0.024524467 0.012598094
-0.11274068 -0.01148227 -0.0059255594 0.07097556 0.07171156 0.043814115 -0.035191655 0.00804495
0.07760654 0.028629111 -0.041228034 -0.07029985 -0.06863344 0.011860598 -0.05783086 -0.0269073
0.102783866 0.0067682047 0.079664856 -0.0052930093 0.08904066 0.00044529018 0.006209225 0.036458887
0.010224233 -0.10948148 0.044363994 -0.054965615 -0.005497469 0.05435029 0.016000932 -0.030259237

fc1.bias f4 [120]
00000000: 849d 40bd 638e 453b 6701 df3d ca5f af3d
00000010: 2346 733d 8fda 30bd aef7 8e3d e8b0 9abc
00000020: c736 153d 082e 3b3d 6cf5 5e3c c519 503d
00000030: 8a42 a7bc 2787 cf3d 6323 b8bd 6459 13bb
00000040: b1e0 35bd a58f 86bc baac 803d 0384 79bd
00000050: dbda 933c 97b6 9f3d e63a f23d 71d4 fb3a
00000060: 64f8 cab8 62c1 f9bd 15fa 143d 908e 0dbe
00000070: baeb 3fbd 127e 99bd 2623 3dbd 2515 b23d
00000080: 0ce3 c03d 136b 12be 380f 4f3e b885 89bb
00000090: 1d0c 18bc 75de 7b3b e691 003e 9d66 33bd
000000a0: d9c5 f7bc 34f0 05bd 13bc 6cbd 6c96 61bd
000000b0: 84e8 fdbc ffb9 643d e113 153d 3e6e 8e3d
000000c0: 3413 f63b a5d3 313d 276f 243e 49ff 353d
000000d0: b665 c23c 5ca6 ffbd d106 553d a1ce bfbd
000000e0: d8c6 cf3c 48e2 ebbd 5408 c6bc 442a 2bbd
000000f0: 660e 403c 276b babd 8a0a 123e 42fb db3d
00000100: a2ff f43c d413 94bc c36a f73d 0e3c a9bd
00000110: 73d0 abbc 219c 9b3d ecc8 efbd df0f e33d
00000120: 074e 8ebd ef95 25be ee67 12bd b0c7 07bd
00000130: f200 733d 899d 6cbc da86 44bc 814a 113e
00000140: dd2e 50bd 320a 353e 9419 0ebd 5042 c7bd
00000150: 1cf7 0bbe e25b 533d 610f 243c 96e4 ee3d
00000160: a633 f43c ab2e 0dbc 188b 08be e066 dfbc
00000170: 8680 90bd df82 093d dfe0 9b3d 9714 c83d
00000180: d5e5 aa3d 588e 0cbe 1ea9 08bd b90d b33c
00000190: c3fd 3abc 0050 18bd 858e b13d e7f5 a93d
000001a0: 2e18 cebc ebb8 973b 75af a7bb d890 2d3d
000001b0: 951e f2bd e06a 9abd bc89 81be 99e2 513d
000001c0: e2ea 353e 417d cd3d 742b f4bc d2f5 ac3b
000001d0: dc37 8f3e 965e ffbc f50f 413e b8ad 083e
-0.04702522 0.0030144684 0.10888939 0.08563192 0.05939306 -0.043177184 0.06980835 -0.018883184
0.036429193 0.045698196 0.013608318 0.050805826 -0.02041747 0.101332 -0.089911245 -0.00224837
-0.044403736 -0.016425917 0.06282945 -0.06091691 0.018048694 0.07798498 0.1182764 0.0019213093
-9.678377e-05 -0.12195088 0.03637131 -0.13823915 -0.046855666 -0.07494749 -0.0461761 0.08695439
0.09418306 -0.14298658 0.20220649 -0.0041968487 -0.009280232 0.0038432155 0.12555656 -0.04379903
-0.030245708 -0.03269978 -0.05779655 -0.055075094 -0.030994661 0.055841442 0.03639591 0.06954621
0.0075096134 0.04341473 0.16058026 0.044432912 0.02373014 -0.124829024 0.052008454 -0.09365583
0.02536337 -0.11517769 -0.024173893 -0.041788355 0.011722183 -0.09102469 0.14261833 0.10741283
0.029907051 -0.018075861 0.1208091 -0.08263408 -0.02097342 0.075981386 -0.11708245 0.110870115
-0.06948476 -0.16170476 -0.035743646 -0.03314942 0.059327073 -0.014441856 -0.011995042 0.14188577
-0.050825942 0.1767967 -0.034692362 -0.09729445 -0.13668483 0.0516013 0.010013432 0.11664693
0.029809784 -0.008617084 -0.1333431 -0.027270734 -0.07055764 0.033572074 0.0761125 0.09769552
0.08344618 -0.13726175 -0.033364408 0.02185713 -0.011413041 -0.03718567 0.086697616 0.08298855
-0.025158014 0.0046301982 -0.0051173517 0.042374462 -0.11822239 -0.07539916 -0.25300395 0.05124149
0.17765382 0.10033656 -0.029805876 0.0052783275 0.27972305 -0.031173032 0.18853743 0.13347518

fc2.weight f4 [84, 120]
00000000: b963 3cbd e48c b13c 7bcc 14bd bcb6 023e
00000010: 5fe4 473d 3706 2cbe 5069 29bd 01b6 a83d
00000020: 081e a9bd 16fd 89bd f9ba e33d cb27 b63c
00000030: 6ecf 593d 76bd 47bd fc84 633e 98bd 4abd
00000040: afdd 913d 7aba 463d adab fcbd 1ab6 dabd
00000050: f663 1cbc 44d1 fb3c 0a58 68be 38a9 59bd
00000060: 34e0 e63d 3825 4c3d 3b28 74bc 4339 c83c
00000070: a0eb d73d aa28 3f3e 8652 78bd 1100 9a3c
00000080: b6fc 26be 236a 6ebd 6a15 02be 7989 10bd
00000090: 6509 fe3d 4698 543d 2fc1 893c 5ecb 033e
000000a0: 438f 843d 8561 c93c c5ab b03d af8d 903d
000000b0: c603 01be a835 3dbd d7e2 213d a74e a3bd
000000c0: e458 e63d 14d9 6a3b f479 1fbd 80c0 023e
000000d0: f96d 533d ebab 00bd 1388 a4bd fb0d ea3d
000000e0: f5ae 4fbd 2839 353d 0fab ca3d bcba 2fbd
000000f0: a432 a7bd f811 9d3d 198c 1a3e 0fe2 213e
00000100: 609f 01be 2ac4 43bd 0d46 563c f330 0e3d
00000110: 52c0 c6bd 771f 233d ffb8 4fbd ebd4 a83d
00000120: 7c9c 02be 8738 ec3c 104d 0abd 76f1 07be
00000130: 2805 b1bc dafb c53d 278b febc 5fb5 29be
00000140: de70 a4bd 19ef 37be 38d7 973c 9acb 57bd
00000150: a635 843d d8ab 0f3c 55e5 04be 4b85 0dbe
00000160: f14d 533e 7b0e fcbd 02f7 6b3d 2369 b23d
00000170: ee2f e0bd 8eed 7abd 2aae 5abc aae9 e8bd
00000180: cb47 dbbc 86e0 453d ebcc 223e 7b86 babd
00000190: ef62 0b3e 1517 803d 2aa7 93bc d429 0ebd
000001a0: dd59 9e3d 9815 63bd d071 52bc 77c0 833d
000001b0: c7e8 2d3c 0d9c 29bd 0b1b 2cbd a6df 0b3e
000001c0: 2f92 d0bd 99f3 89bb 7d59 a1bd 2c90 bb3d
000001d0: fd44 a2ba 7901 3e3d c684 f63d 8673 033e
000001e0: a60c cb3c 08cd a4bc 24eb d63d 76c4 a4bc
000001f0: 3a28 04bd 2ef1 da3d 1f12 aa3b aea8 d9bc
00000200: a93a de3c a590 c03d 49d8 4f3d 95e4 103e
00000210: 7df8 abbd c25a 683d 5f6e a73c 6c03 453d
00000220: cb05 233d fc77 d63c 0922 913d 7642 65bd
00000230: a95a 173e 3851 43be 8670 463c 636d 00be
00000240: f5ec 85bd 704a ee3d 4287 663d a547 1c3c
00000250: 4ca2 86bd ac03 933d b6df 1dbe d50d c6bd
00000260: ae5f 1c3e 516f a33d 51d4 c4bc 50fd c9bd
00000270: b330 f33c a720 293d 9a25 a8bd c9f6 a3bd
00000280: 0dcf 4d3e a52b 74bd 2f9b c23d b40e cdbd
00000290: bba1 04bd ffce fb3c 56f5 6bbd 06e3 8abd
000002a0: 187b 453b d8a9 263d 82fb 563d 5125 6cbe
000002b0: 06c8 8e3d 4427 553e 2d17 24bd 6f26 263e
000002c0: 9dbb 403a 5e66 96bd a72c 79bd 6a5f be3d
000002d0: 8dd6 733b 1ed7 89bd ee27 cfbd 80b8 053e
000002e0: 2c1a 5cbd 1ce6 c33a c6a0 a5bd c86f 663e
000002f0: ce6e 83bd 0175 973d 961b c0bd acb1 ffbd
00000300: 16e4 88bd ce34 123e 67e9 89bc 9f2d 84bd
00000310: 5e67 50bd 7345 c7bd a1fb cebd 574c 0d3d
00000320: 0700 aabc e99b 293e 96fb 64bd 6def 663d
00000330: 44d8 31bc f600 7bbd ba44 403e 49f6 1f3d
00000340: 8de4 2e3e 88d5 9cbd a369 c9bc 3f75 853e
00000350: df35 093e cf06 c63d 7f20 cd3c 951d a0bd
00000360: 09bb 00bd 27ed 9b3d 6b0e a8bd 4e81 183d
00000370: a00f 99bb 59ae 82be eec2 b13d b655 833d
00000380: ce10 803d f854 853d d159 543e 0da9 eebd
00000390: d8b9 8f3c fca5 713c 80da 92bd 5a52 88bc
000003a0: 10be e5bc 1e55 ef3a 9443 49bd b2ef a43d
000003b0: 9e40 1f3e 0fe1 2cbd 3227 ecbc 0fbe 6fbd
000003c0: c4e2 9abd 2c7a ac3c 1604 dabc ed02 22bd
000003d0: 8400 b7bd 56d1 643e 48c4 803b 3adf 4abe
000003e0: d20b b23d c6f8 00bd 4930 783d 1884 c33d
000003f0: ece5 56be d4d6 cf3d a327 bc3c a175 9abc
-0.04599354 0.021673627 -0.03632782 0.1276502 0.048801776 -0.16799246 -0.0413602 0.082378395
-0.08257681 -0.067377254 0.111196466 0.022235772 0.053176336 -0.04876467 0.22218698 -0.049497217
0.07122361 0.04851768 -0.12337432 -0.10679264 -0.009545317 0.030739434 -0.22689834 -0.053139895
0.11273232 0.049840182 -0.01490217 0.024441367 0.10542989 0.18667856 -0.060625575 0.01879886
-0.16307339 -0.05820669 -0.12703481 -0.035287354 0.124041356 0.05190303 0.01681575 0.12870547
0.064726375 0.024582634 0.086265124 0.07058274 -0.12599096 -0.04619375 0.039522972 -0.07973986
0.11247423 0.0035834955 -0.038934663 0.12768745 0.05161855 -0.031413954 -0.080337666 0.11428448
-0.05070396 0.04424396 0.09895908 -0.042902693 -0.08163956 0.07669443 0.15092506 0.15808891
-0.12658453 -0.0477945 0.013078225 0.03471465 -0.09704651 0.03982493 -0.050713535 0.08243736
-0.12755007 0.028835548 -0.0337649 -0.13275704 -0.021608904 0.096671775 -0.031072212 -0.16573094
-0.0802934 -0.17962302 0.018535241 -0.052684404 0.06455545 0.008768998 -0.12978108 -0.13820378
0.20635201 -0.123074494 0.057608612 0.087114595 -0.10946642 -0.061261706 -0.013347188 -0.11372693
-0.026767632 0.048309825 0.15898483 -0.09107681 0.13611959 0.062544025 -0.018024046 -0.03470786
0.07731984 -0.055440515 -0.012844518 0.06433194 0.0106145805 -0.041408587 -0.042017978 0.13659534
-0.10184132 -0.0042099473 -0.07878397 0.09158358 -0.0012380179 0.046388123 0.12037043 0.12837037
0.024786305 -0.020117298 0.10494068 -0.020113211 -0.032264926 0.106905326 0.0051901485 -0.02656969
0.02712758 0.09402589 0.050743375 0.14149697 -0.08397005 0.05672718 0.020438371 0.048098966
0.039800446 0.02618026 0.0708657 -0.055971585 0.14780678 -0.19073951 0.012111789 -0.12541728
-0.065393366 0.116352916 0.056281336 0.009538566 -0.065739244 0.07178435 -0.1541737 -0.09670607
0.15270874 0.07980216 -0.024027022 -0.09862769 0.029686308 0.041290905 -0.08210297 -0.08006055
0.20098515 -0.059611935 0.09502255 -0.1001257 -0.0323808 0.030738352 -0.057607017 -0.067815825
0.0030133184 0.04068932 0.05248595 -0.2306111 0.06971745 0.2081576 -0.040061165 0.16225599
0.00073521753 -0.07343744 -0.0608336 0.092955425 0.003720674 -0.067304835 -0.10115038 0.13058662
-0.053735897 0.0014945897 -0.08087306 0.22503579 -0.06417619 0.073953636 -0.093802616 -0.1248506
-0.06684129 0.14277956 -0.016834928 -0.06454014 -0.05087983 -0.09730043 -0.10106588 0.03449663
-0.020751966 0.16563381 -0.055903994 0.056380678 -0.010854784 -0.061280213 0.18776217 0.039053235
0.17079373 -0.07657915 -0.024586504 0.26066014 0.13399456 0.096692674 0.02503991 -0.07818142
-0.03142837 0.076135926 -0.08205875 0.03723269 -0.004671052 -0.25523642 0.08679758 0.064128324
0.06253205 0.06510347 0.20737387 -0.11653338 0.017544672 0.014749046 -0.07170582 -0.01664083
-0.02804473 0.001825962 -0.049136713 0.08053531 0.15551993 -0.04220682 -0.028827284 -0.058530863
-0.07562783 0.02105435 -0.026613276 -0.03955357 -0.08935645 0.2234548 0.0039296485 -0.19811717
0.08693661 -0.03148725 0.060592923 0.09546679 -0.20986146 0.10148397 0.022968119 -0.018854918

fc2.bias f4 [84]
00000000: a9a7 c5bc aa3a 9cbd 86a8 f1bd fe10 82bd
00000010: 53fa ecbc bcf5 96bd 96bd d3bd 25f8 3ebd
00000020: aea2 81be a3c1 96bd 26e9 153d 9d55 e83e
00000030: e9ba e4bc 202d 753e d3bb 383e 3673 d93d
00000040: e32b 8dbd 0949 e0bd f60f b23e 45f4 f2bd
00000050: 64fa 87bc 77ec 0f3d 7ddf 16bd ca8d 233e
00000060: 4eee e3bd e6cc 8fbc 8b0c c7bc 297b 753e
00000070: 4f72 a53a bebb 31bd 044b 813d 482d 273e
00000080: c124 0e3e 7920 c8bd 23b6 bb3b 9ff6 063c
00000090: 86e2 37be 8a33 f03d 0361 803d 7076 87bd
000000a0: 83c2 97be b981 6e3e 0945 153e 6e77 41bd
000000b0: 6725 aabd 5896 6138 bb0a 913c a486 353e
000000c0: d09d 503e 5dcc 073e f244 e53d 11da cfbd
000000d0: 9b5e 033e 591d d0bd 7903 4bbc 912a 16bd
000000e0: 0ae2 003e fc43 393e aee6 07bd 57b5 3dbd
000000f0: b2d7 063d 922c 563e 33fe 303e 887b 41bd
00000100: 7e89 b5bc ecfb a5bd 398b 993b ef65 1cbe
00000110: af37 9cbc 5826 23bc b8a8 723e d12f 093d
00000120: 7cff 31be d9e2 06be 26da 6c3e 9db2 193e
00000130: 76e9 463c a3e2 d13d 2d98 393d 35c6 0f3e
00000140: 4a4a 6439 136f 71bd 1ff4 4dbd 471e 0d3e
-0.024127798 -0.07628377 -0.117997214 -0.06350897 -0.028927958 -0.07371089 -0.10338895 -0.046623368
-0.25319427 -0.07361152 0.0365993 0.45377818 -0.027921157 0.23942995 0.18040399 0.10617678
-0.06893136 -0.1095143 0.34777802 -0.11862997 -0.016598888 0.03513762 -0.03683423 0.15972057
-0.111294374 -0.017553758 -0.024297973 0.23972763 0.0012622568 -0.043391936 0.06313136 0.16325867
0.13881208 -0.09771819 0.0057284995 0.00823751 -0.17957506 0.1172858 0.062685035 -0.06614387
-0.29640588 0.23291673 0.14577116 -0.047233038 -0.08307915 5.37842e-05 0.017705312 0.17727143
0.203727 0.13261552 0.11194791 -0.10149015 0.12829058 -0.101618476 -0.012390965 -0.03666169
0.12586227 0.1809234 -0.033178978 -0.046315517 0.032920547 0.2091544 0.1728447 -0.04723695
-0.022160288 -0.08104691 0.004685786 -0.1527326 -0.01906952 -0.009957872 0.23697174 0.033492867
-0.17382616 -0.13172473 0.23130092 0.15009542 0.012140622 0.10248306 0.04531114 0.14040454
0.00021771449 -0.05894382 -0.05028164 0.13781081

fc3.weight f4 [10, 84]
00000000: edec 0e3a 4237 253e 7ad0 a23d a63c 0c3d
00000010: 6a0a acbd 691e 12be 4828 233e 684b 003b
00000020: a5fe 793e 404b 1fbd 58e8 3e3e 9291 edbe
00000030: 27ea 00be e42e a23e abd5 9fbe c393 023e
00000040: 60a1 943d c708 803e 10d6 c1be c540 7b3d
00000050: 9e70 3f3e 6f44 8d3e ebf1 56be 6702 093e
00000060: 0776 703e 6a4d 333e 1c2d 5fbe 359f f6be
00000070: 4c7d 903e 2b86 22bd 9f24 7cbd 8900 c13d
00000080: 5a63 9b3e 0364 0abe 8cf3 34bd 96ea 4ebb
00000090: 5427 663e 2e29 8d3e 009a 2abd 8cd2 563d
000000a0: 012e 01be 4f9c 2d3d f70b 8abe 7d56 c5bd
000000b0: 4ffb a5be 2d5e ea3d 7a53 5f3e 0437 413d
000000c0: 405e b1be 379b afbd 9bbf 683e 1fd3 87bd
000000d0: 0833 4cbe 5ae7 723d 2bef afbe 62fe 483d
000000e0: 2789 f23d 9282 813e 1a3e 943e 4e2d 4d3e
000000f0: 7468 bf3e ea80 97bd 949c 0d3e 4b6d b6bd
00000100: 3dbd 813d 4e3f 943e c52b a1bd 5917 95bc
00000110: 6545 973e dde7 0b3e 0671 9bbe b68a 02be
00000120: bb29 c23e 67d4 2abe e778 b3bd d024 823c
00000130: fa5b e23d 3be0 42be 63c2 0b3e 8a28 53be
00000140: 6c3c 203e 7dc6 003e 7560 57bc 6320 c03e
00000150: 65a0 313e 28b3 833e 400e 6d3e c6f0 903e
00000160: 2e31 6a3c 6444 9f3e b218 f9bd 1804 833e
00000170: b9c2 593c c87c da3c 386e f4bd 0e97 f7be
00000180: e041 a0be d636 163c dc3d 103e 42ca 1fbe
00000190: 8a2f 4abd 7374 293d c6fe 9dbd 8a06 dc3e
000001a0: 8ab9 83be 470b 95be 5930 a33d 2d22 9cbc
000001b0: 48e8 91bb 32f7 873e f369 453d d22b 36be
000001c0: 5d9a 323e 9b43 273e 6c58 36bd c0e5 03be
000001d0: 8ba8 78be 4612 6c3d 8b45 b63b 1326 333d
000001e0: e397 003e 5f8c a3be ef07 3c3e 6ec5 413d
000001f0: 047d b93e 66af fcbd d71d 8b3c 211b 8d3c
00000200: 7721 903e 6562 98be a6e2 a93e 711e 00be
00000210: ed06 253e 0189 52be c8cf 6bbe 653f 16bc
00000220: 4bfd 3d3d 2d6c cbbe 9ab9 ed3e b1fe 023e
00000230: 7f1f 23bd a024 ddbe 05c1 4c3d 86fd 4e3e
00000240: d51e febd e0b5 cdbc af9f 33be aba6 24be
00000250: 837d 4e3d 4d28 dcbd 6c05 573c 21da e93d
00000260: 11e6 ae3e 9e69 c33d 77ea 78be 78bb 3fbe
00000270: bba7 63bd c5ee 8f3e 719c a5be 39f9 62be
00000280: edfc 92bd ad50 35be 709a b13d d2e8 83bd
00000290: 0ab7 883e ea0e ddbc f62f 1ebd 4dca 96be
000002a0: 2c9b 83be cbae 913e 6df2 35be 71c3 583e
000002b0: a8ed e03d e86d a1be 5fe1 563e 8d8c a8be
000002c0: bc9a fc3b 33a3 933d 3482 9fbe c218 3c3d
000002d0: ca1b 9fbe ac1e b3bc 9e55 3e3d 30de b4bd
000002e0: ed57 ab3e aa97 1a3b 39b9 c0bd 69e0 263e
000002f0: 166c 9c3e a1a6 2c3e 167a cc3d f1d5 873e
00000300: 1d82 943e 110b 82be 085e 8cbe d79f 07be
00000310: 177a e03d 1c01 823e 36a8 60bc 6988 083e
00000320: a36e 38be 2447 a83e 20f2 1b3e fc72 ac3e
00000330: 41d1 473e cf8b d53e 19f3 c9be 6ec9 5c3d
00000340: c03b 63be ac79 a83d a33a 643e b599 313e
00000350: 0f49 7dbe 017a 63be e9be 3cbd e296 62be
00000360: 35c7 b6be 0322 5f3e c3f6 24be 00b0 033e
00000370: f45d 81bc dee1 023e b83e 1c3c c8b5 56be
00000380: 1282 64be 8302 d73d ae91 53be c6d9 033e
00000390: 5295 b53e 7c45 85bc 9fe7 bc3e f94d 763e
000003a0: 98de d83d 0ec3 bfbe 2107 fc3e 36a0 893e
000003b0: 434a 97be e445 b1be f778 6e3e 8ff4 49be
000003c0: 60e6 29be d135 143e 1bad b53d b859 8e3e
000003d0: f53f 273c 9ed1 2b3e b4c5 9d3c 3621 5e3e
000003e0: b517 45be 49a7 46be abd4 07be 2892 26be
000003f0: 8836 273c 2a49 843c 0299 af3d f5d6 a5be
0.0005452175 0.1613436 0.0794992 0.034237526 -0.08400424 -0.14269413 0.15933335 0.0019576196
0.24413545 -0.038890123 0.1864332 -0.46400124 -0.12589322 0.316764 -0.31217703 0.12751679
0.07257342 0.25006697 -0.3785863 0.061341066 0.18695304 0.27591273 -0.20990722 0.13379823
0.23482524 0.1751 -0.21794552 -0.4816834 0.28220594 -0.039678734 -0.061558362 0.0942393
0.30349237 -0.13514714 -0.044177577 -0.003157293 0.2247594 0.2757048 -0.041650772 0.052446887
-0.12615205 0.042385396 -0.26962253 -0.09635637 -0.32418296 0.11443744 0.21809188 0.047171608
-0.3464222 -0.08574527 0.22729342 -0.06632065 -0.19941342 0.059302665 -0.34362158 0.049070723
0.11842566 0.2529493 0.2895363 0.20036814 0.3738438 -0.07397635 0.13829261 -0.08907565
0.063349225 0.28954548 -0.078696765 -0.01819961 0.2954513 0.13662668 -0.30359668 -0.12748227
0.37922463 -0.16682588 -0.08763295 0.015886694 0.110526994 -0.1903085 0.13648371 -0.20620933
0.15648049 0.12575717 -0.013145556 0.3752471 0.17346342 0.25722623 0.23149967 0.28308696
0.014293952 0.31106865 -0.121629134 0.2558906 0.013291054 0.026670828 -0.11935085 -0.48357433
-0.3130026 0.009168347 0.14086097 -0.15604499 -0.049361743 0.04137082 -0.0771461 0.4297374
-0.25727493 -0.29110166 0.07968206 -0.019059265 -0.004452739 0.26555783 0.048196744 -0.17790154
0.17441697 0.16334383 -0.04451792 -0.12880611 -0.24283044 0.057634614 0.0055624894 0.043737482
0.1255794 -0.31943032 0.18362401 0.047307424 0.36228192 -0.12338142 0.016982002 0.01722485
0.28150532 -0.2976257 0.33180732 -0.12511612 0.16115923 -0.20560075 -0.23028481 -0.009170388
0.046384137 -0.3973097 0.46430665 0.1279247 -0.03982496 -0.43192005 0.049988765 0.20213899
-0.124082245 -0.025111139 -0.17541383 -0.16079204 0.050412666 -0.10749874 0.013123851 0.11418558
0.34159902 0.09541629 -0.24308191 -0.18723857 -0.055579882 0.28111854 -0.32345918 -0.22165383
-0.07177148 -0.17706557 0.08672035 -0.06440891 0.26702148 -0.02698465 -0.038619958 -0.29451218
-0.25704324 0.2845367 -0.1776826 0.21168305 0.10982829 -0.31529164 0.2098441 -0.32919732
0.0077088755 0.07208862 -0.31154025 0.04592205 -0.3107589 -0.021865211 0.04646837 -0.088314414
0.3346552 0.0023588934 -0.094103284 0.16296543 0.30551213 0.16860439 0.099842235 0.26530412
0.2900552 -0.25399068 -0.2741549 -0.13244568 0.10960787 0.2539147 -0.01371198 0.13333286
-0.18010955 0.32866776 0.15229082 0.33681476 0.19513418 0.41708228 -0.3944328 0.053903036
-0.22190762 0.08226332 0.22287993 0.17343791 -0.24734901 -0.2221451 -0.046080504 -0.2212787
-0.35698858 0.21790318 -0.16109757 0.12860107 -0.01579187 0.12781474 0.009536438 -0.20967782
-0.22315243 0.10498526 -0.20661041 0.12876043 0.35465485 -0.016268484 0.36895463 0.24053182
0.105893314 -0.37453502 0.4922419 0.26880044 -0.29548845 -0.34623635 0.23288332 -0.19722198
-0.16591787 0.14473654 0.08870908 0.27802825 0.01020812 0.16779181 0.019259311 0.21692356
-0.19247325 -0.19399752 -0.1326472 -0.16266692 0.010205872 0.016148169 0.08574106 -0.32390562

fc3.bias f4 [10]
00000000: 3056 8bbe 9917 f5be 6483 34be 09c4 b23e
00000010: af06 2b3f ae17 55b9 5c73 8abe 1f26 a2be
00000020: 5fca af3e 580c 3ebd
-0.27214193 -0.47869566 -0.17628247 0.34915188 0.66807073 -0.00020322084 -0.27041137 -0.3166971
0.34334084 -0.04639849
