Models/07-04-2023-16-03-09/model_CNN_Adam.pth (torch, 250951 bytes, 10 tensors)

conv1.weight f4 [6, 3, 5, 5]
0	0xbde61820	-0.1123507
1	0xbccf009c	-0.025268845
2	0x3d2cbb68	0.042170912
3	0xbc08c390	-0.008347407
4	0xbdc9b10e	-0.098482236
5	0x3d39ec88	0.04539159
6	0xbdd08ee2	-0.10183503
7	0x3ca3acd0	0.019979864
8	0x3dccc13e	0.099977955
9	0xbc999e78	-0.018752322
10	0xbdc68af9	-0.09694476
11	0x3d8283e0	0.063728094
12	0x3cbb4f88	0.022865072
13	0x3c058008	0.008148201
14	0x3d662e84	0.056196705
15	0x3dcef822	0.10105921
16	0xbdcb4aa6	-0.099263474
17	0x3d9e8e4a	0.07741983
18	0x3d975bca	0.07390554
19	0x3cbf0338	0.023316965
20	0xbc92398c	-0.017849706
21	0x3db063a4	0.08612755
22	0x3bb55ea0	0.005534962
23	0xbb0ac500	-0.002117455
24	0xbd86c6f6	-0.065809175
25	0xbd3c99d4	-0.04604514
26	0x3d4a9f94	0.04946859
27	0x3b8ee770	0.0043610856
28	0xbbc3b650	-0.005972661
29	0x3dc4cb1e	0.09609054
30	0x3dd5e658	0.10444325
31	0x3da1751a	0.078836635
32	0xbc8e1184	-0.017342336
33	0xbcf2c1c0	-0.029633403
34	0xbdbd834a	-0.09253557
35	0x3dc2314a	0.094820574
36	0x3d89450a	0.06702621
37	0xbd10e6de	-0.035376422
38	0xbdc21b0f	-0.09477817
39	0x3d2a69d8	0.041604847
40	0x3d9bc886	0.07606606
41	0x3d103894	0.035210207
42	0xbd8ad041	-0.067780025
43	0xbdeb43d6	-0.11487548
44	0x3da7fae6	0.08202152
45	0x3dc2ec00	0.0951767
46	0x3db7ae7a	0.08968826
47	0xbc44e908	-0.01201845
48	0xbde4b6af	-0.11167657
49	0x3daa221a	0.083072856
50	0x3ce70938	0.028202638
51	0x3c9cb0b8	0.019127235
52	0xbd99e8c7	-0.07515102
53	0x3b7ad140	0.0038271695
54	0xbd96e60d	-0.073680975
55	0xbda3507e	-0.07974337
56	0xbda66e1a	-0.08126469
57	0xbccd7cc0	-0.0250839
58	0x3cfc11e8	0.030770257
59	0x3dc52744	0.0962663
60	0x3d6e6c7c	0.058208928
61	0x3d0357fc	0.03206633
62	0x3db01dec	0.08599457
63	0x3d946c36	0.07247202
64	0xbddc4942	-0.1075616
65	0x3d08d584	0.03340675
66	0x3dd0d150	0.10196173
67	0xbd984746	-0.07435469
68	0x3d54a9f0	0.051919878
69	0x3c90bd58	0.017668411
70	0x3cc6a390	0.024247915
71	0x3d230e4c	0.039808556
72	0xbcba028c	-0.022706293
73	0xbdbc9ace	-0.09209214
74	0xbd839e06	-0.06426625
75	0x3de6a03e	0.112610325
76	0x3dd1f8ba	0.10252519
77	0xbdbf2eae	-0.09335075
78	0xbd649df8	-0.055814713
79	0xbb569160	-0.003274046
80	0xbd8231be	-0.06357144
81	0xbdc4b738	-0.09605259
82	0xbc937eb4	-0.018004753
83	0xbd2482dc	-0.04016386
84	0xbd739f65	-0.059478182
85	0xbc44c628	-0.012010135
86	0xbde3952c	-0.11112437
87	0x3b66d8e0	0.0035224482
88	0x3cd3b650	0.02584377
89	0xbdebccad	-0.11513648
90	0xbd4a804c	-0.04943876
91	0x3dec2b92	0.11531748
92	0x3d4c4340	0.049868822
93	0x3dc48a2c	0.09596667
94	0xbd80f02b	-0.062958084
95	0xbdb9e95d	-0.09077714
96	0xbd4c2210	-0.049837172
97	0x3d95973a	0.07304235
98	0x3d67c578	0.056584805
99	0x3d9d8388	0.07691103
100	0x3da1251e	0.07868408
101	0xbce009c4	-0.027348407
102	0x3d21eb30	0.039530933
103	0xbb347600	-0.0027536154
104	0x3ce3b668	0.027796939
105	0xbd8fc60e	-0.07020198
106	0x3db7402a	0.08947785
107	0x3d387a68	0.04503861
108	0x3dc07ea0	0.09399152
109	0x3d9a895c	0.075457305
110	0x3d8bf996	0.06834714
111	0x3dd8e08c	0.10589704
112	0x3ca9f8a8	0.020748451
113	0x3d5ca124	0.053864613
114	0x3d5fb058	0.054611534
115	0x3dc63552	0.09678139
116	0x3d38dcf0	0.045132577
117	0xbd73ee13	-0.059553217
118	0x3d806414	0.062690884
119	0xbd1ac8c2	-0.037789114
120	0xbdbc5f4c	-0.09197864
121	0x3de2949e	0.11063503
122	0x3da8ff06	0.08251767
123	0xbdd2c80d	-0.10292063
124	0x3d9b49aa	0.0758241
125	0xbd76147e	-0.060078137
126	0x3dcd87f4	0.100356966
127	0xbcbd4440	-0.023103833
128	0x3da17360	0.07883334
129	0x3d2ec3c4	0.042667165
130	0xbd2dd4e6	-0.042439364
131	0xbc788f38	-0.015170865
132	0x3db1a336	0.08673708
133	0x3d296ca0	0.04136336
134	0xbccfe100	-0.025375843
135	0x3dce12bc	0.10062167
136	0x3dac9756	0.084273025
137	0x3d99c916	0.07509057
138	0x3dd109c6	0.10206942
139	0xbdd43fb4	-0.10363713
140	0xbc7878f0	-0.0151655525
141	0x3ddaa5f0	0.10676181
142	0x3de3562c	0.1110042
143	0x3d7ec5a0	0.06220019
144	0xbd621fa6	-0.055205964
145	0xbdcbf4b7	-0.09958785
146	0xbd5a041e	-0.053226583
147	0xbdbaed1b	-0.091272555
148	0x3d052978	0.03251025
149	0xbd5c041d	-0.05371486
150	0x3d9ee72a	0.07758935
151	0xbdaeb1c6	-0.08530001
152	0x3dcb0ea6	0.09914903
153	0x3cd4d7e8	0.025981858
154	0xbd402df6	-0.04691883
155	0x3cbfac20	0.023397505
156	0x3dca9462	0.09891583
157	0xbd84c1fa	-0.064823106
158	0x3d829d96	0.063777134
159	0x3bf9f430	0.0076279864
160	0xbda04942	-0.07826473
161	0xbdc91886	-0.098191306
162	0x3dcc86b0	0.09986627
163	0x3d6aa5b4	0.057286933
164	0x3dbd4da4	0.092433244
165	0xbd907a01	-0.070545204
166	0xbdd81986	-0.10551743
167	0xbda0c05e	-0.07849191
168	0x3d8d8650	0.06910384
169	0x3d556028	0.052093655
170	0x3c745ee0	0.014915198
171	0x3d8633ec	0.06552872
172	0xbc37f770	-0.011228427
173	0xbd95380e	-0.07286082
174	0xbd9164f1	-0.07099331
175	0x3cc5eef8	0.0241618
176	0x3ca56df0	0.020194024
177	0x3d568690	0.052374423
178	0xbd13c1c0	-0.036073446
179	0x3dd34d38	0.10317463
180	0x3d8f16e8	0.06986791
181	0x3cc4cc08	0.024023071
182	0x3d6b7afc	0.057490334
183	0x3dbba9f8	0.09163278
184	0x3ce9a3c8	0.02852048
185	0xbb60ed40	-0.00343211
186	0x3b7f0c20	0.003891714
187	0x3c020ab8	0.007937126
188	0xbd2c8e9a	-0.042128183
189	0x3d461ab8	0.048365325
190	0xbc6152a8	-0.013752617
191	0x3da26bcc	0.07930717
192	0xbc961228	-0.018319204
193	0x3d0da100	0.03457737
194	0xbd87cc46	-0.06630759
195	0x3dd1951a	0.10233517
196	0x3dc5c0a4	0.09655884
197	0x3dec6de6	0.11544399
198	0xbda0a99a	-0.07844849
199	0xbde1fc3e	-0.110344395
200	0x3c957a20	0.01824671
201	0x3d210cdc	0.039318904
202	0xbd94fe6e	-0.07275091
203	0x3da22f5c	0.07919189
204	0x3cf791b0	0.030220836
205	0xbd7eb529	-0.062184487
206	0x3d765820	0.060142636
207	0x3d08a20c	0.033357665
208	0xbd2a3972	-0.04155869
209	0x3d7154bc	0.0589187
210	0xbdba6f6e	-0.09103285
211	0xbdebe6c0	-0.115186214
212	0xbd60b212	-0.05485732
213	0x3d7eb894	0.062187746
214	0x3bb91690	0.0056484416
215	0x3deae754	0.114699036
216	0xbdb1c153	-0.08679452
217	0x3d9ed8a0	0.07756162
218	0x3d169b8c	0.036769435
219	0x3a607300	0.0008562058
220	0xbd9e5356	-0.07730739
221	0xbd6e209c	-0.058136567
222	0xbd8cef4a	-0.06881578
223	0x3b04a6e0	0.0020241067
224	0x3d1e8524	0.03870119
225	0x3c423890	0.011854306
226	0x3d8d560c	0.06901178
227	0x3da53ee2	0.080686346
228	0x3dd6bd48	0.10485321
229	0x3cc45f00	0.02397108
230	0xbd2e8a04	-0.04261209
231	0xbd896e78	-0.06710523
232	0xbdcfa8ff	-0.10139655
233	0x3c98b6b8	0.018641815
234	0xbcc732fc	-0.024316303
235	0xbc2aaf70	-0.010417804
236	0xbd8a691c	-0.06758329
237	0x3d79851c	0.06091796
238	0x3debeac6	0.11519389
239	0x3d4b4e68	0.04963532
240	0x3d21ddac	0.039518043
241	0xbda2230e	-0.079168424
242	0x3db4a3e8	0.08820325
243	0xbc0b87b0	-0.008516237
244	0xbdc509a4	-0.096209794
245	0x3d5aca80	0.053415775
246	0xbc6a1d28	-0.014289178
247	0xbcf49c74	-0.029859759
248	0xbd7d7676	-0.06188055
249	0xbd277dd0	-0.04089147
250	0x3db8b842	0.090195194
251	0xbdadd90d	-0.08488665
252	0x3d7e5ff4	0.062103227
253	0xbd5ea75a	-0.054358818
254	0x3d8c8510	0.06861317
255	0x3da3d03e	0.079987034

conv1.bias f4 [6]
0	0x3c0e6c10	0.008692756
1	0xbd99f771	-0.07517899
2	0x3d8fc966	0.070208356
3	0x3d8a1ac8	0.06743389
4	0xbdb98a0d	-0.09059534
5	0xbddc5acf	-0.10759508

conv2.weight f4 [16, 6, 5, 5]
0	0xbd29c354	-0.041446045
1	0x3d430550	0.04761249
2	0xbc4032e8	-0.011730887
3	0xbc203c70	-0.009780034
4	0xbd03ce3c	-0.032179102
5	0xbb82eea0	-0.0039957315
6	0x3b660e20	0.0035103634
7	0x3d9aeee0	0.07565093
8	0xbd37c957	-0.044869747
9	0xbd1caf94	-0.03825338
10	0x3cab0ebc	0.02088105
11	0x3cede834	0.029041387
12	0xbd6cc601	-0.05780602
13	0xbd217c2a	-0.039425053
14	0x3d3aac48	0.045574456
15	0x3d10ebdc	0.035381183
16	0xbd96b022	-0.073578134
17	0x3da4eda6	0.0805314
18	0xbd1cac1f	-0.038250085
19	0x3ce7b614	0.028285064
20	0x3d3b9edc	0.045805797
21	0xbd58de0c	-0.052946135
22	0x3d181346	0.037127756
23	0x3d84854e	0.06470738
24	0xbb7c6960	-0.0038514957
25	0x3d1822d6	0.037142597
26	0xbc44a8f0	-0.012003168
27	0x3c82c2e4	0.015962072
28	0x3d3e8d20	0.046521306
29	0xbd6b7686	-0.05748608
30	0x3cac6884	0.02104593
31	0x3d3be394	0.045871332
32	0x3c95dae8	0.01829286
33	0x3d9ee004	0.07757571
34	0x3d84b1d0	0.064792275
35	0xbd2d676e	-0.042334966
36	0x3d52ff80	0.051513195
37	0xbc8075b0	-0.015681118
38	0x3ca85618	0.020548865
39	0xbcb5478c	-0.022128843
40	0x3d3d7f6c	0.046264097
41	0xbd901ef5	-0.070371546
42	0xbd408076	-0.04699751
43	0x3d3bf288	0.045885593
44	0x3d66d034	0.0563509
45	0x3cd0edf0	0.025504082
46	0xbc4cace0	-0.0124923885
47	0x3cfe3988	0.031033292
48	0x3c942d98	0.018088147
49	0x3cc974c4	0.024591811
50	0x3d79c148	0.060975343
51	0xbd8fbce5	-0.07018451
52	0x3cadcb2c	0.021215044
53	0x3d5f4d04	0.054516807
54	0xbd9cd1fe	-0.0765724
55	0xbd67b8be	-0.05657267
56	0xbd5bf114	-0.053696707
57	0x3d98bc48	0.07457787
58	0x3baca2f0	0.005268447
59	0xba319880	-0.00067747384
60	0xbc4c67e0	-0.012475938
61	0xbd88c602	-0.06678392
62	0xbd14c8c8	-0.036324292
63	0x3cf614c0	0.030039191
64	0x3d20ebe8	0.039287478
65	0x3d8c2e82	0.06844808
66	0x3d91df9e	0.0712273
67	0x395f7c00	0.00021313131
68	0x3ccc8f1c	0.024970584
69	0xbc83b51c	-0.01607757
70	0xbd150353	-0.036380123
71	0x3c0e3c40	0.008681357
72	0x3bdbb870	0.0067053363
73	0x3d47648c	0.048679873
74	0xbd1f2ceb	-0.038861196
75	0x3d551d94	0.05203016
76	0xbc8cda54	-0.01719395
77	0xbd245c51	-0.040127102
78	0xbd897ed4	-0.06713644
79	0xbd25120f	-0.040300425
80	0xbd800bb8	-0.06252235
81	0xbb2046a0	-0.0024456158
82	0x3d0278c0	0.031853437
83	0xbbe06920	-0.0068484694
84	0x3d542f6c	0.051803038
85	0xbd8c93ff	-0.068641655
86	0x3a78b880	0.0009487942
87	0x3d499b90	0.04922062
88	0xbd9ad7f9	-0.07560725
89	0xbd0f0c33	-0.034923743
90	0xbc8a37b4	-0.016872264
91	0xbc9e24dc	-0.019304685
92	0xbc763868	-0.015028097
93	0xbb75e8c0	-0.0037522763
94	0x3d4cdd50	0.050015748
95	0x3bb8bb50	0.0056375638
96	0x3d83b688	0.064312994
97	0xbd78356e	-0.06059783
98	0x3d08a6e6	0.03336229
99	0xbce59544	-0.028025277
100	0x3d6c9fa8	0.057769448
101	0xbd784030	-0.06060809
102	0x3d8ec1fc	0.06970593
103	0x3d73808c	0.059448764
104	0xbd6a8c9a	-0.057262994
105	0xbd8e93da	-0.06961794
106	0xbb41f480	-0.0029595196
107	0xbd565554	-0.05232747
108	0xbd9bd49b	-0.07608911
109	0x3d3a0b54	0.04542096
110	0xbd52446e	-0.05133479
111	0xbd6d12d6	-0.05787929
112	0xbd893ded	-0.067012645
113	0xbd998ac6	-0.07497172
114	0x3c7c7b50	0.015410259
115	0xbd5580d3	-0.05212481
116	0x3d90764c	0.07053813
117	0xbba039a0	-0.004889682
118	0xbd73f927	-0.059563782
119	0x3d625c84	0.05526401
120	0x3c9875c4	0.018610843
121	0x3d80ccd0	0.06289065
122	0x3d110986	0.035409473
123	0xbb8f9b90	-0.004382558
124	0xbcca6888	-0.024708048
125	0xbda01b54	-0.078177124
126	0x3d8355cc	0.06412849
127	0xbd10f7b1	-0.035392467
128	0x3da4233e	0.080145344
129	0xbd543880	-0.051811695
130	0x3d37746c	0.044788763
131	0xbd1bee6b	-0.03806917
132	0xba23f700	-0.00062547624
133	0xbd49b151	-0.049241368
134	0x3d67b4f4	0.056569055
135	0x3d080710	0.03320986
136	0x3d907f92	0.07055582
137	0xbd95d74e	-0.07316457
138	0xbb724160	-0.0036965236
139	0xbd48237d	-0.04886197
140	0x3c671e08	0.014106281
141	0x3d6e2608	0.05814174
142	0xbc57f078	-0.013179891
143	0x3cf93bfc	0.03042411
144	0xbd6745e5	-0.05646314
145	0xbd08d3fe	-0.033405297
146	0xbd9d56b2	-0.076825514
147	0x3b091500	0.0020917058
148	0x3bd01830	0.0063505396
149	0xbda48d8a	-0.08034809
150	0xbd6e9046	-0.05824306
151	0x3d7a2720	0.06107247
152	0xbd681b73	-0.056666803
153	0x3abe83c0	0.0014535114
154	0x3cc55848	0.024089947
155	0xbcab1adc	-0.020886831
156	0xbc2ffb90	-0.0107411295
157	0xbd887810	-0.06663525
158	0x3d04c310	0.03241259
159	0xbd6d4915	-0.057931025
160	0x3d8a3392	0.067481175
161	0xbd37b01a	-0.044845678
162	0x3c6040c8	0.01368732
163	0x3d171bb6	0.03689166
164	0x3d0f83f8	0.035037965
165	0xbd5a6a54	-0.05332406
166	0xbcde38aa	-0.027126629
167	0x3d4e1a00	0.050317764
168	0x3d8e6306	0.06952481
169	0xbcdafdfc	-0.026732437
170	0xbcfadf80	-0.030624151
171	0xbd917f1f	-0.071043245
172	0xbc995794	-0.018718518
173	0xbd04b6dd	-0.032400955
174	0xbd922c93	-0.07137408
175	0xbd645e6f	-0.05575412
176	0x3d048894	0.032356814
177	0xbd2efc89	-0.042721305
178	0x3d35d68c	0.04439406
179	0xbd01ec61	-0.03171957
180	0x3b624bc0	0.0034530014
181	0xbcf35cd6	-0.029707354
182	0xbd3421f7	-0.043977704
183	0x3d9a19d8	0.075244606
184	0xbd4afe34	-0.049558833
185	0xbc020ed0	-0.007938102
186	0xbd8065a7	-0.06269389
187	0xbd1695d6	-0.03676399
188	0x3d1f87f8	0.03894803
189	0xbd80b2b7	-0.06284087
190	0xbd16484d	-0.036690045
191	0x3d17467c	0.036932454
192	0xbd7df0a0	-0.061997056
193	0xbc5e05c0	-0.013551176
194	0xbb8a2080	-0.0042153
195	0xbd387a41	-0.045038465
196	0xbd850538	-0.06495136
197	0xbd8aae7d	-0.06771562
198	0x3d858fca	0.06521566
199	0xbd825e80	-0.06365681
200	0xbd3db919	-0.0463191
201	0xbd4c6701	-0.04990292
202	0x3d09fe52	0.033689804
203	0x3c4c2410	0.01245977
204	0x3d1032fa	0.035204865
205	0xbc95b148	-0.01827301
206	0xbd9d0566	-0.07667045
207	0xbc9ae670	-0.01890871
208	0x3d2a8e64	0.0416397
209	0xbd7bc844	-0.061470285
210	0x3c893c04	0.01675225
211	0xbcc75c7c	-0.024336092
212	0xbd7f8332	-0.062380977
213	0xbab5d580	-0.0013872832
214	0x3d49a9a8	0.049234062
215	0xbd7143fd	-0.05890273
216	0xbc9532fc	-0.018212788
217	0xbd299061	-0.041397456
218	0x3d4a1248	0.04933384
219	0x3bcaa5b0	0.0061843023
220	0xbce3b0d6	-0.027794283
221	0x3c9e1a80	0.019299746
222	0xbd2cce92	-0.04218919
223	0x3d5bd8e8	0.053673655
224	0xbd94a310	-0.07257664
225	0x3c3f7ae8	0.011687018
226	0xbd7636de	-0.06011092
227	0x3d7f2d60	0.062299132
228	0xbce116ae	-0.027476635
229	0x3d8be25e	0.068302855
230	0x3bbd2700	0.0057724714
231	0x3b3bdba0	0.0028664842
232	0x3bd4e040	0.0064964592
233	0x3cfdb4ac	0.03096994
234	0xbce2a57e	-0.027666803
235	0xbd4111d6	-0.04713615
236	0xbd745570	-0.059651792
237	0xbcb2ecf8	-0.021841511
238	0x3d9b663a	0.075878575
239	0xbd2f3bac	-0.042781517
240	0x3d36911c	0.04457198
241	0x3d97b944	0.074083835
242	0x3d212796	0.039344393
243	0xbbd55be0	-0.0065111965
244	0xbd072fa1	-0.033004407
245	0x3bbb7aa0	0.005721405
246	0xba86dbc0	-0.0010288879
247	0x3d43c368	0.047793776
248	0x3d904a20	0.07045388
249	0xbcf8cd40	-0.030371308
250	0xbcc93338	-0.024560556
251	0xbd57989a	-0.052635767
252	0x3d9d714a	0.07687624
253	0xbd8f3738	-0.06992954
254	0x3d81bd0e	0.063348874
255	0x3d3fe238	0.0468466

conv2.bias f4 [16]
0	0xbd8ae1c1	-0.067813404
1	0x3ccc3a28	0.024930075
2	0x3cb26ce8	0.021780446
3	0x3d908f54	0.07058588
4	0x3bfd98b0	0.007739149
5	0x3d629730	0.055319965
6	0x3d2e770c	0.042594
7	0xbd6572a8	-0.056017548
8	0xbc8f01ac	-0.017456852
9	0xbd13c7bf	-0.036079165
10	0x3d4d2b8c	0.050090358
11	0xbb1d8480	-0.0024035275
12	0xbda39f0c	-0.0798932
13	0xbb859760	-0.004076883
14	0xbcd1371e	-0.025538977
15	0xbc21df28	-0.009879865

fc1.weight f4 [120, 400]
0	0xbd39f202	-0.045396812
1	0x3d471df1	0.04861254
2	0x3d274199	0.040834043
3	0xbc1e9314	-0.009678621
4	0x3c2d1414	0.010563869
5	0xbcd76d1a	-0.02629714
6	0x3cf414f2	0.029795144
7	0x3d446abd	0.047953356
8	0x3d10a1c1	0.03531051
9	0x3ba15a50	0.004924096
10	0xbcfb4313	-0.030671632
11	0x3d2e57a9	0.042564068
12	0x3c1f5d88	0.009726889
13	0xbd47590f	-0.048668917
14	0xbc50e5b4	-0.012750078
15	0xbce363d7	-0.027757568
16	0xbd0318ee	-0.032006197
17	0xbc03a554	-0.008035023
18	0x3ada2a40	0.0016644672
19	0x3d3afb1f	0.045649644
20	0x3b587520	0.0033028796
21	0x3cdcde56	0.026961487
22	0x3d308179	0.043092225
23	0xbc24de08	-0.010062702
24	0x3d0e52e1	0.03474701
25	0x3d3d9f89	0.046294723
26	0x3cdc9fc2	0.026931647
27	0x3d2c6f75	0.04209848
28	0xbbef0040	-0.007293731
29	0xbc9167c0	-0.017749667
30	0xbcad0140	-0.02111876
31	0x3cfa1612	0.030528102
32	0x3d40a331	0.04703063
33	0xbc1c8434	-0.009553004
34	0xbd423daf	-0.047422107
35	0xbd1c21eb	-0.038118284
36	0x3cbb0242	0.022828225
37	0xbd465f62	-0.048430808
38	0x3cb3a622	0.021929804
39	0xbd35bd52	-0.044370003
40	0xbceff84a	-0.029293198
41	0xbc7a2740	-0.015268147
42	0xbbedb7d0	-0.007254578
43	0x3c16e68c	0.00921024
44	0xbb5bbcb0	-0.0033529215
45	0xbd03694e	-0.03208285
46	0x3b826830	0.0039797053
47	0x3d3b9a51	0.045801464
48	0xbc37158c	-0.011174571
49	0xba081e00	-0.00051924586
50	0x3cd0eada	0.025502611
51	0x3c5bf5dc	0.013425317
52	0x3d0f82ab	0.035036724
53	0x3d010eff	0.031508442
54	0xbb8fbf10	-0.00438679
55	0xbbf73e28	-0.0075452514
56	0x3c93bb92	0.018033776
57	0x3bbe9830	0.005816482
58	0xbd36c865	-0.044624705
59	0x3c623b24	0.013808046
60	0x3d07e7c9	0.033180032
61	0x3d290363	0.041262995
62	0xbd0ad8dd	-0.033898223
63	0x3d256623	0.04038061
64	0xbd0f46b2	-0.03497953
65	0x3d451461	0.048115138
66	0xbd0180c8	-0.031616956
67	0x3d25b969	0.040460024
68	0x3d1eea37	0.038797583
69	0xbbd6d0a8	-0.0065556355
70	0xbc8867c4	-0.016651042
71	0xbd292ca5	-0.041302342
72	0x3bb53490	0.0055299476
73	0x3cb23bc2	0.02175701
74	0x3d26971d	0.040671457
75	0xbd197c3a	-0.037471987
76	0xbb57a0b0	-0.0032902174
77	0xbc0400e0	-0.008056849
78	0xbc5b2f74	-0.013378013
79	0x3c457c4c	0.01205356
80	0x3d241c03	0.040065777
81	0xbca85c53	-0.020551836
82	0xba0712c0	-0.0005152635
83	0xbcd6b2f3	-0.026208377
84	0x3d3c8d2b	0.046033066
85	0xbd21ef6b	-0.039534967
86	0xb9e8b580	-0.00044385716
87	0xbd176a9a	-0.036966898
88	0xbccc2183	-0.024918323
89	0xbd2963d2	-0.04135496
90	0x3d120d99	0.0356575
91	0x3d211539	0.03932688
92	0x3d39bc7b	0.045345765
93	0xbce8611d	-0.02836662
94	0x3c6225f4	0.013802994
95	0x3d47a7c5	0.048743982
96	0x3bf79290	0.0075553134
97	0xbd09d91a	-0.03365431
98	0xbc9e5367	-0.019326879
99	0xbcbb4c93	-0.022863662
100	0xbd01bc34	-0.031673625
101	0xbd03e5ca	-0.032201566
102	0xbcd208d7	-0.02563898
103	0xbcc5c537	-0.02414189
104	0xbcdb32a7	-0.026757551
105	0x3d2a17c1	0.04152656
106	0x3d14b77b	0.036307793
107	0xbc2855cc	-0.010274362
108	0x3d30d355	0.043170292
109	0x3d1064cd	0.03525238
110	0xbd17207b	-0.03689621
111	0xbd310627	-0.043218758
112	0x3d473a01	0.0486393
113	0x3bc552c0	0.0060218275
114	0xbcd4909a	-0.025947858
115	0xbd3dbc5f	-0.046322223
116	0x3c979ea2	0.01850826
117	0x3cc5c262	0.02414054
118	0x3d132c6b	0.035931032
119	0x3d2a4935	0.041573722
120	0xbc3c52c0	-0.0114943385
121	0x3b981428	0.0046410747
122	0xbc566820	-0.013086349
123	0xbd0d4628	-0.034490734
124	0xbb036fd0	-0.002005566
125	0x3c656184	0.0140003
126	0x3a351f40	0.00069092587
127	0x3ccc76da	0.024959017
128	0xbc74b620	-0.014936
129	0x3d3e46dd	0.0464543
130	0x3d21ac79	0.039471123
131	0x37d3f000	2.5264919e-05
132	0xbcaff1aa	-0.02147754
133	0x3cfde912	0.030994926
134	0x3d0514c9	0.032490525
135	0xbcfe50d0	-0.031044394
136	0x3c4b3dd8	0.012404881
137	0xbb72be50	-0.0037039705
138	0xbc412d94	-0.011790652
139	0x3d40e9e1	0.047098044
140	0xbd13f335	-0.036120612
141	0xbd0431fc	-0.03227423
142	0x3d3c5afb	0.045985203
143	0xbc4655b4	-0.012105394
144	0x3d48131d	0.048846353
145	0x3cbe0872	0.023197386
146	0xbd35f702	-0.044425018
147	0xbc22faf4	-0.009947527
148	0xbd19854b	-0.037480634
149	0xbbf51550	-0.0074793473
150	0xbb81d0f0	-0.003961675
151	0xbca04c43	-0.019567614
152	0xbcf9ca27	-0.030491902
153	0x3ce83bc2	0.028348807
154	0xbc6de234	-0.014519263
155	0xbcf87a30	-0.030331701
156	0xbcbcb720	-0.02303654
157	0x3d3458a3	0.044029843
158	0xbd071cb5	-0.03298636
159	0x3d3699b9	0.044580195
160	0xbbc8e468	-0.006130744
161	0x3c959d32	0.018263433
162	0xbca266dd	-0.01982444
163	0x3bfe7810	0.0077657774
164	0x3d42f6f9	0.047598813
165	0xbb5d5460	-0.0033772215
166	0x3d34c20d	0.044130374
167	0x3b144c50	0.0022628494
168	0x3c5b225c	0.013374891
169	0xbcaeff27	-0.0213619
170	0x3ce83602	0.028346065
171	0xbaa29360	-0.001240354
172	0x3d3e246b	0.04642145
173	0x3c922352	0.017839108
174	0x3cd264d2	0.02568284
175	0x3d01a051	0.03164703
176	0xbd3dc67f	-0.04633188
177	0xbcab4ea7	-0.020911528
178	0xbc0b80e0	-0.008514613
179	0x3d4be141	0.049775366
180	0x3b8100b0	0.0039368495
181	0x3d1acba3	0.03779186
182	0xbcacd383	-0.02109695
183	0x3c405b18	0.011740468
184	0x3d008ac9	0.031382356
185	0xbbe0daf0	-0.006862037
186	0x3d2bad17	0.04191312
187	0xbcb83de7	-0.022490455
188	0xbc4866f4	-0.012231577
189	0xbcfb9f1a	-0.030715514
190	0x3cfbe662	0.030749504
191	0xbd131e5e	-0.035917632
192	0x3c2f5378	0.010701053
193	0xbcaccda0	-0.021094143
194	0xbd1d8098	-0.038452715
195	0x3ca37522	0.019953314
196	0x3a903960	0.0011003427
197	0xbd03e3a6	-0.032199524
198	0x3a91c6a0	0.0011121817
199	0x3c0643ac	0.008194845
200	0xbd3d5f37	-0.046233382
201	0xbcdfd027	-0.027320934
202	0x3c1cbe14	0.0095668025
203	0x3ca9d126	0.020729613
204	0xbd4ab9e2	-0.049493678
205	0x3cd2e91a	0.025745917
206	0xbd06b355	-0.032885868
207	0xbd0d6f66	-0.034530066
208	0x3d4310af	0.047623333
209	0xbc339000	-0.010959625
210	0xbc85a3c0	-0.016313434
211	0x3c6ceaa4	0.01446024
212	0xbba25658	-0.0049541406
213	0x3ba03968	0.004889656
214	0x3cdd5682	0.02701879
215	0xbc92413a	-0.017853368
216	0xbcf85a10	-0.030316383
217	0xbd0ac860	-0.0338825
218	0xbcade147	-0.021225585
219	0x3cf87342	0.030328397
220	0x3d2c200f	0.04202276
221	0xbd33649a	-0.043797113
222	0x3d235f0d	0.03988557
223	0xbd1f390d	-0.038872767
224	0x3d37030d	0.044680644
225	0xbd0f691d	-0.035012353
226	0xbc1642ac	-0.009171169
227	0xbd0ab692	-0.03386552
228	0x3cda4ee2	0.026648942
229	0x3d44793f	0.04796719
230	0x3cd29622	0.025706355
231	0x3aa24d40	0.0012382641
232	0x3d078509	0.033085857
233	0xbc1dd898	-0.0096341595
234	0xbd2a28c8	-0.0415428
235	0xbd04d06d	-0.032425333
236	0x3d390d31	0.045178596
237	0x3c579c24	0.013159785
238	0x3c39a74c	0.011331391
239	0xbc80bb20	-0.015714228
240	0x3d29e3e1	0.041477088
241	0xbca0c92d	-0.019627178
242	0x3cd5ab8e	0.02608278
243	0xbd3e7838	-0.04650137
244	0xbb4e2860	-0.003145717
245	0xbc200cb4	-0.009768654
246	0x3ca61dfe	0.020277973
247	0x3cbf7f7e	0.023376223
248	0xbc9270ba	-0.017876018
249	0xbd444b57	-0.047923412
250	0x3d20a69d	0.039221395
251	0x3ce46132	0.027878378
252	0xbce62f3a	-0.028098691
253	0x3ced2862	0.02894992
254	0xbd1d67d0	-0.03842908
255	0xbc4df614	-0.012570877

fc1.bias f4 [120]
0	0xbd09de86	-0.03365948
1	0xbd18abd0	-0.03727323
2	0xbd0d0986	-0.03443291
3	0xbcd7155a	-0.026255298
4	0xbc53b4e8	-0.012921549
5	0x3d43a29b	0.047762495
6	0xbc9f8050	-0.019470364
7	0xbc82fb56	-0.015988987
8	0xbd0996d8	-0.03359112
9	0xbd29efd3	-0.04148848
10	0x3d2ba96f	0.04190963
11	0x3d4cbdfd	0.049985874
12	0x3d281dfb	0.041044217
13	0xbd076de0	-0.03306377
14	0x3cacd396	0.021096986
15	0xbd0c887d	-0.034309853
16	0xbc643b0c	-0.0139300935
17	0x3c753924	0.014967237
18	0xbc07d0a0	-0.008289486
19	0xba8ec760	-0.0010893159
20	0xbd320ef3	-0.043471288
21	0x3c8181ea	0.015809018
22	0x3cbae21a	0.022812892
23	0xbcd04ca0	-0.025427163
24	0xbce4fa53	-0.027951395
25	0x3d266d05	0.040631313
26	0xbd12b590	-0.035817683
27	0x3ccc69a2	0.024952713
28	0xbd08b805	-0.03337862
29	0x3bb6eef0	0.005582683
30	0xbcac262d	-0.021014297
31	0xbc4a16c8	-0.012334533
32	0x3ccb5a22	0.024823252
33	0xbc900a06	-0.017582905
34	0xbcac384a	-0.021022934
35	0x3cc7602e	0.024337854
36	0x3d390cf9	0.045178387
37	0xbd3dc4cd	-0.046330262
38	0x3cd01a96	0.025403302
39	0x3cd759d6	0.026287954
40	0x3cf3d04e	0.029762413
41	0xbcdc0aba	-0.026860584
42	0x3c9e7062	0.019340698
43	0x3d2342f5	0.039858777
44	0xbd27b67a	-0.040945508
45	0xbd2e45b8	-0.042546958
46	0xbc90e8aa	-0.017689068
47	0x3d3f0551	0.04663593
48	0x3cbdae92	0.02315453
49	0x3d27749b	0.040882688
50	0x3c96122e	0.018319216
51	0xbcd0034d	-0.025392199
52	0x3d318131	0.043336097
53	0x3d12fcb1	0.035885517
54	0x3c2c8728	0.010530271
55	0xbc204f68	-0.009784557
56	0x3d312a7b	0.043253403
57	0x3d2fab4b	0.042887967
58	0xbd04b828	-0.032402188
59	0x3d09d457	0.03364977
60	0x3cea6d76	0.028616648
61	0xbd4a203b	-0.049347144
62	0x3c01086c	0.007875543
63	0x3d31bef3	0.043394994
64	0xbbb49968	-0.0055114515
65	0xbc02b5b8	-0.007977895
66	0xbd03bf16	-0.032164656
67	0xbd48ecdf	-0.049054023
68	0x3cbde1b2	0.023178909
69	0x3cdc297e	0.026875254
70	0xbd0ce118	-0.034394354
71	0xbc01db40	-0.007925808
72	0xbce9f3d3	-0.028558647
73	0xbcee9f00	-0.029128551
74	0xbc705af4	-0.014670122
75	0xbcf615c3	-0.030039674
76	0x3d18c0f1	0.03729338
77	0x3c80ee0e	0.015738513
78	0x3d472967	0.04862347
79	0xbc6c3180	-0.014416099
80	0x3c522404	0.01282597
81	0xbd28ed33	-0.041241836
82	0xbccfb383	-0.025354153
83	0x3d02d5bb	0.03194211
84	0xbd45b3a2	-0.048267014
85	0xbd163d3d	-0.036679495
86	0x3d40df97	0.047088232
87	0xbd204522	-0.03912843
88	0x3d33966b	0.04384462
89	0xbc9e3aa3	-0.01931507
90	0xbd2954a2	-0.041340478
91	0x3bc64be8	0.006051529
92	0xbd037da6	-0.03210225
93	0x3d4775e5	0.048696417
94	0xbc65b1ec	-0.014019471
95	0x3d0f6817	0.035011377
96	0x3d484d79	0.04890201
97	0x3d1ce1ef	0.038301405
98	0x3ca63f8a	0.02029397
99	0xbd1db685	-0.038504142
100	0xbb46bca0	-0.0030324832
101	0xbd3a5b9a	-0.045497514
102	0xbd39f98d	-0.045404006
103	0x3cc89aa2	0.024487797
104	0xbc5c4e88	-0.013446458
105	0xbc66afac	-0.014079969
106	0x3d419ae9	0.047266874
107	0x3cf8e11e	0.030380782
108	0xbc969876	-0.018383246
109	0x3b169bb0	0.002298098
110	0x3c99e886	0.018787634
111	0x3b5d4650	0.0033763833
112	0xbcc5093a	-0.024052251
113	0xbcb3b99a	-0.021939088
114	0xbd37df1d	-0.04489051
115	0xbc016a74	-0.007898916
116	0xbd4b2055	-0.04959138
117	0xbb9e2950	-0.004826702
118	0x3cb8fa06	0.022580158
119	0xbc849254	-0.016183056

fc2.weight f4 [84, 120]
0	0x3ce7b6d4	0.028285421
1	0xbcb24440	-0.02176106
2	0x3db4ac0a	0.08821876
3	0x3c955548	0.018229142
4	0x3d7a6c14	0.061138228
5	0x3d60ae80	0.054853916
6	0xbd67d1fd	-0.056596745
7	0xbc8e424c	-0.017365597
8	0x3da0dc90	0.07854569
9	0x3c7344e0	0.014847964
10	0xbdbac540	-0.09119654
11	0xbd38c6b0	-0.04511136
12	0x3c35d628	0.011098422
13	0x3d06c228	0.032900006
14	0xbce48074	-0.027893282
15	0x3daea4f8	0.08527559
16	0x3d476c94	0.048687533
17	0x3c0cec30	0.008601233
18	0x3dafed44	0.08590177
19	0x3da54da2	0.08071448
20	0xbd4f1056	-0.05055269
21	0x3d7f2d84	0.062299266
22	0x3c549dc0	0.012977064
23	0x3da3ed78	0.08004278
24	0x3d849df6	0.06475441
25	0xbd8f6680	-0.07001972
26	0xbd546578	-0.05185458
27	0xbaf1a780	-0.001843676
28	0xbd0f4d68	-0.03498593
29	0xbd9575e6	-0.07297878
30	0x3ccdf9c0	0.025143504
31	0xbae96c80	-0.0017808825
32	0xbd8d53cf	-0.06900751
33	0xbdb63ba2	-0.08898093
34	0xbd9f365a	-0.077740386
35	0x3ac09840	0.0014693812
36	0x3db42a0c	0.08797082
37	0xbd70dbf5	-0.058803517
38	0xbc8d7298	-0.017266557
39	0xbd79ba9c	-0.06096898
40	0x3d290224	0.041261807
41	0xbd4c3af0	-0.049860895
42	0xbd2e262c	-0.042516872
43	0xbd04a5d7	-0.03238472
44	0xbdae5b35	-0.0851349
45	0x3d7fc380	0.062442303
46	0x3ac266c0	0.0014831647
47	0x3da3b836	0.0799412
48	0x3d9f6f5c	0.07784912
49	0xbd0da75a	-0.034583427
50	0x3b8d09a0	0.004304126
51	0xbd2ed0b3	-0.0426795
52	0x3d9ecda2	0.07754065
53	0xbd883443	-0.06650593
54	0x3d51deb0	0.051237762
55	0xbd83bac6	-0.064321086
56	0xbce57c90	-0.028013498
57	0xbc176738	-0.009240918
58	0x3db0605e	0.086121306
59	0xbd5da1b9	-0.05410931
60	0xbd3da68a	-0.046301402
61	0x3d825152	0.06363167
62	0x3db1b078	0.08676237
63	0xbcec9e54	-0.02888409
64	0x3d97effe	0.07418822
65	0x3d021e4c	0.031767175
66	0xbd6b7dad	-0.0574929
67	0xbdb13db8	-0.0865435
68	0xbcd85108	-0.026405826
69	0x3d86b080	0.065766335
70	0x3d9179be	0.071032986
71	0xbd82c2b4	-0.06384793
72	0xbcbd8fb8	-0.02313982
73	0x3bcdac60	0.006276652
74	0xbd1b2f1b	-0.03788672
75	0x3bd5ad40	0.006520897
76	0xbda49604	-0.08036426
77	0xbaa6b680	-0.0012719184
78	0x3d7379f8	0.05944249
79	0x3a8dfe40	0.0010833219
80	0xbdb00059	-0.08593816
81	0xbcdcb49c	-0.02694159
82	0xbd62d869	-0.055382166
83	0x3d95e2c8	0.07318646
84	0x3d3260c4	0.043549314
85	0x3d2fcf9c	0.0429226
86	0x3d789448	0.060688287
87	0xbd2cd469	-0.042194758
88	0x3d8bbf7a	0.06823631
89	0xbce35f94	-0.027755536
90	0x3d07495a	0.033028938
91	0x3d0d4918	0.034493536
92	0xbd4f720a	-0.050645865
93	0xbd8b9d91	-0.06817163
94	0xbda644cc	-0.08118591
95	0x3d946314	0.0724546
96	0xbc7bc830	-0.015367553
97	0x3c299048	0.010349341
98	0x3d7b1c38	0.06130621
99	0xbd5ab67b	-0.053396683
100	0x3a925440	0.0011164024
101	0x3c941b34	0.018079378
102	0x3dae847a	0.08521362
103	0xbbbb85d0	-0.005722739
104	0xbdb464ce	-0.088082895
105	0xbda268a2	-0.079301134
106	0xbc9da7b8	-0.019245014
107	0xbc85d48c	-0.016336702
108	0x3c357ca8	0.011077084
109	0x3d75ef18	0.06004247
110	0x3d28b9f0	0.04119295
111	0xbd90fd3a	-0.07079549
112	0x3cae6bcc	0.021291636
113	0x3d3131b4	0.04326029
114	0xbd4d37b3	-0.050101947
115	0xbba05480	-0.0048928857
116	0xbd5c0db8	-0.05372402
117	0x3d50f76c	0.05101721
118	0x3cf86d68	0.030325606
119	0xbd55ca8c	-0.052195117
120	0xbd7515ca	-0.059835233
121	0xbd9c5651	-0.07633651
122	0xbd38d407	-0.04512408
123	0x3d3ceaf8	0.04612252
124	0xbbdf4020	-0.006813064
125	0x3d1ac1f8	0.03778264
126	0xbd7d3182	-0.061814792
127	0xbd28fd8c	-0.041257426
128	0x3bde0e60	0.006776616
129	0x3d7f4840	0.062324762
130	0xbb48c0c0	-0.0030632466
131	0x3d159734	0.03652115
132	0x3d2f1280	0.042742252
133	0xbd33b6f3	-0.043875646
134	0xbc494260	-0.012283891
135	0x3dab76ba	0.08372255
136	0x3d9b8780	0.07594204
137	0x3b7b4ce0	0.0038345382
138	0xbcca329c	-0.024682336
139	0xbcc0e404	-0.023546226
140	0x3d873d60	0.06603503
141	0x3ce59e9c	0.028029732
142	0xbc8e0fa8	-0.01734145
143	0x3d8fa7e6	0.07014446
144	0xbcb16b94	-0.021657743
145	0x3c606308	0.013695486
146	0xbd0d1ed5	-0.03445323
147	0x3d8689e4	0.06569269
148	0xbc904c88	-0.017614618
149	0x3dafeb1c	0.085897654
150	0xbd9a7215	-0.07541291
151	0xbc7425e8	-0.014901616
152	0x3cdf3c64	0.027250476
153	0xbda89180	-0.08230877
154	0x3daf2ed6	0.08553855
155	0x3daba546	0.08381133
156	0xbd783ffc	-0.060607895
157	0x3d7d6808	0.06186679
158	0xbd9622fa	-0.0733089
159	0x3da46cd4	0.0802857
160	0xbd1c5fbd	-0.03817724
161	0x3d3dc778	0.046332806
162	0x3da27f1a	0.07934399
163	0xbdae20f0	-0.08502376
164	0xbd440ea9	-0.047865544
165	0x3d9e5982	0.07731916
166	0x3d8845ce	0.06653939
167	0x3d3ffb18	0.04687032
168	0x3bacc6b0	0.005272709
169	0x3d4bf6a0	0.049795747
170	0xbcacdbc8	-0.021100894
171	0x3d8eb444	0.06967977
172	0x3907a200	0.00012934953
173	0x3d219314	0.039446905
174	0x3cf9a2e4	0.03047318
175	0xbd8d1c94	-0.068902165
176	0x3d838000	0.064208984
177	0xbcfc0e60	-0.030768573
178	0x3bc0d840	0.005885154
179	0xbd2e5989	-0.042565856
180	0xbc4e4eb0	-0.012592003
181	0x3be1c5d0	0.006890036
182	0xbc96047c	-0.018312685
183	0x3d92d99e	0.071704134
184	0xbd61eb88	-0.05515626
185	0x3ccc0cfc	0.024908535
186	0xbcba8d58	-0.022772476
187	0xbc410a88	-0.011782296
188	0xbd4d597f	-0.05013418
189	0x3cdd05c4	0.026980288
190	0xbd76429e	-0.060122125
191	0xbc761350	-0.015019253
192	0x3da15a66	0.0787857
193	0x3d9d485c	0.07679817
194	0x3d0b03dc	0.033939227
195	0x3db167f0	0.08662403
196	0xbd286bba	-0.04111836
197	0x3da707f0	0.08155811
198	0x3d94e8a8	0.07270938
199	0xbd10dd8a	-0.035367526
200	0xbb483ea0	-0.0030554906
201	0x3cf26a20	0.02959162
202	0x3d40bcc8	0.047055036
203	0x3d31a064	0.04336585
204	0xbd5ce72b	-0.053931396
205	0x3d2d30b8	0.04228279
206	0x3d6820bc	0.056671843
207	0x3cc9f60c	0.024653457
208	0x3da5fde4	0.081050664
209	0xbc02b3f8	-0.007977478
210	0xbd240204	-0.040040985
211	0xbd18a60b	-0.037267726
212	0xbd3c58eb	-0.045983236
213	0xbd89dd54	-0.06731668
214	0xbcb8ebfc	-0.022573464
215	0x3dabb8cc	0.083848566
216	0x3d05a632	0.0326292
217	0xbc59bc80	-0.013289571
218	0xbdae6250	-0.08514845
219	0x3daa9952	0.08330025
220	0xbd95fafe	-0.073232636
221	0xbd953737	-0.07285922
222	0x3d87b740	0.06626749
223	0x3d112e44	0.035444513
224	0x3c7d87a0	0.01547423
225	0x3da771d6	0.08176009
226	0xbd217e05	-0.039426822
227	0xbd6f8bc2	-0.058482893
228	0xbcb9adb0	-0.022665828
229	0x3d9ffac8	0.078115046
230	0x3d863ed2	0.06554951
231	0xbd5533ed	-0.052051473
232	0xbcf302bc	-0.02966439
233	0xbc84e504	-0.016222484
234	0x3d5e9444	0.054340616
235	0x3d55f7a4	0.05223812
236	0xbc73dda8	-0.01488439
237	0xbdab72e0	-0.0837152
238	0xbd59956f	-0.053121027
239	0x3d9f6fec	0.07785019
240	0xbdb27147	-0.08713012
241	0x3c03ea88	0.008051522
242	0x3d2931ac	0.041307136
243	0xbd83c396	-0.064337894
244	0xbc892188	-0.016739622
245	0xbd88ea40	-0.06685305
246	0xbd09095e	-0.0334562
247	0x3bea68c0	0.0071536005
248	0x3ba2abd0	0.0049643293
249	0xbdaf3da6	-0.085566804
250	0xbd4c51c5	-0.04988267
251	0x3da4d872	0.08049096
252	0x3d959f1e	0.0730574
253	0x3cdcda44	0.026959546
254	0x3d8dc1ae	0.06921707
255	0x3d19aa08	0.03751567

fc2.bias f4 [84]
0	0xbd2a19f9	-0.041528676
1	0xbd82656e	-0.063670024
2	0x3cf3f174	0.02977822
3	0x3d958552	0.073008195
4	0xbd5b1edb	-0.053496223
5	0x3bda2640	0.006657392
6	0x3d52b954	0.051446274
7	0xbd9efd7e	-0.077631935
8	0x3d2a6074	0.04159589
9	0xbda68842	-0.08131458
10	0xbc4f1e60	-0.012641519
11	0xbbe7a750	-0.0070695058
12	0xbd3d910d	-0.04628091
13	0x3c05e098	0.008171223
14	0x3da4d10a	0.080476835
15	0xbd24bee9	-0.04022113
16	0x3d6f1964	0.058373824
17	0xbd099246	-0.033586763
18	0xbd9655d4	-0.07340589
19	0xbcbd97e8	-0.023143724
20	0x3cccdd8c	0.025007986
21	0xbc315df8	-0.010825627
22	0xbd521786	-0.051291965
23	0x3d8fca96	0.07021062
24	0xbd9d70db	-0.07687541
25	0xbc8fa63c	-0.017535321
26	0x3cf5a9e8	0.029988244
27	0xbd4eb7c4	-0.05046822
28	0xbd86663e	-0.0656247
29	0xbbe84450	-0.0070882216
30	0xbd963e6b	-0.07336124
31	0x3c910ae4	0.017705388
32	0x3d0582f2	0.032595582
33	0x3d11919c	0.035539255
34	0x3da4eac8	0.080525935
35	0x3c7e65b8	0.015527181
36	0x3d489f4c	0.048980042
37	0x3d5f7b60	0.05456102
38	0x3d9e7bcc	0.07738456
39	0xbac14600	-0.0014745593
40	0x3d4429cc	0.047891423
41	0xbd03a5e8	-0.032140642
42	0xbd9876e3	-0.07444551
43	0x3c88b20c	0.016686462
44	0xbb50ace0	-0.0031841323
45	0x3cdec90c	0.027195476
46	0xbd8ae6ab	-0.06782278
47	0xbb2f7320	-0.00267715
48	0xbd739ca0	-0.05947554
49	0x3da7e13c	0.08197257
50	0x3bdbe830	0.0067110285
51	0x3dad2052	0.0845343
52	0x3d1f4704	0.038886085
53	0x3c63b2a8	0.013897575
54	0xbdad033c	-0.084478825
55	0xbc418220	-0.011810809
56	0xbd15f7a1	-0.03661311
57	0x3d195d30	0.037442386
58	0xbdaa04f0	-0.08301723
59	0xbda22ba5	-0.07918481
60	0xbdb42438	-0.08795971
61	0x3d8a90c6	0.067658946
62	0xbc85b8cc	-0.01632347
63	0x3d54e080	0.051971912
64	0xbd0cb47c	-0.03435181
65	0xbcf4d75c	-0.029887848
66	0x3db2b44c	0.08725795
67	0xbd63f071	-0.055649225
68	0x3d1cc2e8	0.038271815
69	0x3d1897a8	0.037254006
70	0xbd5a44ce	-0.053288274
71	0x3d7e2d3c	0.062054858
72	0xbcb023b0	-0.021501392
73	0xbda257e3	-0.07926919
74	0xbd97ea9c	-0.07417795
75	0x3d69a2fc	0.0570402
76	0xbc343718	-0.0109994635
77	0x3d480584	0.048833385
78	0xbda24294	-0.07922855
79	0x3da58ad2	0.080831185
80	0x3d9e0444	0.07715657
81	0x3c7774c8	0.015103526
82	0xbdb2236d	-0.08698163
83	0x3bf78330	0.0075534806

fc3.weight f4 [10, 84]
0	0xbda6f344	-0.08151868
1	0xbdcdb7a3	-0.100447915
2	0xbca8c1fc	-0.020600311
3	0x3c34dc60	0.01103887
4	0x3dc925e7	0.098216824
5	0xbd079f06	-0.03311064
6	0x3c06ac50	0.008219793
7	0xbd9f3da7	-0.07775431
8	0x3ddab299	0.10678596
9	0xbc1be8f0	-0.009515986
10	0xbd19cf16	-0.03755101
11	0xbc20c6b0	-0.009812996
12	0x3b9f2c60	0.004857585
13	0xbd973f31	-0.073851
14	0xbd9a81a8	-0.07544261
15	0x3dd595e3	0.10428979
16	0xbd9e0a91	-0.07716859
17	0x3d34400e	0.0440064
18	0x3bb33d50	0.0054699555
19	0xbc9ebd28	-0.019377306
20	0x3bb7fa80	0.0056145787
21	0xbd7ba0fb	-0.06143282
22	0xbd92717c	-0.07150552
23	0x3bbc0290	0.00573761
24	0x3d5aab72	0.05338616
25	0xbdbeee2a	-0.0932277
26	0x3c5b6d80	0.013392806
27	0xbdcd5ff9	-0.10028071
28	0xbcfb25dc	-0.030657701
29	0xbcafadac	-0.021445118
30	0xbd6f21f6	-0.058381997
31	0xbd7e6d72	-0.062116094
32	0xbdcc6fb0	-0.0998224
33	0xbc430048	-0.0119019225
34	0x3d5ed11a	0.054398634
35	0xba9a5980	-0.0011775941
36	0xbdc46a3d	-0.09590576
37	0xbd8a22c3	-0.067449115
38	0xbda93874	-0.08262721
39	0xbdd99f3f	-0.10626077
40	0xbc82ec40	-0.015981793
41	0xbb3455c0	-0.0027516931
42	0x3cb39084	0.021919496
43	0x3da7a80b	0.081863485
44	0xbd4f9d49	-0.05068711
45	0xbd136ba4	-0.035991326
46	0xbd91f7d1	-0.07127345
47	0x3d9e4f79	0.07730002
48	0x3d8377cf	0.06419336
49	0xbddf0082	-0.10888769
50	0x3d571e52	0.05251915
51	0x3d9eb3a5	0.07749108
52	0xba75bf80	-0.0009374544
53	0x3dc5899b	0.09645387
54	0xba222680	-0.00061855465
55	0x3becc6a0	0.0072258264
56	0x3dd93df3	0.10607519
57	0x3dcda549	0.10041291
58	0x3cff6c14	0.031179465
59	0x3d306da6	0.04307332
60	0x3d630f16	0.05543431
61	0x3d9436df	0.07237028
62	0xbd8a49f8	-0.0675239
63	0xbd0f7ce4	-0.035031214
64	0xbd27a28a	-0.040926494
65	0xbd34deec	-0.044157907
66	0xbcf02a60	-0.029317081
67	0x3d2255ce	0.03963261
68	0x3d685812	0.056724615
69	0x3d0c1ed6	0.034209095
70	0x3b8d73a0	0.004316762
71	0x3d4514ba	0.04811547
72	0xbdbe97c8	-0.09306294
73	0xbd74487a	-0.05963943
74	0xbc96c23c	-0.018403165
75	0x3c97a7cc	0.018512629
76	0xbd8ffff9	-0.07031245
77	0x3d6221b2	0.055207916
78	0xbdd22afc	-0.10262105
79	0x3c89707c	0.01677727
80	0x3d768bca	0.060191907
81	0xbcfa6960	-0.030567825
82	0x3d9f4e47	0.07778602
83	0x3cba2a64	0.022725292
84	0xbd76baf0	-0.06023687
85	0x3d626c6e	0.055279188
86	0x3b0b3260	0.0021239743
87	0x3d0948de	0.033516757
88	0xbdc41fcc	-0.09576377
89	0xbda0bca2	-0.07848479
90	0x3cdadbec	0.026716195
91	0x3cdf3a1c	0.027249388
92	0xbc5a71f0	-0.013332829
93	0x3c42ace0	0.011882037
94	0x3da800d3	0.08203282
95	0x3d093942	0.03350187
96	0x3d9f84c3	0.07788994
97	0xbdcccd32	-0.100000754
98	0xbd77e4c7	-0.060520913
99	0x3c836074	0.016037203
100	0xbcc59aa4	-0.02412159
101	0x3bf47b30	0.007460974
102	0xbd694ad7	-0.05695614
103	0x3c16fe40	0.009215891
104	0xbd1a6dc6	-0.037702344
105	0x3dd800f7	0.10547059
106	0xbdc2a834	-0.095047385
107	0x3c876594	0.016527928
108	0xbd5502ad	-0.052004505
109	0x3c390c50	0.011294439
110	0x3bfc0be0	0.0076918453
111	0xbdcf45a2	-0.10120703
112	0x3da9b6e3	0.08286836
113	0x3db0c729	0.08631737
114	0xbdc605be	-0.09669064
115	0x3a881e00	0.0010384917
116	0x3d865c7f	0.06560611
117	0xbce0c8e0	-0.027439535
118	0x3dd054a7	0.10172396
119	0xbd04ff0e	-0.0324698
120	0x3d81f22f	0.06345021
121	0x3dc73395	0.09726635
122	0xbd590c89	-0.05299047
123	0xbc786d78	-0.015162818
124	0xbd522a51	-0.051309887
125	0x3c1b5850	0.009481505
126	0xbc9f8560	-0.019472778
127	0x3dd43673	0.10361948
128	0xbdbf61d8	-0.09344834
129	0xbd132b66	-0.03593006
130	0xbcfaed34	-0.030630685
131	0xbd5f5a3b	-0.05452941
132	0xbc4273f8	-0.011868469
133	0x3ddcf545	0.10788969
134	0xbd70c4c3	-0.058781397
135	0xbca8bc3c	-0.02059757
136	0xbdcebe66	-0.10094909
137	0xbd992430	-0.07477605
138	0xbdacb91a	-0.08433743
139	0xbda265a4	-0.07929543
140	0x3c6d4590	0.014481917
141	0x3dde7a57	0.10863178
142	0xbb9b8810	-0.0047464445
143	0xbc9ad5d4	-0.01890079
144	0xbda69d36	-0.08135454
145	0x3dc4e941	0.09614802
146	0x3ca83b8c	0.020536207
147	0xbbab4c30	-0.005227588
148	0x3d269612	0.040670462
149	0xbdc410cc	-0.09573516
150	0xbcb47784	-0.022029646
151	0x3da724ad	0.08161292
152	0x3d948f77	0.07253926
153	0xbd20fbae	-0.03930252
154	0xbd907d66	-0.07055168
155	0xbc70f4d8	-0.014706813
156	0xbca23960	-0.01980275
157	0x3d80a86b	0.06282123
158	0xbd80c76b	-0.06288036
159	0xbd31e002	-0.04342652
160	0x3dbdf301	0.09274865
161	0x3d0ce4ca	0.034397878
162	0x3dab898f	0.083758466
163	0xbd9155cc	-0.070964426
164	0x3da16427	0.07880431
165	0x3daba71b	0.08381482
166	0x3dc75d5d	0.097346045
167	0x3cda8c34	0.026678182
168	0x3d166b56	0.036723457
169	0x3db21021	0.086944826
170	0xbce47ae0	-0.027890623
171	0x3cecd5ac	0.02891048
172	0x3d8e6443	0.06952717
173	0x3d918665	0.07105712
174	0xbc85019c	-0.016236119
175	0x3b35d180	0.002774328
176	0x3cd11fac	0.025527798
177	0x3d965ebf	0.0734229
178	0xbdcc243a	-0.09967847
179	0x3c07f138	0.008297257
180	0xbce2bf30	-0.027679056
181	0x3d8a106b	0.06741413
182	0x3c8c2e4c	0.01711192
183	0x3dd5ea01	0.10445023
184	0xbd4686ad	-0.04846828
185	0xbdd3d8e0	-0.103441
186	0xbdde3caa	-0.108514145
187	0x3ca1107c	0.01966118
188	0x3d5cd866	0.05391731
189	0xbce146bc	-0.02749955
190	0x3d889775	0.06669513
191	0xbda8e360	-0.08246493
192	0xbdb3499d	-0.08754275
193	0x3d681272	0.056658216
194	0xbc5b76a8	-0.013394989
195	0xbd039c50	-0.032131493
196	0x3d4d78b2	0.050163932
197	0xbdca0e3a	-0.09865995
198	0x3dcd3461	0.10019756
199	0x3d0063ce	0.03134518
200	0xbd6e0a89	-0.058115516
201	0xbd132eba	-0.035933234
202	0xbce77950	-0.028256088
203	0xbbdb2210	-0.00668741
204	0x3da9d601	0.08292771
205	0x3d5c9a8a	0.053858317
206	0x3dd0a303	0.10187342
207	0xbdb47264	-0.08810881
208	0x3dc1f743	0.094709896
209	0x3dd681f7	0.104740076
210	0xbdae3fdb	-0.08508273
211	0xbd502a33	-0.050821494
212	0xbb8d05a0	-0.004303649
213	0x3d9ed5c1	0.07755614
214	0xbc23cc60	-0.009997457
215	0xbca4ebb4	-0.020131923
216	0x3d6fcbe2	0.058544047
217	0xbd06f034	-0.03294392
218	0x3dd8d327	0.10587149
219	0xbd89863c	-0.06715056
220	0xbc572700	-0.013131857
221	0x3db06cfb	0.086145364
222	0xbda2186c	-0.07914814
223	0xbcb27c58	-0.021787807
224	0x3db36717	0.08759897
225	0xbd1eebc4	-0.038799062
226	0xbc724418	-0.014786743
227	0x3d1c3e0a	0.038145103
228	0x3b148ea0	0.002266802
229	0xbd9c2916	-0.07625024
230	0x3c605ac8	0.013693519
231	0xbdcbcb3a	-0.09950872
232	0x3d3f7c92	0.04674966
233	0xbd8e6242	-0.06952335
234	0x3d129876	0.03578993
235	0xbc126900	-0.008936167
236	0xbb522ae0	-0.0032069013
237	0x3cb3bdb4	0.021941043
238	0xbd88d0da	-0.0668046
239	0xbd6c0251	-0.057619397
240	0xbce98360	-0.028505027
241	0xbd836009	-0.064148016
242	0xbbc5b380	-0.006033361
243	0x3dac7ebf	0.084226124
244	0x3cf15324	0.02945859
245	0xbdbda6db	-0.09260341
246	0x3d6d4d9a	0.057935335
247	0xbbbf46d0	-0.005837299
248	0x3db93d2b	0.0904487
249	0xbd9d9f99	-0.076964565
250	0x3c0054d0	0.007832721
251	0x3db86ca1	0.09005094
252	0xbdac2a31	-0.08406485
253	0x3dad58a5	0.08464173
254	0xbd16ceb6	-0.03681823
255	0x3d554aae	0.052073173

fc3.bias f4 [10]
0	0x3dd09407	0.10184484
1	0x3da2fc21	0.07958246
2	0xbd9af70a	-0.0756665
3	0x3d8b30f7	0.06796449
4	0x3d6ce512	0.057835646
5	0x3d09ce9e	0.03364431
6	0x3d4f763e	0.050649874
7	0x3b368900	0.0027852654
8	0xbd0707e2	-0.032966502
9	0x3caa4ee4	0.020789571
