Models/05-04-2023-23-29-26/model_CNN_SGD_M0.pth (torch, 250951 bytes, 10 tensors)

conv1.weight f4 [6, 3, 5, 5]
0.2886327 -0.08847298 0.22020428 0.23101112 0.12866713 -0.09579036 -0.30973822 0.15152444
0.3602908 -0.054482765 -0.34648746 -0.29054695 0.30093944 0.15208048 0.15180807 -0.38277814
-0.23479192 0.28779873 0.1494697 0.002030314 0.011655047 -0.13488999 0.19869222 0.14041388
0.047328092 -0.2524705 -0.39578295 -0.121754296 0.0293103 -0.15953669 -0.39232156 -0.50672776
0.015832 0.24615659 -1.9654526e-05 -0.6437674 -0.46144536 0.14087935 0.28501758 0.10857082
-0.6405818 -0.42780992 0.22793081 0.17885374 0.101622805 -0.16217132 -0.27381447 0.28937334
0.15490226 0.14339674 -0.02282819 -0.17131422 0.16548267 0.03206006 -0.15795055 -0.11735358
-0.24082582 0.1806004 0.24387637 -0.06388574 -0.24904817 -0.30824322 0.31768817 0.3248993
-0.10828439 -0.22310822 -0.10297815 0.42325014 0.36971065 0.10676474 0.04841005 0.15819883
0.32639307 0.24000774 -0.0421207 0.43403947 0.75848246 0.40172893 0.4700718 0.051173702
0.11543436 0.5283253 0.47706118 0.6346355 0.37303314 -0.009998667 -0.008539145 0.0865261
0.37877366 0.31562996 -0.36337772 -0.4415834 -0.5489011 -0.05871793 0.27012298 -0.26204792
-0.3607088 -0.61184126 -0.5019132 -0.32278028 -0.1328699 -0.04791076 -0.08436816 -0.0359168
-0.2210516 -0.30710077 -0.37826866 -0.1212513 0.030622248 0.11401597 -0.2551658 -0.29354787
-0.17336746 0.15950827 0.2567157 -0.18611045 -0.32561958 -0.40630072 -0.009621839 0.31902888
0.23035789 -0.010935923 -0.42119023 -0.19657147 0.043309785 -0.048021294 -0.022658305 -0.2422619
-0.21454181 -0.29116112 -0.22991675 -0.060388226 -0.13225259 0.042847916 -0.12829302 0.16779439
0.02472562 -0.10372167 0.2607451 0.30777118 0.2522224 0.05335645 -0.21051827 0.21398856
0.39184737 0.54269135 0.2431516 -0.12556633 -0.046769544 -0.12784392 -0.065020405 -0.013142566
0.04959605 -0.00022993964 -0.015341995 0.059538923 0.07689824 -0.112776205 0.0039971033 -0.02307991
-0.004113709 -0.07004867 -0.10386732 -0.09825046 -0.10318798 -0.049164925 -0.22373019 -0.29570046
-0.26030594 -0.10582458 -0.11812963 -0.20890754 -0.18479425 -0.18104531 -0.1376165 -0.12077546
-0.16500174 -0.20928258 0.014311609 -0.0689524 -0.12867849 0.013639681 0.1635432 0.16078267
0.043865126 0.031774722 0.0052360315 0.11638234 0.13750757 0.066461734 -0.09945963 0.019518731
0.044993766 0.090605654 0.03666985 -0.27116004 0.054285776 0.020604577 0.040220685 -0.13906002
-0.054740284 -0.17706503 0.06820349 0.0036086696 0.10879171 0.028169014 0.28258234 0.32885262
0.33299452 0.1822908 0.07838954 0.32300255 0.2242402 0.3302231 0.1675411 0.11416636
0.31616914 0.38850558 0.23929895 0.1739439 0.04192885 0.23381089 0.13845547 0.23233202
0.02465002 0.0070070173 0.00474033 -0.13784783 -0.21689609 0.020503545 0.35297596 0.3410413
-0.11957877 -0.43236828 -0.22815298 0.18666919 0.38348255 0.028124897 -0.23585786 -0.28046322
0.12049269 0.0751486 0.07306457 -0.10260197 -0.03568816 -0.120387755 0.02308942 0.023867806
0.039234895 -0.025064617 0.12710965 0.002569003 0.0050716978 -0.10305321 0.18775201 0.24785347
00000000: aac7 933e 5231 b5bd 3b7d 613e 2e8e 6c3e
00000010: 51c1 033e bc2d c4bd 0296 9ebe 3929 1b3e
00000020: 0978 b83e 5229 5fbd ce66 b1be 92c2 94be
00000030: bc14 9a3e fcba 1b3e 9373 1b3e 7ffb c3be
00000040: 4b6d 70be 5b5a 933e 960e 193e 040f 053b
00000050: cff4 3e3c 9a20 0abe f975 4b3e a8c8 0f3e
00000060: 1adb 413d d043 81be 10a4 cabe 515a f9bd
00000070: 271c f03c 965d 23be 5fde c8be e9b8 01bf
00000080: 1cb2 813c 7910 7c3e c6df a4b7 f1cd 24bf
00000090: 9142 ecbe ad42 103e d3ed 913e 615a de3d
000000a0: 2bfd 23bf e709 dbbe b266 693e 6f25 373e
000000b0: 9e1f d03d 3d10 26be 6931 8cbe be28 943e
000000c0: b39e 1e3e 98d6 123e 2f02 bbbc ff6c 2fbe
000000d0: 4a74 293e 6951 033d cabd 21be 1357 f0bd
000000e0: 0b9b 76be 50ef 383e baba 793e 87d6 82bd
000000f0: 7c06 7fbe 0ed2 9dbe 06a8 a23e 3359 a63e
00000100: 35c4 ddbd 7b76 64be 35e6 d2bd 3eb4 d83e
00000110: b74a bd3e 79a7 da3d 9e49 463d e0fe 213e
00000120: fe1c a73e 97c4 753e c186 2cbd 6c3a de3e
00000130: e82b 423f 6aaf cd3e 40ad f03e 849b 513d
00000140: da68 ec3d 5440 073f 5d41 f43e 7977 223f
00000150: 33fe be3e 73d1 23bc c5e7 0bbc 9934 b13d
00000160: 9fee c13e 409a a13e a50c babe 3817 e2be
00000170: c884 0cbf 3682 70bd 8f4d 8a3e 252b 86be
00000180: d3ae b8be a1a1 1cbf 627d 00bf 7543 a5be
00000190: 0c0f 08be 133e 44bd 37c9 acbd 7f1d 13bd
000001a0: 5a5b 62be 503c 9dbe 6eac c1be 9a52 f8bd
000001b0: 82db fa3c 3481 e93d 17a5 82be e84b 96be
000001c0: 3d87 31be 2356 233e 3d70 833e bd93 3ebe
000001d0: 9cb7 a6be a606 d0be eba4 1dbc c157 a33e
000001e0: f0e2 6b3e 962c 33bc 3fa6 d7be 084a 49be
000001f0: 9a65 313d fab1 44bd e99d b9bc 8113 78be
00000200: d9b0 5bbe 1213 95be 4c6f 6bbe a559 77bd
00000210: 396d 07be 4c81 2f3d 3f5f 03be 4bd2 2b3e
00000220: 628d ca3c 076c d4bd 6280 853e 2f94 9d3e
00000230: 4b23 813e 4b8c 5a3d 1a92 57be d11f 5b3e
00000240: 38a0 c83e d2ed 0a3f bcfc 783e 7694 00be
00000250: 6c91 3fbd 84e9 02be 6b29 85bd eb53 57bc
00000260: 3a25 4b3d f41b 71b9 fe5c 7bbc 16df 733d
00000270: d37c 9d3d 36f7 e6bd 22fa 823b 1412 bdbc
00000280: 4bcc 86bb ad75 8fbd 64b8 d4bd 8a37 c9bd
00000290: 3854 d3bd 2961 49bd 8719 65be 0d66 97be
000002a0: d246 85be 8fba d8bd f3ed f1bd dceb 55be
000002b0: b43a 3dbe f163 39be 57eb 0cbe 2059 f7bd
000002c0: 37f6 28be 2c4e 56be 3d7b 6a3c ea36 8dbd
000002d0: 4bc4 03be f878 5f3c de77 273e 36a4 243e
000002e0: ebab 333d 3626 023d 0493 ab3b dd59 ee3d
000002f0: c9ce 0c3e 171d 883d 7eb1 cbbd bfe5 9f3c
00000300: 624b 383d 758f b93d 2033 163d 7dd5 8abe
00000310: c35a 5e3d eeca a83c 72be 243d c065 0ebe
00000320: 5937 60bd 8950 35be 45ae 8b3d 6e7f 6c3b
00000330: 30ce de3d b4c2 e63c a2ae 903e 5f5f a83e
00000340: 427e aa3e 71aa 3a3e b28a a03d 9760 a53e
00000350: 399f 653e 0113 a93e e58f 2b3e 0dd0 e93d
00000360: ece0 a13e 34ea c63e c90a 753e 5a1e 323e
00000370: 96bd 2b3d 1f6c 6f3e 45c7 0d3e 72e8 6d3e
00000380: d7ee c93c 1f9b e53b c554 9b3b fb27 0dbe
00000390: 021a 5ebe 0df7 a73c 44b9 b43e f79c ae3e
000003a0: b7e5 f4bd 605f ddbe efa0 69be 3526 3f3e
000003b0: d357 c43e 2f66 e63c b984 71be e098 8fbe
000003c0: dfc4 f63d 82e7 993d e1a2 953d fb20 d2bd
000003d0: c02d 12bd db8d f6bd 0626 bd3c 6b86 c33c
000003e0: c5b4 203d 5054 cdbc 0829 023e b85c 283b
000003f0: 7c30 a63b 900d d3bd 1042 403e 4dcd 7d3e

conv1.bias f4 [6]
0.096791595 -0.11647186 0.77097595 -0.0318067 0.27125165 0.027711138
00000000: ac3a c63d cc88 eebd ae5e 453f be47 02bd
00000010: 7fe1 8a3e 7802 e33c

conv2.weight f4 [16, 6, 5, 5]
0.09775837 0.18323924 -0.013741224 -0.22922593 -0.055274133 -0.007309035 -0.069662005 -0.13636589
0.1427629 0.26235318 -0.009403481 -0.07133869 0.09569967 0.15942505 0.08638446 -0.026499279
0.04588724 0.07225023 0.107427455 0.11478672 0.023581 0.30745932 0.2483556 0.19036081
0.04718104 -0.08008817 -0.09818538 0.097480595 0.206515 0.09362433 -0.08203439 -0.020725703
-0.013684511 0.03811542 0.0021172124 -0.037963316 -0.0977685 -0.049919873 -0.050909705 -0.09684743
-0.073375836 -0.019841587 0.0042015263 -0.053681813 -0.014093394 -0.060696635 -0.064343706 -0.067600675
-0.0637817 -0.06773025 -0.03419593 -0.11589518 -0.103407025 -0.11865249 -0.2997365 -0.01264826
0.047639783 -0.18337591 -0.1670134 -0.20964526 0.06593859 0.041103896 -0.14580666 -0.14132135
0.00620478 0.05060362 -0.07513935 -0.12510613 -0.059882127 0.059428714 -0.00788499 -0.04451358
0.035194185 0.062155783 0.20832506 -0.07866837 -0.1602634 0.14534527 0.16588938 0.17363411
-0.07853485 0.23788066 0.15325285 0.022432122 -0.01690626 0.17152618 0.1874177 -0.04881599
-0.12755197 0.06630888 0.11682405 0.05662049 -0.10864736 -0.14780992 0.029589865 0.060242295
-0.1655117 -0.07391759 -0.02437871 0.024494618 -0.012072052 0.109044135 -0.09750448 -0.1957339
-0.05818896 -0.072532386 0.06778282 -0.024819769 0.24764974 0.3466602 0.05806517 -0.07525686
0.16518867 -0.030282762 -0.064768516 -0.15278558 -0.012932937 -0.20990202 -0.054393426 0.10497903
-0.07398215 -0.13555193 -0.033430114 -0.065139174 -0.1311327 -0.21096994 -0.18240546 0.096931845
0.23393771 0.0366554 -0.11702905 0.2185807 0.41633815 0.04229766 0.003095596 0.01952794
-0.017300474 -0.27450365 -0.11307788 0.037911046 -0.118716344 -0.24611431 -0.101523325 -0.035618857
0.057552934 0.026943335 -0.073258 -0.17296736 -0.096125945 0.15231685 -0.12791695 0.02384375
-0.094078586 -0.017920269 0.16332589 -0.09389209 -0.04002177 -0.10337968 -0.062184233 0.08767454
0.13454533 0.06929625 -0.054083433 -0.101722844 -0.0032870348 0.04281026 0.0024920667 -0.08012824
-0.094291285 0.056614853 0.1213428 0.028831882 -0.02789703 0.14756256 0.1641386 -0.033343595
0.053310897 0.06149869 0.1005994 0.05819531 -0.1096621 0.04814197 0.04115146 0.08235908
-0.044125736 -0.022642395 -0.026512746 0.009628764 0.018304957 0.07815898 -0.08561175 -0.059349988
-0.039558914 -0.08045072 0.018304477 -0.113944955 -0.028057687 -0.25996006 -0.06935154 -0.008443197
-0.009775402 -0.021722598 0.010400222 -0.19815148 -0.08632369 0.0002770712 0.15268935 0.06904422
-0.14301433 -0.13178468 -0.060438395 0.008308717 0.05190159 0.0012662067 -0.023544531 -0.08247965
0.119779885 0.026890974 0.069777384 -0.032253046 -0.116176836 0.044621535 -0.007919048 0.022379812
-0.083661675 -0.012653428 0.24591663 0.23517628 0.18910156 0.091530494 -0.11736497 -0.07078046
0.22745696 0.2904438 0.30598632 -0.15638363 -0.13674419 0.01583875 0.26790047 0.28959873
-0.13988897 -0.038824055 -0.0014823106 0.19562413 0.52378106 -0.13755542 -0.11523217 0.0021903191
0.12837364 0.44881314 -0.14956746 -0.1262765 -0.13168748 -0.16162357 -0.05236262 0.03684473
00000000: 8a35 c83d 11a3 3b3e df22 61bc 34ba 6abe
00000010: 2167 62bd a180 efbb f4aa 8ebd 80a3 0bbe
00000020: 7030 123e 2853 863e 0f11 1abc 051a 92bd
00000030: 30fe c33d 5240 233e 56ea b03d 0415 d9bc
00000040: 42f4 3b3d eef7 933d ed02 dc3d 4d15 eb3d
00000050: f12c c13c 4f6b 9d3e ee50 7e3e f2ed 423e
00000060: e840 413d 4405 a4bd 6b15 c9bd e8a3 c73d
00000070: ab78 533e 1dbe bf3d a501 a8bd f3c8 a9bc
00000080: 0035 60bc ea1e 1c3d eec0 0a3b 6c7f 1bbd
00000090: da3a c8bd c878 4cbd b286 50bd f257 c6bd
000000a0: 1246 96bd d38a a2bc f5ac 893b 76e1 5bbd
000000b0: fbe7 66bc 099d 78bd a2c6 83bd 3972 8abd
000000c0: fb9f 82bd 28b6 8abd 0811 0cbd 745a edbd
000000d0: 10c7 d3bd 1400 f3bd 1077 99be a63a 4fbc
000000e0: ef21 433d e5c6 3bbe 9005 2bbe 3fad 56be
000000f0: d00a 873d 8f5c 283d 574e 15be 8bb6 10be
00000100: 7851 cb3b be45 4f3d a9e2 99bd d21b 00be
00000110: f646 75bd 866b 733d 0c30 01bc df53 36bd
00000120: c727 103d 1097 7e3d 2a53 553e e21c a1bd
00000130: 171c 24be 64d5 143e e8de 293e 24cd 313e
00000140: e1d6 a0bd fd96 733e 51ee 1c3e 92c3 b73c
00000150: ff7e 8abc 8fa4 2f3e 6dea 3f3e 47f3 47bd
00000160: fc9c 02be f3cc 873d 7341 ef3d e3ea 673d
00000170: 8282 debd 7c5b 17be 7266 f23c a0c0 763d
00000180: e67b 29be 1b62 97bd dcb5 c7bc f0a8 c83c
00000190: dbc9 45bc 8852 df3d 6eb0 c7bd 786e 48be
000001a0: 8c57 6ebd dc8b 94bd b8d1 8a3d d452 cbbc
000001b0: e597 7d3e 727d b13e bed5 6d3d 4520 9abd
000001c0: 3827 293e 8e13 f8bc 5ba5 84bd d373 1cbe
000001d0: abe4 53bc 8ef0 56be a4cb 5ebd 3fff d63d
000001e0: f483 97bd 20ce 0abe 04ee 08bd b067 85bd
000001f0: a747 06be 8108 58be 7fc8 3abe 3484 c63d
00000200: 5e8d 6f3e f923 163d edac efbd 9ed3 5f3e
00000210: 462a d53e 5040 2d3d 7cdf 4a3b 0ff9 9f3c
00000220: b9b9 8dbc be8b 8cbe 6095 e7bd 9d48 1b3d
00000230: 8e21 f3bd 6405 7cbe 76eb cfbd 14e5 11bd
00000240: a0bc 6b3d 45b8 dc3c 4a08 96bd 5b1e 31be
00000250: aedd c4bd f3f8 1b3e a9fc 02be f853 c33c
00000260: 46ac c0bd 87cd 92bc e73e 273e 7f4a c0bd
00000270: deed 23bd bab8 d3bd e5b4 7ebd b68e b33d
00000280: 40c6 093e 31eb 8d3d 9786 5dbd 1154 d0bd
00000290: 4b6b 57bb d059 2f3d f151 233b 461a a4bd
000002a0: ca1b c1bd fae4 673d 9382 f83d d730 ec3c
000002b0: 5088 e4bc a41a 173e f313 283e 4b93 08bd
000002c0: 875c 5a3d 0de6 7b3d 0f07 ce3d 355e 6e3d
000002d0: 8696 e0bd 8430 453d 6f8e 283d e1ab a83d
000002e0: 30bd 34bd 8b7c b9bc 4231 d9bc f7c1 1d3c
000002f0: 47f4 953c d111 a03d 3755 afbd f918 73bd
00000300: 8708 22bd 59c3 a4bd 45f3 953c f95b e9bd
00000310: 3cd9 e5bc 7c19 85be 2e08 8ebd 5655 0abc
00000320: 0229 20bc 97f3 b1bc b165 2a3c 39e8 4abe
00000330: 7aca b0bd de43 9139 995a 1c3e 0e67 8d3d
00000340: 5972 12be 90f2 06be 408e 77bd 4921 083c
00000350: c396 543d d9f6 a53a 76e0 c0bc 17eb a8bd
00000360: 284f f53d 764a dc3c 72e7 8e3d c51b 04bd
00000370: 1fee edbd 12c5 363d e5be 01bc de55 b73c
00000380: d056 abbd 5350 4fbc 92d1 7b3e 0dd2 703e
00000390: d7a3 413e 5774 bb3d 0c5d f0bd 59f5 90bd
000003a0: 7aea 683e 0db5 943e 3daa 9c3e 0823 20be
000003b0: ab06 0cbe 44c0 813c 402a 893e 4946 943e
000003c0: 0e3f 0fbe f905 1fbd 174a c2ba b151 483e
000003d0: 8416 063f 54db 0cbe d8fe ebbd 758b 0f3b
000003e0: 6174 033e d6ca e53e 3628 19be a04e 01be
000003f0: 15d9 06be a680 25be 307a 56bd 80ea 163d

conv2.bias f4 [16]
0.164781 0.70455515 -0.60669774 -0.2842 -0.558507 0.047782473 -0.34188902 -0.007317856
0.7507036 -0.20729056 -0.44990596 0.10918346 0.57891643 -1.0899683 -0.2387354 0.20683679
00000000: 5abc 283e ba5d 343f 8b50 1bbf aa82 91be
00000010: 51fa 0ebf 8eb7 433d 140c afbe a0ca efbb
00000020: 1c2e 403f fa43 54be 135a e6be 949b df3d
00000030: de33 143f 1584 8bbf 0d77 74be 06cd 533e

fc1.weight f4 [120, 400]
0.0012609006 0.0039950847 0.0281581 -0.049921 0.0008857532 -0.04768775 0.11541199 -0.036778294
-0.0074810884 -0.018359812 0.06473091 0.010878711 -0.09177846 0.017933184 -0.012861702 0.0140396375
0.037544947 0.015190598 0.123709254 -0.010774329 -0.0031162307 0.10536369 -0.06251244 -0.048425183
-0.00058117637 0.110948846 -0.039768033 0.055664174 0.049403805 -0.068098426 0.0012335463 -0.03761063
-0.020980695 0.030610854 0.025987813 0.020319674 0.012973738 -0.011302904 -0.088022746 0.047800608
-0.0092572635 -0.09879288 -0.07700812 0.010074043 0.08677482 -0.09710449 -0.021083377 0.032749698
0.057548128 0.10547137 0.04953229 0.0244533 -0.06814437 -0.12803473 -0.22123522 0.014197211
0.1575463 0.111908026 -0.08377868 -0.093469016 0.1017166 0.089045994 0.08648384 -0.035227608
-0.124484874 0.033653118 0.015972218 0.02091773 -0.07273852 -0.037646905 0.019270767 -0.061415438
-0.05114168 -0.07042388 -0.123194955 -0.17951196 -0.23098421 -0.1705616 -0.0496463 0.068297125
-0.0019902484 0.018829074 0.058637302 0.030029606 0.09867598 -1.658934e-05 0.03210315 0.039208226
-0.013257938 -0.025417063 0.000739401 0.011031858 -0.030609226 -0.11142032 0.048149396 -0.05035474
-0.07539377 0.065035775 -0.08389865 0.003544475 0.14628778 -0.069601044 0.063835576 -0.006447181
0.002127854 0.019177603 -0.0027355535 0.0764066 0.04284237 -0.0040082606 0.040118564 0.01766714
0.039044436 0.006356507 0.06648658 -0.047085565 -0.0016667743 0.078881994 -0.07194552 0.0685158
-0.025420042 -0.083642915 0.028150827 -0.028341478 0.070822924 0.0010024572 -0.06115015 -0.07679527
-0.01745149 0.09770587 -0.047670152 -0.046741698 -0.023421649 -0.06482289 -0.015811855 -0.14734077
-0.05041045 -0.018145457 0.012731011 0.027223244 0.06424478 -0.12455977 0.017662367 0.059752077
0.11982037 -0.040327974 -0.056499675 -0.06921602 0.110801086 0.02968667 0.03471327 0.043855518
0.07097317 0.024752937 0.0602288 -0.007317047 -0.018580437 -0.021415155 0.0013888251 -0.020094985
-0.046799235 -0.102605864 0.040631693 0.08013056 -0.030931419 -0.0019784877 -0.104628675 0.082544215
0.11775938 0.024236688 0.11282998 0.10897889 0.01344048 0.04932593 -0.024727086 -0.025606804
-0.0056585222 -0.02082842 -0.030373843 0.13322118 0.037175108 0.09852729 0.025559546 -0.04118035
-0.13257809 0.047454696 0.023831319 0.0012837971 -0.050256338 -0.16248344 0.07861858 0.032115035
-0.027508182 -0.09516263 -0.08774026 -0.058016833 -0.1618958 0.07242076 0.03745037 0.1357575
0.07677105 -0.0067157717 0.041957773 0.07374257 0.05536098 0.040712707 -0.013479119 0.03637633
0.06119083 -0.015585717 -0.1529076 -0.048651505 0.032864265 0.0368455 0.08073368 -0.10030804
-0.042244285 -0.042232543 0.013529457 0.048605718 0.011002541 0.0013747504 -0.02325506 -0.018497799
0.067086175 -0.07015748 0.015632922 -0.047737077 0.041090403 0.052524265 -0.01037701 0.015931772
-0.008329321 -0.1089417 0.03054063 0.11708624 0.0663044 0.015249827 0.036505684 0.027256094
-0.047090866 -0.038111962 0.09169243 0.071018435 0.061026737 -0.013696362 -0.07380376 0.06924431
-0.036991324 0.022661358 0.07212427 -0.02543865 -0.077228196 -0.085145906 -0.07519691 -0.01421074
00000000: ce44 a53a 33e9 823b d1ab e63c f679 4cbd
00000010: e431 683a 3b54 43bd 1f5d ec3d d6a4 16bd
00000020: eb23 f5bb 5167 96bc a491 843d 9f3c 323c
00000030: 58f6 bbbd 9de8 923c e3b9 52bc 8206 663c
00000040: bbc8 193d fce1 783c 475b fd3d d086 30bc
00000050: ad39 4cbb ebc8 d73d 8606 80bd 7c59 46bd
00000060: 165a 18ba 2639 e33d cee3 22bd 1e00 643d
00000070: a55b 4a3d 3077 8bbd f2ae a13a 9b0d 1abd
00000080: b5df abbc 9dc3 fa3c 65e4 d43c 7275 a63c
00000090: cd8f 543c d12f 39bc 4545 b4bd 92ca 433d
000000a0: c7ab 17bc ec53 cabd 6fb6 9dbd 990d 253c
000000b0: ffb6 b13d b8de c6bd 0cb7 acbc 8c24 063d
000000c0: 96b7 6b3d 6001 d83d 5fe2 4a3d 4952 c83c
000000d0: 478f 8bbd 891b 03be 7c8b 62be 6b9b 683c
000000e0: d153 213e 0930 e53d 2894 abbd af6c bfbd
000000f0: cb50 d03d bf5d b63d 711e b13d d34a 10bd
00000100: edf1 febd dad7 093d 2bd8 823c a95b ab3c
00000110: eff7 94bd a433 1abd badd 9d3c c18e 7bbd
00000120: f079 51bd 653a 90bd a34d fcbd fcd1 37be
00000130: 2087 6cbe b3a7 2ebe eb59 4bbd 5ddf 8b3d
00000140: d46e 02bb 6e3f 9a3c ab2d 703d a600 f63c
00000150: a216 ca3d 5629 8bb7 987e 033d ce98 203d
00000160: d337 59bc 7237 d0bc 5cd4 413a f7be 343c
00000170: 33c0 fabc 5630 e4bd 4d38 453d c640 4ebd
00000180: 0d68 9abd 7a31 853d 0ed3 abbd 6c4a 683b
00000190: 77cc 153e fe8a 8ebd 3abc 823d e042 d3bb
000001a0: 7773 0b3b 591a 9d3c f946 33bb 107b 9c3d
000001b0: 7b7b 2f3d ba57 83bb 5d53 243d aeba 903c
000001c0: 0fed 1f3d 3f4a d03b 1e2a 883d cbdc 40bd
000001d0: aa77 daba e28c a13d 2c58 93bd 0352 8c3d
000001e0: b13d d0bc fa4c abbd 909c e63c 632c e8bc
000001f0: 9c0b 913d e264 833a 9478 7abd d746 9dbd
00000200: 6df6 8ebc 041a c83d c741 43bd 3974 3fbd
00000210: c2de bfbc ddc1 84bd dd87 81bc 80e0 16be
00000220: 307b 4ebd c8a5 94bc bb95 503c 4803 df3c
00000230: c492 833d 3119 ffbd abb0 903c 98be 743d
00000240: 6264 f53d f22e 25bd 346c 67bd 21c1 8dbd
00000250: aeeb e23d 7631 f33c 802f 0e3d d8a1 333d
00000260: 625a 913d acc6 ca3c 79b2 763d d7c3 efbb
00000270: 0036 98bc d66e afbc 3d09 b63a 3d9e a4bc
00000280: 8eb0 3fbd 0623 d2bd 6b6d 263d 7e1b a43d
00000290: e363 fdbc 84a9 01bb 8f47 d6bd f10c a93d
000002a0: d42b f13d 058c c63c 6813 e73d 5330 df3d
000002b0: 7635 5c3c fd09 4a3d 7590 cabc 5cc5 d1bc
000002c0: 206b b9bb 5da0 aabc 91d2 f8bc 226b 083e
000002d0: ed44 183d adc8 c93d 4162 d13c baac 28bd
000002e0: 8dc2 07be db5f 423d e639 c33c 1545 a83a
000002f0: 97d9 4dbd 0f62 26be c702 a13d 0e8b 033d
00000300: d758 e1bc a0e4 c2bd 2ab1 b3bd 0fa3 6dbd
00000310: 03c8 25be 5651 943d 8f65 193d 0404 0b3e
00000320: 243a 9d3d fa0f dcbb eadb 2b3d 5806 973d
00000330: 32c2 623d 5ec2 263d 86d7 5cbc 59ff 143d
00000340: 3ca3 7a3d 3c5b 7fbc cf93 1cbe cd46 47bd
00000350: ae9c 063d 4feb 163d b357 a53d 4d6e cdbd
00000360: 5808 2dbd 08fc 2cbd a8aa 5d3c ca16 473d
00000370: 0044 343c f830 b43a 6581 bebc b288 97bc
00000380: 7a64 893d baae 8fbd 9d10 803c f487 43bd
00000390: 694e 283d af23 573d 5604 2abc 5983 823c
000003a0: b477 08bc d31c dfbd 5830 fa3c e9ca ef3d
000003b0: 9aca 873d 69da 793c fc86 153d 2c48 df3c
000003c0: 5ae2 40bd 4a1b 1cbd 3ec9 bb3d 1d72 913d
000003d0: 2cf7 793d b566 60bc 6d26 97bd f6cf 8d3d
000003e0: 3784 17bd 50a4 b93c e4b5 933d b764 d0bc
000003f0: d129 9ebd fa60 aebd d600 9abd 2ad4 68bc

fc1.bias f4 [120]
0.10698731 0.050209638 0.08071187 0.069628514 -0.018164195 -0.046329744 0.0030898785 -0.041917935
0.053531315 0.024292221 0.006120823 0.018295875 -0.12764117 0.014429765 0.0032319473 -0.051759973
-0.050600834 -0.048312385 0.07800183 -0.0158415 -0.03843731 0.009664618 0.03771966 0.049256556
0.050517626 0.02822982 0.024152825 -0.035111442 -0.011841332 0.019140497 -0.08730756 0.040831055
-0.11158712 0.17142895 0.056028485 0.06322262 -0.08562667 0.08402813 -0.04852862 0.024420913
0.03909176 -0.035211463 -0.05979131 0.016493507 -0.01679188 0.20551671 0.04165872 0.046531245
0.17848863 -0.03122261 -0.046172276 0.06376335 -0.0072137835 -0.087843396 0.09661798 -0.02651223
0.12673448 -0.0005888015 0.14857744 -0.025006084 0.047690112 -0.0038539297 -0.010193513 -0.18122098
0.1386462 -0.055047333 -0.03628309 0.019195229 -0.015883377 0.0837291 0.06405324 -0.0144948885
0.01900958 -0.0025026517 -0.0015178142 0.018854484 -0.12970135 0.11765418 0.015295216 0.15901314
-0.08274934 0.09849763 0.07666916 -0.010482109 0.15027581 0.1284451 0.017452942 0.09515986
0.040637687 0.0009028323 -0.060375385 -0.062107768 -0.02832429 0.14377701 -0.061585195 0.11239054
-0.10841667 -0.12452437 0.06565514 0.02633605 -0.08774398 0.15389271 -0.010275335 -0.070929915
0.04086964 -0.1957805 0.19243947 0.04382679 0.07864446 -0.0008681237 0.00039604434 0.19557513
0.04950135 0.15055934 0.021338126 0.16807175 0.10442968 -0.008920667 -0.024487497 -0.046030004
00000000: 2a1c db3d 9fa8 4d3d 444c a53d 6599 8e3d
00000010: 14cd 94bc 42c4 3dbd 8f7f 4a3b 24b2 2bbd
00000020: a743 5b3d 7b00 c73c 2f91 c83b 3be1 953c
00000030: 5eb4 02be d26a 6c3c 14cf 533b 4402 54bd
00000040: d242 4fbd 35e3 45bd 6cbf 9f3d 09c6 81bc
00000050: 7170 1dbd 5958 1e3c ee7f 1a3d 3ec1 493d
00000060: 92eb 4e3d 3942 e73c 25dc c53c 04d1 0fbd
00000070: 2502 42bc 88cc 9c3c 4ece b2bd 773e 273d
00000080: ca87 e4bd 128b 2f3e 207e 653d dc7a 813d
00000090: 095d afbd f116 ac3d f2c5 46bd 5e0e c83c
000000a0: ae1e 203d e539 10bd bce7 74bd 641d 873c
000000b0: 208f 89bc f972 523e 55a2 2a3d 8c97 3e3d
000000c0: b9c5 363e 8fc6 ffbc 241f 3dbd 5c96 823d
000000d0: 9a61 ecbb 3de7 b3bd a6df c53d 2d30 d9bc
000000e0: afc6 013e cd59 1aba af24 183e 8fd9 ccbc
000000f0: b556 433d 3692 7cbb b102 27bc fe91 39be
00000100: 45f9 0d3e 5079 61bd 949d 14bd 503f 9d3c
00000110: db1d 82bc 2a7a ab3d 582e 833d f87b 6dbc
00000120: fbb9 9b3c 8703 24bb 65f1 c6ba b874 9a3c
00000130: 6ed0 04be adf4 f03d c998 7a3c 57d4 223e
00000140: 7c78 a9bd 20b9 c93d b804 9d3d 27bd 2bbc
00000150: e7e1 193e 1d87 033e 79f9 8e3c 2ce3 c23d
00000160: b473 263d 0dac 6c3a 2e4c 77bd b764 7ebd
00000170: 5708 e8bc 483a 133e c240 7cbd 032d e63d
00000180: 8f09 debd a206 ffbd 3476 863d b3be d73c
00000190: 1eb3 b3bd 0d96 1d3e e159 28bc b443 91bd
000001a0: ec66 273d af7a 48be da0e 453e b883 333d
000001b0: 5910 a13d cc92 63ba 2ca4 cf39 d944 483e
000001c0: edc1 4a3d 3a2c 1a3e 4bcd ae3c 001b 2c3e
000001d0: 3adf d53d fd27 12bc 019a c8bc f589 3cbd

fc2.weight f4 [84, 120]
-0.09381221 0.02499056 -0.0006103225 0.019997267 0.061932407 -0.13970111 -0.109128326 0.10451525
-0.02943523 0.09294092 -0.05173969 0.07460973 -0.047128342 -0.039802354 0.028316984 -0.028158845
0.052844502 0.025235066 0.025969824 -0.05815324 -0.051614083 -0.007911506 0.03603973 0.0833971
0.10198723 -0.02242073 0.022595799 -0.019039823 0.045929387 -0.19410019 0.12602533 0.12506276
-0.011753962 0.03210499 0.13368148 -0.05719406 2.879092e-05 0.06801107 -0.11066683 -0.04129423
-0.055416178 0.0039944635 0.13085972 -0.075018704 0.012007026 0.06556655 -0.011343176 0.048539087
0.03552093 0.012769848 0.119965024 -0.08538345 0.05163801 -0.10383107 -0.101676546 -0.032282732
-0.04150817 -0.07399582 -0.033003595 -0.06453994 -0.10692931 -0.033446167 0.093000956 -0.06569894
-0.010063575 -0.12929824 -0.09121624 0.040054385 -0.004635433 0.0072174184 0.00052328856 -0.05623923
0.04663579 -0.09345548 0.067669734 -0.016769048 -0.15500249 -0.012813911 0.122280225 0.09070631
0.060055066 0.066647686 0.025240036 -0.03377668 0.11453337 -0.058344282 0.11025688 -0.0633053
0.067304395 0.0957474 -0.026007328 -0.040471837 0.0033690054 0.064252004 -0.10996295 0.10752338
0.017103778 0.022569926 0.17971282 0.008173141 -0.008013839 0.0065900786 -0.004601523 0.0025347348
0.15582862 -0.007456125 0.021594636 0.05487328 0.06830245 0.088606246 -0.110138215 0.1012792
0.22058696 -0.07606091 0.09527766 -0.0014478841 0.046890885 0.06798487 0.14431998 -0.11191335
-0.016399149 0.034287687 0.03859124 0.039257467 -0.26861697 -0.032975305 -0.12708919 0.044717796
0.15417422 -0.07321641 0.0499371 0.09109067 0.116891444 0.1584019 0.16898906 0.017459532
0.02906308 0.05610461 0.016472628 -0.051739376 -0.19149728 0.19759727 0.03687901 -0.06059422
-0.11244977 0.048684202 0.025642935 -0.086583026 -0.033455536 -0.035763696 -0.21911842 0.04458183
0.064211525 0.059167024 -0.2195339 -0.03322751 -0.138312 -0.11803024 -0.041470654 -0.00261843
0.06514703 0.13352248 -0.023252659 -0.09036559 0.21750261 0.07941353 0.020900179 0.07108029
0.040446576 -0.20351917 -0.08049392 0.06417123 -0.0029606968 0.0691821 -0.040380705 0.06633692
-0.019982282 -0.122697316 -0.023859179 0.06224937 0.2670074 -0.030543964 -0.034952283 -0.25559145
-0.093887545 0.01298673 -0.11741031 0.00413117 -0.12782477 -0.12983367 0.023576988 -0.08834342
-0.060751986 -0.023849368 0.025008943 0.08486095 -0.07110888 0.048194017 -0.018422583 0.090118244
0.113108814 0.15257247 -0.04957912 -0.025159813 0.120259576 0.058998406 -0.12762363 0.09686834
0.010316516 0.06359441 -0.11330927 -0.016032143 -0.027623612 -0.036948923 0.07589462 -0.07197304
0.04930394 -0.18421938 0.00977024 -0.057020806 -0.027822932 0.10476503 0.063929625 -0.07597512
-0.1276887 -0.10769347 0.10644895 0.1392154 -0.2208358 0.052816194 -0.026500283 0.04719424
-0.22112785 -0.063618354 0.09503182 0.08955234 0.04251632 -0.002079058 -0.17764315 0.15259449
-0.115608156 -0.03715941 -0.13386935 -0.060054015 0.050126094 -0.043042086 -0.065665916 0.005235191
-0.12233793 -0.23773062 -0.11673783 0.021730283 -0.012085228 -0.07188861 0.05389383 0.11123666
00000000: 9e20 c0bd 01b9 cc3c 0dfe 1fba 4fd1 a33c
00000010: d6ac 7d3d cf0d 0fbe ac7e dfbd 170c d63d
00000020: 2722 f1bc cf57 be3d ffec 53bd fccc 983d
00000030: a609 41bd cb07 23bd 05f9 e73c 61ad e6bc
00000040: 7a73 583d c5b9 ce3c abbe d43c 1732 6ebd
00000050: 4a69 53bd 439f 01bc 659e 133d 19cc aa3d
00000060: aede d03d aeab b7bc d31a b93c 67f9 9bbc
00000070: 7420 3c3d 33c2 46be c90c 013e 7410 003e
00000080: b193 40bc 8680 033d cce3 083e 5244 6abd
00000090: 0884 f137 6349 8b3d 4aa5 e2bd 2324 29bd
000000a0: 13fc 62bd fde3 823b 1700 063e 68a3 99bd
000000b0: 1eb9 443c c147 863d bad8 39bc ecd0 463d
000000c0: 657e 113d a038 513c 39b0 f53d 85dd aebd
000000d0: 6182 533d 62a5 d4bd cb3b d0bd e63a 04bd
000000e0: 7904 2abd 1f8b 97bd c72e 07bd 842d 84bd
000000f0: c1fd dabd d9fe 08bd 4977 be3d 2a8d 86bd
00000100: b1e1 24bc c266 04be 94cf babd 1110 243d
00000110: d5e4 97bb 1880 ec3b 4d2d 093a 1b5b 66bd
00000120: 2c05 3f3d 9665 bfbd 6e96 8a3d 3e5f 89bc
00000130: f9b8 1ebe 70f1 51bc 0e6e fa3d 3bc4 b93d
00000140: 4dfc 753d 957e 883d 31c4 ce3c 6a59 0abd
00000150: 7990 ea3d 6afa 6ebd 5cce e13d 36a6 81bd
00000160: e3d6 893d 3617 c43d 520d d5bc ccc5 25bd
00000170: 88ca 5c3b 8e96 833d 4134 e1bd 3835 dc3d
00000180: 391d 8c3c 91e4 b83c a306 383e a3e8 053c
00000190: 7a4c 03bc 96f1 d73b 5fc8 96bb cb1d 263b
000001a0: 8a91 1f3e 8352 f4bb 3ce7 b03c cec2 603d
000001b0: 28e2 8b3d 3177 b53d 2590 e1bd 786b cf3d
000001c0: 8ce1 613e d3c5 9bbd ef20 c33d eec6 bdba
000001d0: a810 403d a73b 8b3d 9ec8 133e d432 e5bd
000001e0: 8257 86bc 3f71 0c3d d911 1e3d 70cc 203d
000001f0: 2a88 89be 1d11 07bd ab23 02be 022a 373d
00000200: d9df 1d3e 7cf2 95bd d88a 4c3d bf8d ba3d
00000210: c864 ef3d 1c34 223e 780b 2d3e 4b07 8f3c
00000220: b215 ee3c f3cd 653d 9bf1 863c abec 53bd
00000230: dd17 44be f056 4a3e 720e 173d a531 78bd
00000240: 114c e6bd 1669 473d 2211 d23c 7152 b1bd
00000250: ac08 09bd f47c 12bd 9460 60be 709b 363d
00000260: 5581 833d 1f59 723d 7fcd 60be 9219 08bd
00000270: a9a1 0dbe d7b9 f1bd 22dd 29bd f799 2bbb
00000280: ce6b 853d 1eba 083e 5c7c bebc 9811 b9bd
00000290: 01b9 5e3e 90a3 a23d da36 ab3c 8b92 913d
000002a0: 4fab 253d 5467 50be ffd9 a4bd 356c 833d
000002b0: 4008 42bb 58af 8d3d 3d66 25bd a7db 873d
000002c0: e2b1 a3bc bb48 fbbd 5374 c3bc 32f9 7e3d
000002d0: 32b5 883e 5637 fabc 202a 0fbd e2dc 82be
000002e0: 1d48 c0bd 4bc6 543c d174 f0bd c45e 873b
000002f0: 7fe4 02be 1ef3 04be 8724 c13c 65ed b4bd
00000300: 13d7 78bd c05f c3bc 8edf cc3c 94cb ad3d
00000310: 88a1 91bd 1767 453d f5ea 96bc ea8f b83d
00000320: 98a5 e73d f53b 1c3e 7a13 4bbd f41b cebc
00000330: a74a f63d 50a8 713d c5af 02be e962 c63d
00000340: 9b06 293c c93d 823d b10e e8bd d755 83bc
00000350: ea4a e2bc c157 17bd a36e 9b3d 9a66 93bd
00000360: eef2 493d 01a4 3cbe 5b13 203c a68e 69bd
00000370: ebec e3bc 0c8f d63d 89ed 823d d898 9bbd
00000380: d4c0 02be 658e dcbd e801 da3d 7b8e 0e3e
00000390: c822 62be cb55 583d 1f17 d9bc bf4e 413d
000003a0: 576f 62be 574a 82bd 0ba0 c23d 3867 b73d
000003b0: 9825 2e3d ce40 08bb 16e8 35be bb41 1c3e
000003c0: f8c3 ecbd 7734 18bd 0c15 09be 33fb 75bd
000003d0: 0551 4d3d e64c 30bd da7b 86bd f78b ab3b
000003e0: 4f8c fabd a86f 73be 3e14 efbd b503 b23c
000003f0: 1f01 46bc 563a 93bd c7bf 5c3d 0cd0 e33d

fc2.bias f4 [84]
0.21347126 0.19731899 -0.03776416 -0.01413746 0.07917167 0.13113081 -0.04934636 0.083745554
0.25480935 -0.0896788 0.22018513 -0.04883655 -0.13066724 0.004968458 -0.12514438 -0.047418766
0.08662028 -0.07438639 0.027173165 -0.013674293 -0.06411802 0.06868279 -0.07897559 0.106098376
-0.04907644 0.14994028 0.16830678 0.12930149 0.13636093 -0.022274246 -0.1254149 -0.061477017
0.07429549 -0.14018379 0.35907987 0.05956644 0.009752727 -0.06524384 -0.13895878 -0.058180545
0.299332 -0.08155028 0.009415287 0.056298416 -0.12143445 0.121096335 -0.06585422 0.1643354
-0.070990674 0.14981769 -0.09853081 0.25504032 -0.122024685 0.090968795 0.10038214 -0.12720527
-0.009414345 -0.04753714 0.07828067 0.15777108 0.046266112 -0.04723633 -0.14071615 0.11487512
0.2511914 0.08170589 -0.05065275 0.090504095 -0.059825286 0.11266344 -0.13495205 0.30994207
0.09684258 0.03899572 -0.014295429 -0.055229153 -0.020310905 -0.11117478 0.01594191 -0.014834934
0.045366168 0.016844152 -0.033505116 0.11602505
00000000: 3698 5a3e fd0d 4a3e 98ae 1abd cea0 67bc
00000010: c224 a23d 2847 063e 691f 4abd ca82 ab3d
00000020: 5f76 823e 85a9 b7bd 3678 613e d608 48bd
00000030: a2cd 05be 72ce a23b d925 00be 2e3a 42bd
00000040: f965 b13d e457 98bd 429a de3c 240a 60bc
00000050: 4f50 83bd 90a9 8c3d f4bd a1bd 1b4a d93d
00000060: 6104 49bd f289 193e 9d58 2c3e 9c67 043e
00000070: 33a2 0b3e 7b78 b6bc c36c 00be 53cf 7bbd
00000080: 3c28 983d 578c 0fbe 51d9 b73e f0fb 733d
00000090: e7c9 1f3c 909e 85bd 364b 0ebe b94e 6ebd
000000a0: 0b42 993e d503 a7bd 9342 1a3c 2b99 663d
000000b0: a0b2 f8bd 5b01 f83d 94de 86bd 8a47 283e
000000c0: 8f63 91bd cf69 193e 85ca c9bd a594 823e
000000d0: 14e8 f9bd d94d ba3d 2795 cd3d 1942 02be
000000e0: a03e 1abc 4eb6 42bd 9e51 a03d be8e 213e
000000f0: 8981 3d3d e27a 41bd e517 10be a643 eb3d
00000100: 299c 803e 6b55 a73d 4279 4fbd 365a b93d
00000110: 5c0b 75bd 17bc e63d df30 0abe bab0 9e3e
00000120: 6755 c63d fab9 1f3d 6037 6abc f737 62bd
00000130: 0e63 a6bc 9aaf e3bd 9c98 823c 390e 73bc
00000140: e0d1 393d bffc 893c a93c 09bd 8b9e ed3d

fc3.weight f4 [10, 84]
0.18687643 -0.06048897 -0.17206874 -0.019969227 -0.03986794 -0.27400714 0.4414395 0.0070252144
-0.22014433 -0.022698523 0.22074287 0.022429531 0.177601 -0.019400097 -0.45566776 0.13277729
-0.068229295 -0.0035136994 0.08034919 -0.033514038 -0.18881248 -0.07918007 -0.09971171 -0.26143596
0.13632987 -0.083780274 0.23137815 0.06444217 -0.05366041 0.16585293 -0.24387063 -0.14669085
-0.14786497 -0.15533146 -0.38310763 0.17530738 -0.28873125 0.13291165 0.09562685 0.038662985
0.43173984 0.12968008 -0.03832368 0.208054 0.1761926 0.30794647 0.09153593 -0.1331647
0.18644628 0.008900641 -0.3061104 0.015417058 -0.1430399 0.17645809 -0.10933394 0.33181292
-0.11947053 -0.16625565 -0.3241421 0.044236947 0.1864793 0.4224839 -0.066688776 -0.23885393
-0.30550328 -0.22734118 0.11276177 -0.15353669 -0.11322061 0.2350756 0.24745435 0.051596075
0.12409188 0.44257465 -0.26097566 0.0464503 0.013067453 0.07353319 0.022969592 0.06466122
-0.38396484 0.10622487 -0.14144076 0.30847237 -0.45029125 -0.20657697 -0.22391477 0.08610647
-0.0001924806 -0.16163124 -0.07684361 -0.28694412 -0.29484463 0.0113303475 0.035039805 0.15122369
0.037651233 -0.10688194 0.37854883 -0.21728155 0.08149129 0.07914706 -0.09277026 -0.018986756
0.07701245 -0.35729602 -0.13955179 -0.071701944 -0.041807454 0.15238208 -0.014728437 -0.32988197
0.14311063 0.5082124 0.2663729 -0.21296556 -0.0629782 0.30803746 -0.11070491 -0.013166695
-0.022271896 -0.101025335 0.03279287 -0.066443525 -0.3795803 -0.1435545 -0.09090026 0.0048461277
0.14179707 -0.03643314 0.1997704 -0.03418371 0.38156173 -0.3449328 0.30311552 -0.21552657
0.13541734 0.45050535 -0.004600591 0.23740068 0.07932051 0.27553186 -0.023789482 -0.07854922
0.057283472 -0.18440472 -0.19663912 -0.36538863 -0.16479668 -0.4059449 -0.10073124 0.028394802
0.26874423 -0.30945626 -0.013539718 -0.07530423 0.4546943 0.2689211 -0.1462457 0.0906035
0.0329031 0.10724621 -0.06506836 -0.037013583 0.05027849 0.3083637 0.122765735 -0.63344854
0.16009064 0.23130462 -0.09406312 0.03327129 -0.08173692 -0.13871403 0.0852507 0.015638072
-0.04317747 0.25712848 0.13667753 0.3353317 0.03314963 -0.04811072 -0.07935018 0.17984617
-0.16175756 -0.2135908 -0.39014003 -0.22490183 0.023763523 0.5009748 -0.15157358 -0.30530894
0.02722775 0.14452006 -0.09732215 -0.08784645 0.23058005 -0.00737953 -0.049302496 0.040981352
0.065917216 0.05296399 0.11793736 0.3892515 0.395025 0.10626289 -0.12456259 0.02949486
0.50898415 0.30912584 0.13334693 -0.0911447 -0.26706773 -0.014406608 -0.22975066 0.55562454
0.19985847 0.27614447 -0.063817635 -0.391848 0.07608538 0.029277869 0.22903782 -0.2922344
-0.2822854 0.14181954 -0.21453919 -0.24666905 -0.098759815 -0.08700675 0.040223088 -0.21727456
0.079644874 0.23443408 -0.059655078 -0.009527899 -0.1346229 -0.04973326 0.018871706 0.19242719
-0.04121726 0.30050483 0.24552366 -0.029259944 -0.053568743 0.036158886 0.27842948 0.13296045
0.13009487 0.21546233 -0.049597215 0.16656 0.06841809 -0.13252869 0.059272483 0.03642084
00000000: 895c 3f3e 48c3 77bd ca32 30be 8196 a3bc
00000010: 914c 23bd aa4a 8cbe 5c04 e23e c533 e63b
00000020: 846d 61be 41f2 b9bc 6b0a 623e 23be b73c
00000030: 09dd 353e f4ec 9ebc 494d e9be c5f6 073e
00000040: cdbb 8bbd 1846 66bb 1e8e a43d 0446 09bd
00000050: 0f58 41be 2929 a2bd a735 ccbd efda 85be
00000060: 0f9a 0b3e fe94 abbd 65ee 6c3e 42fa 833d
00000070: 05cb 5bbd 5ad5 293e 39b9 79be 2036 16be
00000080: ea69 17be 360f 1fbe af26 c4be c783 333e
00000090: 95d4 93be fe19 083e 03d8 c33d 145d 1e3d
000000a0: 010d dd3e dbca 043e 4bf9 1cbd 1c0c 553e
000000b0: d56b 343e 29ab 9d3e 3177 bb3d 545c 08be
000000c0: c6eb 3e3e ffd3 113c 81ba 9cbe d497 7c3c
000000d0: 0d79 12be 6eb1 343e 79ea dfbd 62e3 a93e
000000e0: f7ac f4bd ec3e 2abe f4f5 a5be cd31 353d
000000f0: 6ef4 3e3e cf4f d83e 2094 88bd 2096 74be
00000100: ed6a 9cbe 20cc 68be a5ef e63d b938 1dbe
00000110: 35e0 e7bd a8b7 703e ac64 7d3e 6856 533d
00000120: e223 fe3d 2599 e23e 9a9e 85be ab42 3e3d
00000130: df18 563c 9298 963d ba2a bc3c 1a6d 843d
00000140: 0a97 c4be 6d8c d93d d9d5 10be 17f0 9d3e
00000150: 938c e6be ea88 53be ea49 65be 9758 b03d
00000160: 9ed4 49b9 a982 25be 2f60 9dbd 57ea 92be
00000170: e0f5 96be eca2 393c e685 0f3d 62da 1a3e
00000180: 2e38 1a3d ebe4 dabd 27d1 c13e 0e7f 5ebe
00000190: e8e4 a63d db17 a23d 56fe bdbd 1d8a 9bbc
000001a0: b4b8 9d3d 81ef b6be aae6 0ebe 78d8 92bd
000001b0: 4b3e 2bbd 0c0a 1c3e 8b4f 71bc 4ae6 a8be
000001c0: 988b 123e 351a 023f 0762 883e a513 5abe
000001d0: b7fa 80bd 16b7 9d3e 41b9 e2bd 1fb9 57bc
000001e0: 8d73 b6bc 5fe6 cebd d151 063d 8b13 88bd
000001f0: 5958 c2be f3ff 12be ea29 babd 44cc 9e3b
00000200: 4033 113e eb3a 15bd 9d90 4c3e 3804 0cbd
00000210: 0f5c c33e 089b b0be f531 9b3e ffb2 5cbe
00000220: d8aa 0a3e a3a8 e63e 8ec0 96bb 2a19 733e
00000230: cb72 a23d 8312 8d3e 29e2 c2bc 6ade a0bd
00000240: 13a2 6a3d 97d4 3cbe c45b 49be 3814 bbbe
00000250: 76c0 28be 03d8 cfbe 2e4c cebd 379c e83c
00000260: d898 893e 0d71 9ebe b2d5 5dbc 1b39 9abd
00000270: b1cd e83e 07b0 893e 6fc1 15be 548e b93d
00000280: 67c5 063d e7a3 db3d 8f42 85bd 8e9b 17bd
00000290: d1f0 4d3d d9e1 9d3e 9a6c fb3d af29 22bf
000002a0: cdee 233e 1edb 6c3e 2aa4 c0bd 7a47 083d
000002b0: b065 a7bd 0d0b 0ebe eb97 ae3d 6a1b 803c
000002c0: dcda 30bd 58a6 833e 32f5 0b3e 99b0 ab3e
000002d0: e8c7 073d bf0f 45bd 5982 a2bd 9829 383e
000002e0: c6a3 25be 8cb7 5abe 6fc0 c7be aa4c 66be
000002f0: b8ab c23c e23f 003f 1b36 1bbe 7451 9cbe
00000300: bb0c df3c 11fd 133e d650 c7bd d7e8 b3bd
00000310: 2d1d 6c3e fccf f1bb 6af1 49bd 10dc 273d
00000320: 9bff 863d c5f0 583d 2589 f13d f94b c73e
00000330: b840 ca3e 5ca0 d93d ac1a ffbd 349f f13c
00000340: c94c 023f be45 9e3e 198c 083e 13aa babd
00000350: 1abd 88be b209 6cbc c243 6bbe 693d 0e3f
00000360: b3a7 4c3e cf62 8d3e d2b2 82bd 4da0 c8be
00000370: a7d2 9b3d 24d8 ef3c e488 6a3e bf9f 95be
00000380: b687 90be 2439 113e 29b0 5bbe d096 7cbe
00000390: 9642 cabd 9830 b2bd f7c0 243d 397d 5ebe
000003a0: da1c a33d 7d0f 703e e258 74bd e81a 1cbc
000003b0: 96da 09be 1ab5 4bbd d698 9a3c a20b 453e
000003c0: 6ed3 28bd c5db 993e 8e6a 7b3e 8db2 efbc
000003d0: e66a 5bbd 571b 143d 4f8e 8e3e c926 083e
000003e0: 9737 053e 28a2 5c3e 7326 4bbd b48e 2a3e
000003f0: c91e 8c3d 9ab5 07be b4c7 723d 052e 153d

fc3.bias f4 [10]
-0.04320829 -0.38987246 0.14984696 0.10771597 0.5870644 -0.12914285 -0.07817229 -0.29292062
0.2800328 -0.21536817
00000000: 2dfb 30bd 5d9d c7be 7b71 193e 319a dc3d
00000010: da49 163f 063e 04be cb18 a0bd b1f9 95be
00000020: 7660 8f3e 7989 5cbe
