Models/05-04-2023-23-29-26/model_CNN_Adam.pth (torch, 250951 bytes, 10 tensors)

conv1.weight f4 [6, 3, 5, 5]
0.44854742 0.6714139 0.44304106 0.4799408 0.37140134 0.2582551 -0.046716392 -0.0437529
0.13982883 0.20156336 0.13953094 -0.2510607 -0.023414964 0.1838669 0.25728676 0.18134022
-0.6328019 0.018836092 0.20397967 -0.005148925 0.043915603 -0.69379497 -0.07783766 -0.18094113
-0.28012824 -0.27007937 -0.6071673 -0.7815185 -0.4349223 -0.45554152 0.08454404 -0.6002581
-0.6037913 -0.0962248 -0.16226564 0.334388 -0.6903711 -0.38512322 0.24553873 0.2604804
0.4305652 -0.5512864 0.012818384 0.3170901 0.017087186 0.18747546 -0.4514342 0.0452994
0.34813684 0.09563897 -0.07179012 -0.19968764 -0.073076755 0.09731458 -0.0042660977 0.049574062
-0.21082924 0.031015584 0.1784663 0.005929872 -0.12020803 -0.46135497 0.026018351 0.31908533
0.067523256 0.10765501 -0.43762773 0.14323184 0.3513262 0.09194214 0.19792393 -0.20093875
0.17451617 0.31036285 0.091215834 -0.087148756 -0.036610864 -0.010767304 0.072995074 0.30806234
-0.18557294 0.01491234 -0.13933218 -0.17269866 -0.107316114 -0.22391306 -0.041578535 -0.1709572
0.038593803 0.09323528 0.23869634 0.04420123 -0.16137578 -0.053715367 -0.022106396 0.12479015
0.16628474 0.14183916 0.12159801 0.13639392 0.04010039 0.1957342 -0.23361737 -0.17451225
-0.28534552 -0.055533256 0.24568872 0.24351007 -0.19018652 -0.45206174 -0.11819245 0.4395785
0.24184114 -0.004466043 -0.44001824 -0.20961627 0.10663828 0.1625574 -0.20000443 -0.34571254
-0.20478481 0.08845479 0.20414856 -0.05294221 -0.17181163 0.26155347 0.571538 0.022172937
-0.10337798 -0.2281107 0.16281188 0.63966876 0.39441535 0.03529239 -0.1898643 -0.02188333
0.40915337 0.37456912 0.41379744 -0.099172935 -0.27731946 0.3395665 0.38133034 0.12821363
-0.0978099 -0.24470954 0.09149369 0.14406924 -0.15953177 -0.26141134 0.23213501 0.61448383
0.12157981 0.19966945 0.0033112855 0.32138225 0.095885605 -0.21340202 0.0059966254 0.06603328
-0.13097091 -0.35943523 -0.40389618 -0.29770344 -0.21165593 -0.38359714 -0.45959553 -0.28882605
-0.19194122 -0.07637888 -0.47776762 -0.5766212 -0.5420167 -0.38023043 -0.06982139 -0.021091716
0.3581957 -0.12473372 -0.07242811 0.0037224845 0.23951235 -0.129409 -0.16510981 -0.34940958
-0.31799275 0.079115525 0.08945148 -0.14604951 0.0031968723 -0.20630285 0.24991071 0.28846613
0.24179012 0.3376887 0.21592578 -0.2162158 0.066216774 -0.1458425 -0.0144625 -0.14244682
-0.505601 0.085498326 -0.108021885 0.20058636 0.09087127 -0.20871586 -0.153963 -0.08720713
-0.038840223 -0.08155991 -0.08800116 0.05175109 0.1946617 0.32771537 0.13909905 0.21626997
0.57305354 0.48972818 0.54957616 0.35856295 0.17322639 0.5628103 0.25900134 0.20010884
0.17060347 0.21310551 -0.039729793 -0.62530494 -0.42071304 -0.08450491 -0.3637836 -0.9926512
-0.0062989467 0.3582057 0.095183365 -0.288132 0.2305197 0.5516231 0.02761706 -0.1602573
0.28709012 0.49843577 0.26955727 0.021270964 -0.13661851 0.21541004 0.15391687 -0.22239712
0.15761039 0.20848909 0.6533262 0.21701166 -0.38084784 -0.20804481 0.123139836 -0.31524608
00000000: 02a8 e53e c8e1 2b3f 47d6 e23e cdba f53e
00000010: 5128 be3e 033a 843e b059 3fbd 3e36 33bd
00000020: 4a2f 0f3e a066 4e3e 33e1 0e3e 078b 80be
00000030: bdd0 bfbc 9b47 3c3e 17bb 833e 40b1 393e
00000040: 4eff 21bf 264e 9a3c 0ce0 503e 50b8 a8bb
00000050: d9e0 333d 8c9c 31bf 5a69 9fbd a248 39be
00000060: f86c 8fbe d847 8abe 516f 1bbf 9911 48bf
00000070: 23ae debe bd3c e9be 6d25 ad3d 84aa 19bf
00000080: 1192 1abf 8211 c5bd f728 26be e734 ab3e
00000090: 29bc 30bf df2e c5be 816e 7b3e b05d 853e
000000a0: 0b73 dc3e 1b21 0dbf 3304 523c a259 a23e
000000b0: 6dfa 8b3c 91f9 3f3e 6222 e7be dd8b 393d
000000c0: fe3e b23e 5dde c33d b306 93bd eb7a 4cbe
000000d0: 44a9 95bd de4c c73d 9fca 8bbb 2c0e 4b3d
000000e0: 9fe3 57be 6514 fe3c dfbf 363e 5f4f c23b
000000f0: a12f f6bd b836 ecbe 7024 d53c 275f a33e
00000100: a249 8a3d 3b7a dc3d be10 e0be 5eab 123e
00000110: 07e1 b33e 294c bc3d 92ac 4a3e e3c2 4dbe
00000120: 5eb4 323e e1e7 9e3e 5ecf ba3d 0c7b b2bd
00000130: 46f5 15bd 5969 30bc 717e 953d 59ba 9d3e
00000140: d506 3ebe e352 743c 18ad 0ebe ebd7 30be
00000150: 8dc8 dbbd 7749 65be 414e 2abd 670f 2fbe
00000160: 8914 1e3d 23f2 be3d d06c 743e 590c 353d
00000170: b13f 25be a504 5cbd 7918 b5bc fa91 ff3d
00000180: 8c46 2a3e 493e 113e 6108 f93d d9aa 0b3e
00000190: 4e40 243d 8c6e 483e 6439 6fbe 57b3 32be
000001a0: cf18 92be d776 63bd d395 7b3e b45a 793e
000001b0: 41c0 42be a374 e7be e20e f2bd 6f10 e13e
000001c0: 34a5 773e e257 92bb 124a e1be a6a5 56be
000001d0: 2c65 da3d 7275 263e f6cd 4cbe 3c01 b1be
000001e0: 1cb3 51be c927 b53d 520c 513e eed9 58bd
000001f0: 63ef 2fbe 56ea 853e 5050 123f 05a4 b53c
00000200: d6b7 d3bd da95 69be 28b8 263e 55c1 233f
00000210: cff0 c93e c18e 103d c96b 42be ab44 b3bc
00000220: 8d7c d13e 86c7 bf3e 42dd d33e 2e1b cbbd
00000230: d1fc 8dbe a9db ad3e bb3d c33e 6f4a 033e
00000240: 8f50 c8bd 2395 7abe 0b61 bb3d e386 133e
00000250: 4c5c 23be b5d7 85be cdb4 6d3e d04e 1d3f
00000260: d6fe f83d 2676 4c3e 2702 593b 378c a43e
00000270: ac5f c43d 0f86 5abe 577f c43b 753c 873d
00000280: 3d1d 06be e507 b8be 7bcb cebe 966c 98be
00000290: 55bc 58be d866 c4be 1b50 ebbe 02e1 93be
000002a0: 3d8c 44be 886c 9cbd f59d f4be 729d 13bf
000002b0: 9bc1 0abf 90ad c2be 84fe 8ebd 89c8 acbc
000002c0: 6d65 b73e 6574 ffbd 3055 94bd edf4 733b
000002d0: ba42 753e cb83 04be 8c12 29be d0e5 b2be
000002e0: f2cf a2be 5207 a23d 5632 b73d 018e 15be
000002f0: 9e82 513b 0e41 53be 98e8 7f3e d5b1 933e
00000300: d497 773e 89e5 ac3e a61b 5d3e ad67 5dbe
00000310: a99c 873d bc57 15be 1ff4 6cbc 94dd 11be
00000320: 116f 01bf bf19 af3d 943a ddbd 8366 4d3e
00000330: b71a ba3d 9cb9 55be 7aa8 1dbe a799 b2bd
00000340: ed16 1fbd e208 a7bd f439 b4bd f3f8 533d
00000350: 6655 473e 4fca a73e fb6f 0e3e e075 5d3e
00000360: a3b3 123f a7bd fa3e 06b1 0c3f 9095 b73e
00000370: 4262 313e 5614 103f d39b 843e 55e9 4c3e
00000380: adb2 2e3e 5538 5a3e b5bb 22bd fc13 20bf
00000390: b367 d7be e910 adbd d841 babe 641e 7ebf
000003a0: 6567 cebb bd66 b73e 7fef c23d 0a86 93be
000003b0: 5b0d 6c3e 2c37 0d3f 2c3d e23c 7d1a 24be
000003c0: 7afd 923e f932 ff3e 6903 8a3e 7240 ae3c
000003d0: b9e5 0bbe 7394 5c3e 629c 1d3e 12bc 63be
000003e0: 9e64 213e 2a7e 553e 6340 273f 4e38 5e3e
000003f0: 7dfe c2be b309 55be bd30 fc3d ef67 a1be

conv1.bias f4 [6]
-0.66583824 -0.28088742 -0.037942816 -0.3516658 -0.8710264 -0.41640192
00000000: 6074 2abf 7ad0 8fbe ed69 1bbd 8a0d b4be
00000010: 96fb 5ebf a232 d5be

conv2.weight f4 [16, 6, 5, 5]
-0.08622076 0.71415544 -0.3458844 -0.42553678 -0.064425685 0.12818658 0.20383634 0.33035195
0.053560242 0.75581133 -0.10672074 -0.19464603 0.19817325 -0.18464378 0.5366129 -0.14572366
-0.50702745 0.15310773 -0.99190545 0.21234646 -0.30564708 -0.9599425 -0.5050468 -0.9214046
-0.11458162 -0.078690305 0.14283152 0.24548827 -0.099839404 -0.16331099 -0.43228465 -0.58383197
0.14418545 0.6228972 -0.52749676 0.4146978 -0.3786799 -0.25101882 0.35078934 -0.86083496
-0.122732475 -0.53860533 0.085140474 0.1463446 -0.49901685 -0.4935574 -1.1559379 0.2740448
-0.3760948 -0.60052806 0.45818955 0.147784 0.09640722 -0.034889273 0.21505491 0.16941176
0.26572374 0.5698074 0.15029512 0.19683897 -0.42626312 -0.2060894 -0.16045864 -0.06606693
0.150556 0.023048569 -0.21033739 0.1283162 -0.097061805 -0.52894837 -0.6637312 0.29988915
0.28842163 0.37835762 -0.05508379 0.015821971 0.12417836 -0.38859054 -0.18512073 -0.04602246
-0.03906686 -0.119205505 0.17109407 0.19729589 0.22446308 0.25807917 0.024003647 0.1362055
-0.40792316 -0.42880067 -0.30284223 -0.31161016 -0.36428294 -0.10560887 -0.60670525 0.40644023
0.020837052 0.04346023 0.10304738 -0.19374771 0.0396143 0.48531273 -0.069512665 0.08496132
-0.40227568 0.24670987 -0.0889556 -0.35412085 -1.8307427 -1.8482025 -1.8579224 -0.8399945
-2.1112938 -2.0293653 -0.9049021 0.54788095 0.2340718 0.4521483 0.58904326 -0.22632843
0.0076527246 0.04531183 0.18162139 -0.15056655 -0.57255375 -0.07404915 -0.24396843 0.70506006
-0.5992482 0.3249695 -0.082354605 -0.29625988 0.45422098 -0.31874597 0.45393878 0.26593873
0.2276894 0.27092823 -0.47423348 0.5819257 0.028185487 0.26872692 0.1309458 -0.016861908
-0.04590457 -0.42790228 -0.47823027 -0.65273 -0.16796508 0.3487604 -0.06536271 -0.15910593
-0.32923725 -1.3299081 -0.56846744 -1.3211007 -0.41151533 -0.3127011 -0.0025313566 0.37643123
0.0130156195 -0.5010064 0.030433208 -0.10303823 -0.35120592 -0.024819434 -1.0759887 -1.583536
-0.45620584 -0.10477674 0.09928411 -0.6989672 -0.6324896 0.040371563 0.4780723 0.32428125
0.48105955 -0.03307087 -0.21098906 0.2054434 0.037364498 -0.4359546 -0.6864859 -0.36315534
0.013987521 0.6130845 -0.06538223 -0.2964119 -0.17522721 -0.29342687 0.080991246 0.0681978
0.3349138 0.45517543 -0.14151497 -0.21319585 0.024183258 0.44333377 0.6070834 -0.4928766
0.33414453 0.5259709 0.43737885 0.2190103 0.36697355 -0.12674432 -0.25595656 -0.21659835
-0.0008724894 0.40602556 -0.1753483 -0.06336837 -0.26184696 -0.34801003 0.14090055 -0.087741755
-0.39881518 -0.10276387 -0.05589106 0.32667983 0.2173632 0.08970635 -0.114475265 0.2718654
0.52886826 -0.6138991 -0.43926588 -0.9567556 -0.42057806 0.2280323 0.41412076 0.48272368
-0.13106883 0.035524674 0.008957741 -0.3699114 0.2528141 0.45455134 0.25322828 0.15631802
0.39630038 -0.049146436 0.24977024 0.118536204 0.39656356 -0.1715949 -0.21130796 0.1500839
0.28448 0.5363052 0.794844 0.22939597 -0.10496116 -0.27766836 0.8645675 0.2396942
00000000: 8394 b0bd e4d2 363f c317 b1be f5df d9be
00000010: 9df1 83bd 5843 033e 79ba 503e e423 a93e
00000020: fc61 5b3d da7c 413f 6790 dabd 4a51 47be
00000030: eeed 4a3e 4213 3dbe 775f 093f 9538 15be
00000040: 8dcc 01bf 46c8 1c3e 84ed 7dbf 5a71 593e
00000050: c67d 9cbe cbbe 75bf bf4a 01bf 2ce1 6bbf
00000060: c5a9 eabd 6228 a1bd 6d42 123e 4761 7b3e
00000070: 9a78 ccbd ff3a 27be 6a54 ddbe 0376 15bf
00000080: 5aa5 133e 3176 1f3f 070a 07bf 4553 d43e
00000090: 55e2 c1be 8a85 80be a99a b33e ae5f 5cbf
000000a0: 2a5b fbbd 0ae2 09bf 215e ae3d 5cdb 153e
000000b0: 237f ffbe 8eb3 fcbe c6f5 93bf 9a4f 8c3e
000000c0: 7f8f c0be 35bc 19bf d297 ea3e b054 173e
000000d0: 2671 c53d 0ee8 0ebd 5b37 5c3e 477a 2d3e
000000e0: f10c 883e e6de 113f f7e6 193e 2890 493e
000000f0: 293f dabe 1a09 53be 454f 24be 194e 87bd
00000100: 5a2b 1a3e 5ad0 bc3c af62 57be 5265 033e
00000110: 57c8 c6bd 2969 07bf 4aea 29bf 128b 993e
00000120: 00ac 933e 17b8 c13e 8a9f 61bd 149d 813c
00000130: 3951 fe3d 57f5 c6be 4a90 3dbe 0c82 3cbd
00000140: 9204 20bd 0422 f4bd 4933 2f3e ef07 4a3e
00000150: a6d9 653e f422 843e 4ca3 c43c 7479 0b3e
00000160: 4edb d0be c38b dbbe 230e 9bbe 5e8b 9fbe
00000170: 4b83 babe 7749 d8bd 0951 1bbf ef18 d03e
00000180: 77b2 aa3c 5b03 323d 810a d33d cd65 46be
00000190: 9b42 223d e97a f83e a85c 8ebd 3300 ae3d
000001a0: 14f7 cdbe 83a1 7c3e 5b2e b6bd 544f b5be
000001b0: c755 eabf e691 ecbf 67d0 edbf e109 57bf
000001c0: 701f 07c0 1fe1 01c0 aaa7 67bf ed41 0c3f
000001d0: 85b0 6f3e fb7f e73e 8acb 163f a4c2 67be
000001e0: b5c3 fa3b e698 393d f5fa 393e 1e2e 1abe
000001f0: e292 12bf 15a7 97bd dcd2 79be d17e 343f
00000200: 5468 19bf 6762 a63e 88a9 a8bd 60af 97be
00000210: a78f e83e ac32 a3be aa6a e83e 1f29 883e
00000220: 6927 693e 1bb7 8a3e bbce f2be 15f9 143f
00000230: 40e5 e63c 9396 893e a816 063e fc21 8abc
00000240: 6e06 3cbd 0216 dbbe 99da f4be 5019 27bf
00000250: 0aff 2bbe b990 b23e e2dc 85bd aaec 22be
00000260: c991 a8be 6e3a aabf 1587 11bf d419 a9bf
00000270: 23b2 d2be 5c1a a0be 1ee5 25bb 98bb c03e
00000280: 773f 553c f541 00bf 104f f93c b505 d3bd
00000290: 43d1 b3be 2052 cbbc ffb9 89bf 4fb1 cabf
000002a0: d093 e9be 3095 d6bd 7855 cb3d 84ef 32bf
000002b0: d7ea 21bf a75c 253d e4c5 f43e 3108 a63e
000002c0: 704d f63e 5275 07bd 840d 58be c15f 523e
000002d0: 840b 193d 7135 dfbe 8abd 2fbf 7fef b9be
000002e0: ea2b 653c 1bf3 1c3f 1ee7 85bd 4dc3 97be
000002f0: c36e 33be 0c3c 96be bdde a53d 4aab 8b3d
00000300: d279 ab3e c10c e93e 4de9 10be 0350 5abe
00000310: f81b c63c a5fc e23e d169 1b3f 525a fcbe
00000320: fe14 ab3e 07a6 063f 1ff0 df3e 3c44 603e
00000330: f5e3 bb3e 43c9 01be bd0c 83be f5cb 5dbe
00000340: c6b7 64ba 95e2 cf3e 818e 33be 47c7 81bd
00000350: ce10 86be 5f2e b2be 3c48 103e f3b1 b3bd
00000360: 8131 ccbe dd75 d2bd 06ee 64bd 9442 a73e
00000370: 7594 5e3e f6b7 b73d 0272 eabd f131 8b3e
00000380: e963 073f 7e28 1dbf 75e7 e0be efed 74bf
00000390: 0256 d7be 4d81 693e a307 d43e 8f27 f73e
000003a0: e836 06be 5282 113d 7dc3 123c 0765 bdbe
000003b0: da70 813e f4ba e83e 23a7 813e d511 203e
000003c0: e2e7 ca3e c64d 49bd c5c3 7f3e 1cc3 f23d
000003d0: 610a cb3e 93b6 2fbe 1d61 58be 98af 193e
000003e0: 5da7 913e 4c4b 093f e57a 4b3f c7e6 6a3e
000003f0: e0f5 d6bd 8c2a 8ebe 4c54 5d3f 6572 753e

conv2.bias f4 [16]
0.9635187 0.91155905 1.6414027 -0.3135736 -1.0403757 0.18705024 0.010681533 -1.4063615
-0.7036305 0.6138287 0.61247814 1.7618055 -0.90883714 -0.08994608 -0.6156146 -0.37900457
00000000: 29a9 763f ef5b 693f 7c19 d23f b88c a0be
00000010: 082b 85bf 198a 3f3e 9901 2f3c a703 b4bf
00000020: 2121 34bf e123 1d3f 5ecb 1c3f d882 e13f
00000030: 8da9 68bf a735 b8bd eb98 1dbf e30c c2be

fc1.weight f4 [120, 400]
-0.015079174 -0.013666274 0.04333553 -0.056849804 -0.015540153 -0.056456916 -0.04386623 -0.016143726
-0.15878867 -0.04253749 0.041757774 -0.03616906 -0.031137882 -0.048522364 -0.0060815476 0.08833473
-0.015010896 -0.021235108 -0.018031461 -0.0602832 0.070032366 -0.0003409305 -0.057824995 0.054467503
0.01348336 -0.090061426 -0.0581041 -0.026403543 -0.0726425 -0.017135298 -0.10682466 -0.055870213
-0.1312865 -0.12658656 -0.120373316 -0.08667759 -0.11140794 -0.13573784 -0.095644765 -0.06703612
-0.003907478 -0.114594296 -0.09903482 -0.12084212 -0.10174317 -0.13313025 -0.12499513 -0.13965672
-0.05037763 -0.15025935 -0.1551224 -0.030376596 -0.011783594 -0.05783535 -0.050124004 0.03713131
-0.015669817 0.055197984 -0.2045249 -0.20299241 -0.025664289 0.019397443 -0.01092976 -0.07618821
-0.092720695 0.02951827 -0.045156978 -0.099773 -0.015084954 -0.11709815 -0.016852614 0.04480855
-0.010786966 -0.013115322 -0.12493403 -0.10652613 -0.003727135 0.013769623 0.025102962 0.028549839
-0.0012511144 -0.025032474 -0.08947125 -0.033963207 -0.055339634 -0.022765331 4.5683202e-05 -0.11769355
0.016818816 -0.060051076 -0.051034175 -0.07606323 -0.006126377 -0.0048271487 -0.030868217 0.024516756
0.024218358 -0.04823863 0.0071299626 -0.021564199 -0.12028736 -0.09847495 -0.08842309 -0.08210615
-0.036549475 -0.1474222 -0.07311217 -0.023642093 -0.02951714 -0.07233641 -0.15212804 -0.07475032
-0.087614596 -0.087087914 -0.008810794 -0.14342487 -0.16359521 -0.10197702 -0.02124807 -0.0647239
-0.08787204 -0.08904801 -0.04860899 -0.10879358 -0.042975526 -0.07952402 -0.07777635 -0.11789058
-0.11172632 -0.038526546 -0.011500319 -0.049446788 -0.12591821 -0.05781203 -0.055847872 -0.030196182
-0.026555384 -0.07683912 -0.052971207 -0.04064312 -0.08222549 -0.094571576 -0.070636354 -0.08049929
0.018496763 0.0186916 -0.017661883 0.005311174 -0.038845748 -0.0076718614 -0.02598732 0.0461069
0.02545764 -0.06835629 -0.06434733 -0.08613777 -0.05844901 -0.100757144 -0.03814426 -0.012621186
-0.0766678 -0.15958473 -0.15354732 -0.11009921 -0.115133025 -0.09861309 -0.15475912 -0.12659948
-0.032692607 -0.011096449 0.07149491 -0.05792372 -0.06478754 -0.013250489 -0.07785047 -0.039071992
-0.049330235 -0.033689015 0.05759058 0.05387261 -0.15798107 -0.035018537 -0.022471467 -0.035655245
-0.12460986 -0.21757631 0.023294955 -0.012364564 0.04487889 -0.012211137 -0.12711793 -0.08600641
0.00891353 -0.006934916 -0.0782835 -0.014058007 -0.10978159 0.024656223 -0.047212895 -0.041331723
-0.08551161 -0.0671268 -0.10964345 -0.036670357 -0.026111126 0.03826467 0.019720867 -0.008255133
-0.0048676203 0.011584996 -0.12941666 -0.016501393 0.03219158 0.04796348 -0.01724694 -0.07632626
-0.0863774 -0.025385147 -0.11791725 -0.11770965 -0.13156416 -0.062429298 -0.024563417 -0.05176414
-0.11638479 -0.035275787 0.049297627 -0.06353362 0.02866062 -0.050934523 0.022500353 9.036131e-05
-0.015546524 -0.046692457 -0.043283343 -0.076421276 -0.11374316 -0.004787071 0.0699435 0.051544964
-0.010672799 -0.0847819 -0.057933945 0.033999007 0.037008848 0.016998554 0.091021314 0.11566186
0.01635626 -0.07437322 -0.04015564 -0.039556738 0.043162026 0.046532802 0.086176045 -0.10381786
00000000: a40e 77bc 82e8 5fbc 9980 313d 57db 68bd
00000010: 209c 7ebc 5e3f 67bd 13ad 33bd d93f 84bc
00000020: 7f99 22be cb3b 2ebd 330a 2b3d 0226 14bd
00000030: df14 ffbc 63bf 46bd b847 c7bb d7e8 b43d
00000040: 43f0 75bc 40f5 adbc b7b6 93bc 84eb 76bd
00000050: 216d 8f3d ebbe b2b9 e7d9 6cbd 5119 5f3d
00000060: 50e9 5c3c 2072 b8bd 91fe 6dbd 3e4c d8bc
00000070: 97c5 94bd 535f 8cbc e3c6 dabd 2ad8 64bd
00000080: f86f 06be e89f 01be 4986 f6bd 0584 b1bd
00000090: d929 e4bd dcfe 0abe 67e1 c3bd 3c4a 89bd
000000a0: 4d0a 80bb 6ab0 eabd c5d2 cabd 137c f7bd
000000b0: b95e d0bd 4c53 08be 72fd ffbd 2c02 0fbe
000000c0: c658 4ebd 96dd 19be 68d8 1ebe 57d8 f8bc
000000d0: fa0f 41bc c3e4 6cbd d44e 4dbd 0017 183d
000000e0: fd5d 80bc 4817 623d fa6e 51be 3edd 4fbe
000000f0: ea3d d2bc 63e7 9e3c bc12 33bc 9008 9cbd
00000100: 59e4 bdbd 4dd0 f13c 86f6 38bd c955 ccbd
00000110: e226 77bc 28d1 efbd 7e0e 8abc 2c89 373d
00000120: d1bb 30bc a6e1 56bc 6add ffbd 5f2a dabd
00000130: f342 74bb fc99 613c baa4 cd3c 5ae1 e93c
00000140: 6ffc a3ba e710 cdbc b43c b7bd 011d 0bbd
00000150: d0ab 62bd 5c7e babc f79b 3f38 5109 f1bd
00000160: 9dc7 893c 1ef8 75bd 3609 51bd 0ac7 9bbd
00000170: c6bf c8bb 0f2d 9ebb 58df fcbc 5dd7 c83c
00000180: 9465 c63c df95 45bd 76a2 e93b 67a7 b0bc
00000190: 3859 f6bd 3cad c9bd 2a17 b5bd 4527 a8bd
000001a0: e7b4 15bd d8f5 16be d5bb 95bd 10ad c1bc
000001b0: eecd f1bc 1d25 94bd 74c7 1bbe b216 99bd
000001c0: 486f b3bd 265b b2bd 265b 10bc f8dd 12be
000001d0: 8185 27be 54d9 d0bd 6f10 aebc f78d 84bd
000001e0: 42f6 b3bd ce5e b6bd 381a 47bd 2bcf debd
000001f0: 1b07 30bd 7ddd a2bd 3549 9fbd 9e70 f1bd
00000200: c5d0 e4bd 03ce 1dbd d56b 3cbc b788 4abd
00000210: b4f0 00be 4fcc 6cbd bdc0 64bd fc5d f7bc
00000220: ad8a d9bc d45d 9dbd 56f8 58bd 6679 26bd
00000230: d665 a8bd beae c1bd cba9 90bd d0dc a4bd
00000240: 8686 973c 201f 993c a7af 90bc 5b09 ae3b
00000250: b81c 1fbd 3d64 fbbb 5ce3 d4bc 97da 3c3d
00000260: 8a8c d03c 62fe 8bbd 88c8 83bd 0069 b0bd
00000270: 3b68 6fbd c359 cebd 283d 1cbd 17c9 4ebc
00000280: 0204 9dbd 2e6a 23be 823b 1dbe b27b e1bd
00000290: ddca ebbd a9f5 c9bd 2d79 1ebe 4ba3 01be
000002a0: afe8 05bd e1cd 35bc ec6b 923d 6c41 6dbd
000002b0: 54af 84bd 9418 59bc 1170 9fbd f409 20bd
000002c0: 800e 4abd 7efd 09bd 1ae4 6b3d 87a9 5c3d
000002d0: cac5 21be 996f 0fbd 1516 b8bc 3c0b 12bd
000002e0: 7433 ffbd 53cc 5ebe 10d5 be3c be94 4abc
000002f0: edd2 373d 3911 48bc 342b 02be 2124 b0bd
00000300: 0e0a 123c 4b3e e3bb 1a53 a0bd 8e53 66bc
00000310: 2cd5 e0bd d9fb c93c 4f62 41bd 744b 29bd
00000320: b620 afbd c779 89bd bf8c e0bd a833 16bd
00000330: 00e7 d5bc 6abb 1c3d a88d a13c 8a40 07bc
00000340: 8f80 9fbb ffce 3d3c cd85 04be ee2d 87bc
00000350: 51db 033d 5b75 443d 7449 8dbc f150 9cbd
00000360: a2e6 b0bd 83f4 cfbc 997e f1bd c211 f1bd
00000370: c1b8 06be ddb5 7fbd 3839 c9bc a306 54bd
00000380: 265b eebd 587d 10bd 4fec 493d ea1d 82bd
00000390: adc9 ea3c b8a0 50bd a952 b83c 5c80 bd38
000003a0: d9b6 7ebc 9740 3fbd e049 31bd c282 9cbd
000003b0: 2df2 e8bd dddc 9cbb 8a3e 8f3d d020 533d
000003c0: f7dc 2ebc 22a2 adbd 254c 6dbd 8b42 0b3d
000003d0: 9796 173d 8d40 8b3c 6269 ba3d 20e0 ec3d
000003e0: 90fd 853c fd50 98bd 3e7a 24bd 3f06 22bd
000003f0: aaca 303d 2e99 3e3d 117d b03d 759e d4bd

fc1.bias f4 [120]
-0.12653306 -1.739223 1.2461424 -0.91363037 0.95519614 1.8900429 -0.1412979 -0.8698791
-1.3034698 -0.1556797 -0.007951299 -2.3370676 -0.77402145 -1.2480563 -0.5743691 -0.47768742
0.38980314 0.27259913 0.32563967 -0.030206608 -0.054690573 0.19526514 -0.24609603 1.7658154
-0.3521474 -1.9791714 -0.07087709 3.071711 0.30974624 -0.4031574 1.7485286 0.0031126947
-1.6147245 -0.056803092 -0.40861258 -2.021974 0.948424 0.008875275 -0.03765051 -2.4876473
-0.063499354 -1.2268374 -0.084806755 -1.9213512 -0.49899217 -1.2768781 2.5180163 -0.39657414
-0.15407164 -0.04222956 -0.27106598 -0.8208113 -0.055183273 0.5462389 -0.08943945 1.3161232
0.6642772 -0.032270093 -1.4620106 -2.3288689 -0.09399623 -0.03976084 -0.16542742 -0.019935768
-1.5222701 -0.07764398 2.442329 -0.06801981 -2.0993576 -2.1626656 -0.02691107 -0.020495297
0.19493487 -0.0029788627 -1.6655838 1.2756414 -0.05531485 0.27597684 -0.072059594 -1.0796992
-0.06572345 0.55737996 0.4084086 1.2381259 0.57665414 -0.06419479 -0.039628588 -1.4123478
-0.9317024 -1.729288 1.1700296 -2.2332332 1.1954178 -1.4623274 -1.911912 -0.44930983
-1.360123 -1.629588 -0.8134169 -0.0023974115 -0.014703751 -1.7854263 -1.8437562 -0.8974267
1.9228975 0.1156556 -0.11050728 -0.06853396 -0.045152687 -0.8119439 -1.1799865 -0.96995443
-1.7713889 2.42383 -0.040657487 0.30980057 1.7719997 -2.4092786 0.7914054 0.37911132
00000000: e291 01be dc9e debf 9881 9f3f aee3 69bf
00000010: bc87 743f edec f13f 66b0 10be 66b0 5ebf
00000020: 19d8 a6bf 806a 1fbe 2a46 02bc 8492 15c0
00000030: 4526 46bf 4fc0 9fbf da09 13bf 7293 f4be
00000040: 4794 c73e 1d92 8b3e 3eba a63e d973 f7bc
00000050: 3903 60bd 96f3 473e 9900 7cbe 3d06 e23f
00000060: aa4c b4be 7d55 fdbf 0228 91bd ea96 4440
00000070: 0f97 9e3e a66a cebe c9cf df3f 5afe 4b3b
00000080: 4baf cebf 5caa 68bd ab35 d1be 0668 01c0
00000090: eacb 723f 9a69 113c 6c37 1abd 9d35 1fc0
000000a0: f30b 82bd 0209 9dbf 2aaf adbd d6ee f5bf
000000b0: e77b ffbe be70 a3bf 2e27 2140 c40b cbbe
000000c0: f5c4 1dbe e7f8 2cbd 29c9 8abe b020 52bf
000000d0: db07 62bd 50d6 0b3f 082c b7bd ba76 a83f
000000e0: 120e 2a3f a52d 04bd 2a23 bbbf 300c 15c0
000000f0: 1881 c0bd 43dc 22bd ce65 29be 5650 a3bc
00000100: bfd9 c2bf cf03 9fbd 1e4f 1c40 f84d 8bbd
00000110: e05b 06c0 1d69 0ac0 9b74 dcbc c1e5 a7bc
00000120: 029d 473e 0639 43bb da31 d5bf 3848 a33f
00000130: d391 62bd d64c 8d3e fb93 93bd 9533 8abf
00000140: 049a 86bd 74b0 0e3f ef1a d13e e97a 9e3f
00000150: 9b9f 133f 8f78 83bd 9651 22bd d0c7 b4bf
00000160: 0c84 6ebf 4f59 ddbf 88c3 953f 4bed 0ec0
00000170: 7303 993f 8b2d bbbf 88b9 f4bf f00b e6be
00000180: 8318 aebf 5796 d0bf 173c 50bf e41d 1dbb
00000190: 00e8 70bc d988 e4bf 3400 ecbf c2bd 65bf
000001a0: 8121 f63f d8dc ec3d a451 e2bd 885b 8cbd
000001b0: 06f2 38bd 8edb 4fbf cc09 97bf ef4e 78bf
000001c0: dfbc e2bf 0820 1b40 7788 26bd 2e9e 9e3e
000001d0: e3d0 e23f 9f31 1ac0 8b99 4a3f e11a c23e

fc2.weight f4 [84, 120]
-0.06004053 -0.21509112 0.019228663 -0.13272758 0.26703474 -0.028892 0.16899425 -0.19779558
-0.1956081 0.07818632 0.3106975 -0.19795147 0.112135254 0.13058582 -0.3012836 -0.58289164
0.09903488 0.19158565 -0.80269563 0.09076596 -0.021884268 -0.12499471 0.4177905 0.34272367
-1.1393976 0.24515729 0.10891515 0.23952857 0.2613819 -0.26579005 0.13115741 0.069070846
0.4469692 -0.06081728 -0.4061227 -0.3933732 0.14194107 0.05210502 0.027384222 -0.2327567
-0.019531714 -0.075753935 -0.035978373 -0.025612924 -0.35658512 -0.73140746 0.21384874 0.24820831
-0.30434868 -0.01854291 0.36603618 0.7509661 -0.003488459 -0.029123532 0.045557592 -0.5389694
-0.16630857 -0.0045777336 -0.103617445 0.004110302 0.035527796 -0.056398682 -0.0410637 -0.0789087
0.58016795 -0.04627699 -0.41379666 -0.016194155 -0.6861821 0.16370444 0.030853357 -0.0065446207
-0.7115401 -0.051665455 -0.04234518 -0.5743965 0.022351217 0.31822854 -0.07114598 0.04563416
0.064101346 0.3093877 -0.6149613 0.077584 0.073557965 -0.034346953 -0.037047073 0.008682764
0.3851122 0.3015709 0.29056802 -0.06942313 0.5484677 -1.4250906 -0.20756237 -0.3297166
0.66478294 0.19868924 -0.12772447 0.56785536 -0.06861798 -0.3868005 1.3727095 0.49981934
-0.1153626 -1.0766184 0.013942475 -0.005785234 -0.07960377 0.20955263 -0.006720035 0.8116934
0.5321909 -0.10567917 -0.018014811 0.09483795 0.31328204 -0.5406259 -0.39408106 -0.37576914
0.04988792 0.15250874 1.0003965 0.9784708 0.3590407 -0.32219642 0.006049505 0.26610893
0.27273214 -0.11747397 1.2174941 -0.041714925 -0.27506155 0.031894907 -0.07105581 -0.19560787
-0.018499194 0.026299223 -0.5190463 -0.0324738 0.069526464 -0.08225356 0.7502215 -0.2992568
0.51132345 1.0573374 0.059411343 0.079628475 0.5229521 0.57043225 0.7473725 0.09536643
0.6131749 -0.082825884 0.14325047 0.62888575 -0.07538516 0.0012080066 -0.023037234 0.5094242
-0.046996694 0.52737737 -0.064998895 0.11849442 0.20062976 0.18615745 0.43241623 0.74456245
-0.48763394 0.022553654 -0.7819642 1.3076832 0.015117761 -0.21796745 0.054224756 -0.2143773
0.38916135 -0.020563401 -1.0337481 0.61049265 0.06010278 -0.08877045 -0.0012923479 -0.07035197
0.55210537 0.025771344 0.50729114 -0.07381663 -0.58508515 0.8575781 -0.02025319 -0.014890717
-0.111166954 0.018993745 0.20101404 0.2551104 0.08087922 0.45546082 -0.053233992 0.17318141
0.12721351 0.37427852 -0.5874268 0.0163621 0.37480438 -0.057126503 -0.0023214137 1.1839479
0.19977602 -0.052883144 0.3821773 1.0031954 0.7389461 0.6186265 -0.3867075 0.53779286
0.44974983 -0.06665177 0.5983668 0.6640768 0.014686646 0.028054912 0.4431069 -0.30813658
0.9865492 0.26486942 0.020571996 -0.057329617 0.035849825 0.46435982 -0.33324218 1.0287209
-0.20937097 0.6455161 0.036853995 0.2094695 0.13949813 -0.67017496 0.6188757 0.15577696
0.06695991 -0.02307123 -0.15512255 -0.03286586 0.07244837 -0.060693324 -0.07253391 0.0076422836
0.055693313 0.036215298 -0.12557462 -0.06888821 -0.11223326 -0.024032641 -0.14125368 -0.006121453
00000000: 0fed 75bd d940 5cbe 6e85 9d3c bde9 07be
00000010: c7b8 883e eaae ecbc d40c 2d3e ed8a 4abe
00000020: 7d4d 48be 2620 a03d be13 9f3e cab3 4abe
00000030: 2ba7 e53d 4ab8 053e d841 9abe 6338 15bf
00000040: cdd2 ca3d 072f 443e 767d 4dbf 81e3 b93d
00000050: a346 b3bc 3afd ffbd a3e8 d53e 7a79 af3e
00000060: c8d7 91bf 830a 7b3e e80e df3d fa46 753e
00000070: d9d3 853e a215 88be 214e 063e 0475 8d3d
00000080: 26d9 e43e 8a1b 79bd 51ef cfbe 3668 c9be
00000090: 0059 113e 136c 553d e054 e03c c657 6ebe
000000a0: f900 a0bc e124 9bbd 0f5e 13bd 32d2 d1bc
000000b0: 5392 b6be 853d 3bbf 2afb 5a3e 522a 7e3e
000000c0: 97d3 9bbe 4de7 97bc 1869 bb3e 503f 403f
000000d0: a19e 64bb 7994 eebc 999a 3a3d e6f9 09bf
000000e0: cb4c 2abe d000 96bb 6235 d4bd b6af 863b
000000f0: 9885 113d 4e02 67bd 6932 28bd e29a a1bd
00000100: e385 143f f18c 3dbd 28dd d3be 9ba9 84bc
00000110: a1a9 2fbf 23a2 273e 2ec0 fc3c 4274 d6bb
00000120: 7e27 36bf 289f 53bd 2472 2dbd a60b 13bf
00000130: e619 b73c daee a23e fcb4 91bd e3ea 3a3d
00000140: 9147 833d 1168 9e3e 1b6e 1dbf 5ce4 9e3d
00000150: 8fa5 963d 64af 0cbd acbe 17bd 2742 0e3c
00000160: 6d2d c53e 8067 9a3e 55c5 943e b72d 8ebd
00000170: 6168 0c3f 5e69 b6bf 3b8b 54be 9dd0 a8be
00000180: 372f 2a3f 3175 4b3e 34ca 02be f85e 113f
00000190: 9587 8cbd b70a c6be f2b4 af3f 52e8 ff3e
000001a0: 3a43 ecbd a2ce 89bf fb6e 643c 0f92 bdbb
000001b0: 4d07 a3bd f794 563e bd33 dcbb 23cb 4f3f
000001c0: aa3d 083f 526e d8bd cc93 93bc 663a c23d
000001d0: 8166 a03e 7566 0abf fec4 c9be d064 c0be
000001e0: 4757 4c3d 402b 1c3e fe0c 803f 107d 7a3f
000001f0: 2fd4 b73e eef6 a4be ed3a c63b 6e3f 883e
00000200: 8ca3 8b3e 3196 f0bd d9d6 9b3f 45dd 2abd
00000210: ded4 8cbe 3ca4 023d b585 91bd 6e4d 48be
00000220: 9f8b 97bc 7871 d73c 38e0 04bf 3f03 05bd
00000230: e463 8e3d 8e74 a8bd 840e 403f 3038 99be
00000240: 18e6 023f d556 873f 4f59 733d 4114 a33d
00000250: 30e0 053f d907 123f ce53 3f3f 7a4f c33d
00000260: 08f9 1c3f 9ea0 a9bd 40b0 123e a8fe 203f
00000270: 8963 9abd fa55 9e3a 95b8 bcbc a069 023f
00000280: 9b7f 40bd 3402 073f 241e 85bd 34ad f23d
00000290: e371 4d3e 0fa0 3e3e a965 dd3e a59b 3e3f
000002a0: 28ab f9be 71c2 b83c ce2e 48bf 2a62 a73f
000002b0: 7cb0 773c dc32 5fbe c71a 5e3d b985 5bbe
000002c0: 2840 c73e 9474 a8bc dc51 84bf 3f49 1c3f
000002d0: 552e 763d 48cd b5bd 0064 a9ba b214 90bd
000002e0: c756 0d3f 6d1e d33c d5dd 013f 2c2d 97bd
000002f0: 24c8 15bf 3d8a 5b3f 05ea a5bc 32f8 73bc
00000300: 80ab e3bd c598 9b3c a0d6 4d3e d59d 823e
00000310: 01a4 a53d 2932 e93e e30b 5abd 7856 313e
00000320: 4244 023e 6fa1 bf3e 9a61 16bf d009 863c
00000330: 5ce6 bf3e 7bfd 69bd dc22 18bb 9b8b 973f
00000340: 1692 4c3e ff9b 58bd beac c33e b568 803f
00000350: 922b 3d3f 4e5e 1e3f 87fe c5be cbac 093f
00000360: 9c45 e63e b980 88bd 912e 193f f000 2a3f
00000370: 42a0 703c 6ad3 e53c e8de e23e 14c4 9dbe
00000380: 7d8e 7c3f f79c 873e 9a86 a83c 76d2 6abd
00000390: 44d7 123d 92c0 ed3e b89e aabe 20ad 833f
000003a0: 5865 56be 8b40 253f 37f4 163d 2c7f 563e
000003b0: 99d8 0e3e 9690 2bbf a36e 1e3f ff83 1f3e
000003c0: 4722 893d e0ff bcbc 72d8 1ebe 5a9e 06bd
000003d0: d05f 943d 9099 78bd a98c 94bd 1f6c fa3b
000003e0: ac1e 643d 7e56 143d a296 00be 4315 8dbd
000003f0: 8dda e5bd 1ae0 c4bc cea4 10be 7896 c8bb

fc2.bias f4 [84]
2.0662346 0.37445846 -0.21527919 -0.7680658 -0.41561297 1.3575845 -1.2752333 0.49679777
0.6138161 2.5274522 -1.3811991 -1.4264512 -0.3065244 -0.26450983 -2.0336583 -1.0837846
-0.19329563 4.462846 0.60171425 -1.2347841 -1.0639995 -0.1356553 -1.5373073 -1.029147
-0.6568556 -1.3982681 -0.2240011 -1.7256502 -1.2747617 -0.7341389 -2.8521402 -1.4754266
-0.8586161 -1.0473459 0.19210479 -1.1877266 -1.3807011 -0.36403164 -1.256761 -1.2623824
-0.43155614 -0.8020374 -0.77083653 -1.0923064 1.0202374 -0.32528055 -1.5875509 -1.313515
-0.24157476 0.9684305 -0.81519413 2.558555 1.337095 -1.1923026 -1.2654828 1.3792056
0.71556854 1.3503947 -1.5426667 -1.6727735 -0.4319085 -0.6011206 -1.1321647 -1.1905824
-1.6565953 -1.7548751 -1.030063 -3.2662795 -1.4437163 -0.050638326 0.36411068 -0.59769416
0.46150294 2.7312243 0.24935657 -1.1648701 -1.0006044 2.872603 -0.5526933 -0.92354804
-0.40388414 -1.9041274 1.4350199 -0.89670813
00000000: 303d 0440 05b9 bf3e 2672 5cbe f69f 44bf
00000010: 39cb d4be 54c5 ad3f d83a a3bf 475c fe3e
00000020: 0d23 1d3f c7c1 2140 22cb b0bf f495 b6bf
00000030: c4f0 9cbe d56d 87be 7527 02c0 74b9 8abf
00000040: 4aef 45be a2cf 8e40 f209 1a3f 680d 9ebf
00000050: 2331 88bf 39e9 0abe 7cc6 c4bf 17bb 83bf
00000060: b027 28bf 73fa b2bf 8b60 65be 1be2 dcbf
00000070: 642b a3bf 87f0 3bbf 7789 36c0 c7da bcbf
00000080: 44ce 5bbf 6e0f 86bf 1eb7 443e 6d07 98bf
00000090: d0ba b0bf 5b62 babe 8bdd a0bf bf95 a1bf
000000a0: edf4 dcbe 5352 4dbf 8b55 45bf b2d0 8bbf
000000b0: 2497 823f 2c8b a6be de34 cbbf 4221 a8bf
000000c0: 605f 77be 10eb 773f 90b0 50bf 5dbf 2340
000000d0: ee25 ab3f 5f9d 98bf 57fb a1bf cf89 b03f
000000e0: 802f 373f bcd9 ac3f 1a76 c5bf 711d d6bf
000000f0: 1c23 ddbe 0ae3 19bf c6ea 90bf 0165 98bf
00000100: 510b d4bf bf9f e0bf 1bd9 83bf b90a 51c0
00000110: b2cb b8bf 226a 4fbd b76c ba3e 7c02 19bf
00000120: 1d4a ec3e 61cc 2e40 5457 7f3e 771a 95bf
00000130: ce13 80bf bad8 3740 4f7d 0dbf a56d 6cbf
00000140: e7c9 cebe 72ba f3bf bbae b73f aa8e 65bf

fc3.weight f4 [10, 84]
-0.1677095 -0.27499557 -0.22752014 -0.3242253 -1.0828792 -0.63011795 -2.1624622 -0.8273763
-1.4725193 -0.34998614 -2.4058168 -0.9226805 -0.36415642 -0.87125015 -0.7165838 -1.6404327
-0.6487449 -0.27085832 -1.3082458 -3.2033305 -0.30329117 -0.0662807 -1.4342434 -1.0568584
-1.626145 -2.7279603 -1.7575908 -0.26467305 -1.2757535 -2.266737 -0.4632072 -0.16701578
-0.9728757 -2.8645816 -1.3291942 -0.39730892 -1.216147 -1.8896884 -2.0981107 -0.42682263
-0.42898798 -1.5661805 -0.8199471 -1.4756876 -0.09103227 -0.7171176 -1.4612353 -0.72008723
-0.3112848 -0.26540145 -0.38522017 -0.2835553 -0.55568373 -0.66790354 -1.5193839 -0.25908
-0.7424 -0.43218723 -2.3380904 -2.5081184 -0.85201937 -0.34398842 -1.4545567 -1.2646027
-1.1772957 -0.90932137 -2.2988105 -0.27893484 -1.9209106 -0.5386258 -1.0972996 -1.3825134
-0.88213825 -0.57784235 -1.3448082 -1.4696875 -1.2592763 -0.2770787 -0.5289474 -1.7390443
-3.1004422 -1.0231544 -0.68664724 -1.216615 -0.39811492 -1.6662904 -0.09587115 -0.23159456
-1.7926251 -1.3652829 -2.7089915 -1.189319 -0.82981294 -0.36308268 -1.9376935 -1.8734008
-0.24700674 -0.86962646 -1.4678661 -0.87327313 -0.41060928 -0.21154225 -1.3146263 -1.8002653
-0.22971456 -0.12931164 -1.4264172 -0.6798889 -1.685195 -2.3691483 -1.3624187 -0.24602407
-1.1765527 -1.274649 -0.49057916 -0.23130107 -0.58106416 -3.6645768 -1.5917985 -0.55711854
-0.6899442 -1.659625 -0.79502773 -0.9154824 -0.6425643 -3.2788928 -2.4175656 -1.5264758
-0.22227141 -0.72085327 -2.2197015 -1.5630227 -0.2597602 -0.36137697 -1.4163454 -0.34144285
-0.5365125 -0.96821076 -1.1698726 -0.2431003 -1.4605829 -0.5756903 -0.78254646 -1.1384118
-0.8504994 -0.35712147 -2.5068436 -0.5968939 -0.88846767 -1.8290944 -2.2932825 -0.29491115
-1.3220391 -0.96458304 -1.1184827 -1.0737314 -1.1814821 -0.4156452 -0.6802697 -0.9797493
-0.8973093 -0.38022706 -0.5176262 -1.5279745 -4.8172946 -0.70598596 -0.7479897 -2.3424337
-0.16410248 -0.6167922 -0.08138403 -0.27303132 -0.8214151 -0.7688394 -0.9351412 -1.8196962
-1.0439644 -0.34300333 -1.5812571 -1.8116957 -0.44319335 -0.5689738 -0.82704973 -1.5748938
-0.58226925 -0.09645906 -1.6770803 -1.0338168 -0.9436224 -0.26909384 -1.7762138 -1.1396313
-1.0671992 -0.8082603 -2.6215215 -0.21998519 -2.96735 -0.60491204 -0.68431896 -0.1407328
-1.1589564 -1.1796708 -0.56781286 -0.5555719 -1.3199816 -1.4956611 -1.0626557 -1.211487
-0.6811443 -2.4670563 -1.9435657 -2.2015238 -0.2047997 -0.73824394 -1.8519689 -1.9772846
-0.73670727 -0.26405087 -2.526756 -0.22232215 -0.4711473 -2.0389433 -0.964328 -0.38894847
-0.6623791 -0.33032 -2.5994337 -2.021941 -1.1775357 -0.29238576 -1.2234876 -1.4036126
-1.37347 -1.8183602 -2.948378 -0.4049778 -1.0669111 -1.1613537 -1.2289932 -2.334018
-0.9495362 -0.4956365 -0.81149083 -1.5592088 -0.9208626 -0.19637872 -0.64333284 -1.5075257
-1.618412 -0.78470093 -0.5982874 -2.2113767 -0.28584582 -1.0924518 -0.10016994 -0.20614849
00000000: 0abc 2bbe 38cc 8cbe 0afb 68be dc00 a6be
00000010: c99b 8abf 694f 21bf c865 0ac0 efce 53bf
00000020: 837b bcbf 6231 b3be e7f8 19c0 ca34 6cbf
00000030: b672 babe 400a 5fbf 0972 37bf b3f9 d1bf
00000040: 2514 26bf f1ad 8abe 9974 a7bf 5e03 4dc0
00000050: fb48 9bbe 2dbe 87bd 4a95 b7bf 2347 87bf
00000060: 8525 d0bf e796 2ec0 bcf8 e0bf 3a83 87be
00000070: e44b a3bf 3812 11c0 7e29 edbe 2f06 2bbe
00000080: 620e 79bf 4e55 37c0 0923 aabf 136c cbbe
00000090: b4aa 9bbf 4fe1 f1bf 7247 06c0 7f88 dabe
000000a0: 50a4 dbbe 9a78 c8bf 0ee8 51bf 55e3 bcbf
000000b0: 206f babd 0595 37bf c209 bbbf a357 38bf
000000c0: b960 9fbe b3e2 87be 943b c5be 292e 91be
000000d0: 4a41 0ebf bafb 2abf 2c7b c2bf 22a6 84be
000000e0: ed0d 3ebf a547 ddbe 46a3 15c0 0385 20c0
000000f0: f11d 5abf 401f b0be ea2e babf 80de a1bf
00000100: a0b1 96bf 49c9 68bf b61f 13c0 8cd0 8ebe
00000110: 66e0 f5bf 61e3 09bf 5074 8cbf 33f6 b0bf
00000120: d0d3 61bf 7aed 13bf ad22 acbf b81e bcbf
00000130: f72f a1bf 42dd 8dbe 1969 07bf 0199 debf
00000140: a56d 46c0 b9f6 82bf 1dc8 2fbf 0aba 9bbf
00000150: b8d5 cbbe 0149 d5bf 1858 c4bd 2027 6dbe
00000160: bd74 e5bf 97c1 aebf 1e60 2dc0 9b3b 98bf
00000170: 9f6e 54bf f9e5 b9be 5706 f8bf 99cb efbf
00000180: 56ef 7cbe d79f 5ebf 09e3 bbbf d48e 5fbf
00000190: 613b d2be 889e 58be ad45 a8bf 186f e6bf
000001a0: 4b3a 6bbe 456a 04be d794 b6bf 330d 2ebf
000001b0: 78b4 d7bf 20a0 17c0 bc63 aebf bced 7bbe
000001c0: 4799 96bf b327 a3bf 312d fbbe 30da 6cbe
000001d0: 9fc0 14bf 6d88 6ac0 0ec0 cbbf 529f 0ebf
000001e0: 2fa0 30bf 986e d4bf f086 4bbf 0e5d 6abf
000001f0: 187f 24bf 61d9 51c0 65b9 1ac0 8f63 c3bf
00000200: 1e9b 63be d789 38bf 970f 0ec0 2111 c8bf
00000210: 4aff 84be 6706 b9be ce4a b5bf 99d1 aebe
00000220: e258 09bf a9dc 77bf 63be 95bf 49ef 78be
00000230: 61f4 babf 7160 13bf f754 48bf 7ab7 91bf
00000240: 54ba 59bf a0d8 b6be 2070 20c0 0ace 18bf
00000250: 9e72 63bf c41f eabf 24c5 12c0 98fe 96be
00000260: 9438 a9bf eaee 76bf 712a 8fbf 0870 89bf
00000270: ce3a 97bf 73cf d4be 2826 2ebf dad0 7abf
00000280: 10b6 65bf 1fad c2be 2783 04bf ab94 c3bf
00000290: 4727 9ac0 7fbb 34bf 417c 3fbf 6fea 15c0
000002a0: 7b0a 28be 18e6 1dbf acac a6bd c3ca 8bbe
000002b0: 4348 52bf a9d2 44bf 6a65 6fbf ceeb e8bf
000002c0: a0a0 85bf 229e afbe a266 cabf a5e5 e7bf
000002d0: 3dea e2be 44a8 11bf 88b9 53bf 1f96 c9bf
000002e0: 990f 15bf 548c c5bd 91aa d6bf 1c54 84bf
000002f0: 3d91 71bf abc6 89be f95a e3bf 70df 91bf
00000300: fc99 88bf 26ea 4ebf 02c7 27c0 cc43 61be
00000310: 10e9 3dc0 84db 1abf 872f 2fbf 421c 10be
00000320: af58 94bf 74ff 96bf 2f5c 11bf f639 0ebf
00000330: 28f5 a8bf d371 bfbf 1a05 88bf 0212 9bbf
00000340: 795f 2ebf 40e4 1dc0 c3c6 f8bf c4e5 0cc0
00000350: 03b7 51be 8efd 3cbf 510d edbf a917 fdbf
00000360: d998 3cbf ad31 87be 5fb6 21c0 6ba8 63be
00000370: 383a f1be 0c7e 02c0 33de 76bf 4124 c7be
00000380: ad91 29bf b41f a9be 1f5d 26c0 7b67 01c0
00000390: 7db9 96bf 96b3 95be 3e9b 9cbf 94a9 b3bf
000003a0: ddcd afbf 07c0 e8bf 3ab2 3cc0 4059 cfbe
000003b0: 8b90 88bf 3da7 94bf a64f 9dbf 8d60 15c0
000003c0: ce14 73bf 11c4 fdbe ddbd 4fbf 2794 c7bf
000003d0: a7bd 6bbf 8117 49be 76b1 24bf 9af6 c0bf
000003e0: 2028 cfbf 29e2 48bf 5d29 19bf 3287 0dc0
000003f0: 625a 92be 76d5 8bbf e625 cdbd 9718 53be

fc3.bias f4 [10]
-0.5751917 -0.68313646 -0.3607101 0.6944373 0.59113824 0.28499287 0.5342437 -0.6175131
0.0996012 -0.50111145
00000000: c33f 13bf 08e2 2ebf ffae b8be a5c6 313f
00000010: d654 173f 96ea 913e 32c4 083f 5715 1ebf
00000020: b7fb cb3d d748 00bf
