Models/05-04-2023-23-29-26/model_CNN_SGD.pth (torch, 250951 bytes, 10 tensors)

conv1.weight f4 [6, 3, 5, 5]
000000 ee 45 f4 bd 20 91 40 be 19 5e 18 3e 47 4d a9 3e
       -0.119274005 -0.18805361 0.14879645 0.3306677
000010 c7 48 f7 bd d5 fa 08 bf 49 e5 4a 3f ce 5d 53 3e
       -0.12074428 -0.5350774 0.7925611 0.20641252
000020 5e 53 34 bd 59 f1 fd be 2d 63 56 bf 44 1b 11 40
       -0.044024818 -0.49598196 -0.8374508 2.2672892
000030 a5 43 93 bf ad ea 42 bf 4b 25 25 3e 51 28 de bc
       -1.1505018 -0.76139337 0.16127507 -0.027118834
000040 ca 1e 18 40 a8 1a 28 c0 c7 c6 af be b7 55 75 3f
       2.3768792 -2.626627 -0.34331343 0.95833915
000050 17 4c 86 3d f0 37 9d 3f 24 55 00 c0 b2 2d 61 3f
       0.06557482 1.2282696 -2.0051966 0.8796035
000060 88 3d 0f 3e 34 11 14 3f 12 6c 67 be 64 56 a7 be
       0.13988316 0.5783875 -0.2259982 -0.32683098
000070 0f d9 83 3e 28 59 6e 3e 53 4e 85 3e eb ed bf 3e
       0.2575154 0.23276198 0.2603632 0.37486205
000080 46 83 e2 be 33 c2 c4 bd ac 23 b9 bd 35 e5 03 3d
       -0.4424078 -0.09607353 -0.09040007 0.03220101
000090 06 e2 eb 3f 8e 2f cc bf 77 50 d7 be 15 e7 17 3f
       1.8428352 -1.5952013 -0.42053577 0.5933698
0000a0 7b 39 a2 3e fc 9e ff 3f e4 16 38 c0 84 a8 9a bd
       0.3168448 1.9970393 -2.8763971 -0.07551673
0000b0 c2 b9 8d 3f 51 30 ac 3d 3e 2c 35 3f 9f e4 07 c0
       1.1072314 0.08407653 0.70770633 -2.123329
0000c0 91 93 45 3f 60 42 d3 3c f6 97 52 be 2a 4b 9f bd
       0.77178293 0.025788486 -0.20565781 -0.07778008
0000d0 ba 4f ca 3d 11 d2 4c 3c 23 18 fd be 36 df ec be
       0.09878488 0.012501256 -0.49432477 -0.46264046
0000e0 c5 cf 99 3e 2a 2f 67 be dc 5e 9a 3e 4e 7d 52 bd
       0.30041328 -0.22576585 0.30150497 -0.05138903
0000f0 82 2a 82 bf a6 97 a7 3f eb ef 79 bf ec 3d dd bd
       -1.0169222 1.3093154 -0.9763171 -0.10802826
000100 73 bc 91 3e 30 62 31 bf 03 54 e0 3f b4 fc 0b c0
       0.28464088 -0.6929045 1.7525638 -2.1872988
000110 c3 bd 83 3e 76 74 83 3f a6 d0 0b bf 2d 39 a1 3f
       0.25730714 1.0269916 -0.5461525 1.2595574
000120 e9 a8 d5 bf 43 6e 8f 3f a4 c6 e1 3e f4 65 10 bf
       -1.6692172 1.1205524 0.44096863 -0.5640557
000130 17 2f 29 bf 2b 4d bd be 07 aa b1 be 69 aa 10 bf
       -0.6608748 -0.36972937 -0.34700033 -0.56510025
000140 a9 02 57 3e b6 d4 eb be 8a e5 9e bf 27 c4 87 bf
       0.20997109 -0.46060723 -1.24138 -1.0606736
000150 2e a4 11 be 88 25 ed 3e 7f 6b 50 bf 23 63 4b bf
       -0.14222786 0.46317697 -0.81414026 -0.79448146
000160 db 58 f8 be c6 ac 12 bf ac df 14 3e 5e 0f fc 3e
       -0.4850529 -0.5729488 0.14538449 0.49230474
000170 a8 30 b0 3f 7b 28 62 3f 8c 4d 98 3e 67 0a e7 3e
       1.3764849 0.8834302 0.29746664 0.45125124
000180 90 44 b8 3f 66 d9 93 3f 09 8e 3c 3f 94 0f 46 3f
       1.4395924 1.155072 0.7365423 0.7736752
000190 a6 56 0a 3d 81 21 6c 3e 67 bf c3 3e fd cb e8 3e
       0.03377404 0.23059656 0.38231966 0.4546813
0001a0 f4 9a 95 3e 60 5a 58 3e 32 41 d3 3d 15 73 25 bf
       0.29219782 0.21128225 0.103151694 -0.64628726
0001b0 98 99 51 be 94 50 8b 3e b4 da c2 3e b7 c4 70 be
       -0.20468748 0.27209914 0.38057482 -0.23512541
0001c0 36 c4 18 be e3 27 79 3d f7 8e e2 be d3 7f d3 be
       -0.14918599 0.060829055 -0.442497 -0.4130846
0001d0 b1 42 19 3e 0f 72 82 3f 3e 07 f5 3e f7 dc f8 be
       0.14966847 1.0191058 0.47857088 -0.48606083
0001e0 8a f3 42 bf 8d d9 9e 3e 08 0d 40 be 78 17 f1 be
       -0.7615286 0.31025353 -0.18754971 -0.47088218
0001f0 18 b8 d7 be 7f 6d 30 be 3d bd f2 3d 29 f6 10 3f
       -0.4213264 -0.1722927 0.118525006 0.5662561
000200 3b 79 07 3f 74 fc f3 3d b6 fd b7 3e f3 dc c2 3d
       0.5291936 0.11913386 0.35935754 0.09514799
000210 7f e1 0b bf 36 7b 83 be 6e 7a 39 3f 2b 55 19 be
       -0.54640955 -0.2567994 0.7245244 -0.14973895
000220 77 f7 88 bf ee 91 f5 be 6c e1 71 be 40 5f dc 3b
       -1.070052 -0.47962898 -0.23621148 0.006725222
000230 44 9a 60 bf dc 60 d2 be 3f 68 0b 3f 0b 95 17 3f
       -0.8773539 -0.41089523 0.5445594 0.59211797
000240 2f a7 2b be 57 1f 6b be 38 39 ea 3e 2f b5 09 be
       -0.16762994 -0.22961174 0.4574678 -0.13448022
000250 0f 11 82 be b0 2c 50 3e 08 5a 82 bd 01 97 3f 3e
       -0.2540364 0.20329547 -0.06364828 0.18709947
000260 d2 6e a7 bd 9d d8 b5 3d c6 42 cf 3d e2 54 0a bf
       -0.08175434 0.08879206 0.10120158 -0.5403577
000270 c6 fb 1f 3e e8 c9 cd 3e f2 21 d7 3e fd 11 0c bf
       0.15623388 0.40193105 0.42018086 -0.5471495
000280 ea 70 b0 be 92 f6 9b bc b0 9d d7 3e 50 eb 29 3f
       -0.34461147 -0.019038472 0.42112494 0.66374683
000290 56 c7 aa be e4 4f 90 be 3b b3 02 be fb 76 10 3f
       -0.33355206 -0.28185952 -0.12763683 0.5643155
0002a0 49 7f 87 3e a2 ae 29 bd 6b 31 e0 be 67 63 1e 3f
       0.26464298 -0.04142631 -0.43787703 0.61870426
0002b0 1d c4 70 3e 38 92 11 3e 99 41 ae bd c1 ad a7 3d
       0.23512311 0.14215934 -0.085086055 0.08187438
0002c0 33 0d 4d 3d c6 7d c0 be b5 09 07 be 76 09 0b 3e
       0.050061416 -0.37595958 -0.13187297 0.13577828
0002d0 f3 08 23 bf c1 3f 94 be 5c ba a8 bd cd 09 d1 3e
       -0.6368553 -0.2895489 -0.0823867 0.4082779
0002e0 72 ff 74 3e ed 35 f5 be 9b d1 51 bf bf 73 58 be
       0.2392557 -0.47892705 -0.8196046 -0.21137904
0002f0 d3 00 31 3f 55 2f ce 3e 92 64 aa be ab 1c 35 bf
       0.6914188 0.40270486 -0.33279854 -0.7074687
000300 c1 fd c8 bd fb c4 64 3e ff 33 db 3e 37 19 ad be
       -0.09814025 0.22340767 0.42813107 -0.338083
000310 86 e9 4e bc 5c 9d 1a be 7d df 66 3d 78 7c 5c be
       -0.0126289185 -0.1509909 0.05636548 -0.21531856
000320 dd 5d 78 bd 28 bb 98 3e dc a9 db 3e 37 59 4a 3e
       -0.06063639 0.2983029 0.4290303 0.19760595
000330 82 3d 80 bb db 37 4b bf 99 89 a3 be 1a 87 84 3d
       -0.0039135823 -0.79382104 -0.31940916 0.06471081
000340 8e e4 5a 3f b8 1f c2 3e 2a 2f 3e bf 99 df 3a bf
       0.85504997 0.37914824 -0.74290717 -0.7299743
000350 52 e0 2d bd b0 ed 6c 3f 75 3a a6 3e da af ad be
       -0.042450257 0.9255018 0.32466474 -0.33923227
000360 3e 89 37 bf 10 5f 25 3d 18 05 b3 3e e8 24 61 3e
       -0.7169379 0.04037386 0.34964824 0.21986735
000370 a9 b6 8d 3d 43 f8 09 3e 91 c8 ae 3e 51 cd 0e 3f
       0.06919605 0.1347361 0.34137395 0.5578204
000380 84 75 be bd b6 56 1b 3f 15 9d c2 bd 52 08 8a 3b
       -0.09299758 0.60679185 -0.09502617 0.0042124176
000390 78 a9 b4 3e 73 2e 29 3f cb b6 de bd 51 b1 21 bf
       0.35285544 0.660865 -0.10874709 -0.6316119
0003a0 9a cc ba be 15 58 39 be f5 16 ea 3d ad 6d 55 bf
       -0.36484224 -0.18100007 0.1143016 -0.83370477
0003b0 fc f8 a5 bf 9f 22 0d bf a4 91 ba bd 61 2e 14 be
       -1.2966609 -0.5513095 -0.0910981 -0.14470817
0003c0 48 44 37 bf d6 4f 53 bf 0c b4 1b be 7e 22 7c 3e
       -0.71588564 -0.82543695 -0.15205401 0.24622533
0003d0 e9 4e 1b 3f d6 82 af be eb 0f 4e be b8 f9 7c bd
       0.6066728 -0.34279507 -0.2012326 -0.061761588
0003e0 9b 37 d1 3e 94 86 f7 3e 26 fe 0a bf 27 26 e9 be
       0.40862736 0.48344862 -0.5429405 -0.4553692
0003f0 6d b1 26 bf 80 e9 f8 bd ad 75 9f bd 81 65 42 3e
       -0.6511448 -0.121539116 -0.07786117 0.18984033

conv1.bias f4 [6]
000000 09 d7 6c bf 87 08 80 bf 38 87 82 bf d5 9b d0 3e
       -0.9251562 -1.0002602 -1.0197515 0.4074389
000010 69 2d a3 bf f5 0d a3 bf
       -1.2748233 -1.2738634

conv2.weight f4 [16, 6, 5, 5]
000000 75 7f 2d bf b7 1d 6f be 2e 4f 9b 3e 52 55 2c bd
       -0.6777261 -0.23351179 0.30333847 -0.042073555
000010 15 76 68 3c 2d f5 cb be b9 55 4f 3d 05 61 40 bf
       0.014188309 -0.39835492 0.05061886 -0.7514804
000020 72 4d af 3f 57 5b 5f be cd dc b8 be 90 d2 8d 3e
       1.369551 -0.21812187 -0.36105958 0.2769971
000030 94 7d e5 3e f2 3c 53 be ac 82 90 3e 8d f1 46 bd
       0.4482237 -0.20628718 0.28224695 -0.048570205
000040 c4 c8 cc 3e fd 65 e4 be 66 f2 0b 3e 0c ec 62 3f
       0.39996922 -0.4460906 0.13666686 0.8864143
000050 88 9a 83 3e ec 64 17 be a7 3c 23 3f c8 e7 ba 3e
       0.25703835 -0.14784592 0.63764423 0.3650496
000060 25 41 27 3e b7 40 3f 3e fc 66 39 be 29 34 ff 3e
       0.16333444 0.1867703 -0.18105692 0.49844483
000070 ef 0e 65 be 12 b2 b7 3e 38 73 e8 bc cf aa 1a be
       -0.22368978 0.35878044 -0.028375253 -0.15104221
000080 21 eb 50 3e d5 19 f8 be e0 30 ed 3d e3 06 fd bc
       0.20402195 -0.48457208 0.11581588 -0.030887073
000090 8f 4b 1c bb 73 d1 ab be 44 6b 92 3e ea c6 78 3d
       -0.0023848747 -0.33558235 0.28597462 0.060736574
0000a0 79 d2 6f be e6 71 a2 be 32 df 15 bd ee ed 53 be
       -0.23420133 -0.31727523 -0.03658981 -0.20696232
0000b0 fa b0 ba 3e 1b ed 83 3e 6b 85 26 3e 94 69 6b be
       0.36463147 0.25766835 0.16261832 -0.22989494
0000c0 84 fb 8f 3e 57 32 a8 be da c7 e6 bd 49 da ab be
       0.2812158 -0.32850906 -0.112685874 -0.33564976
0000d0 88 78 c2 3e 7b 10 12 be f9 c3 8f be e3 51 25 bf
       0.37982583 -0.142641 -0.28079203 -0.64578074
0000e0 90 45 4d be 64 d2 46 3f 29 02 63 be 5c 22 c5 3d
       -0.20046067 0.7766478 -0.22168793 0.09625694
0000f0 00 3c 4d bf ea f4 0f bf d2 30 3c bf e0 90 f0 bd
       -0.8016968 -0.56233084 -0.73511994 -0.11746383
000100 8b 28 1e 3e 7a f8 20 be 54 80 4f bf f9 33 07 3c
       0.15445153 -0.15719786 -0.8105519 0.008252137
000110 02 11 df bd fc 78 c6 bd fb b7 aa be 2a 31 5c 3d
       -0.10891916 -0.09691045 -0.3334349 0.053757824
000120 19 0e 2c bc d1 f8 aa be 3b b5 5e bf 0a 4b 15 3d
       -0.010501408 -0.33392957 -0.86995286 0.036448516
000130 6a 5e b9 3e 67 09 67 3e af eb 6c 3e 74 68 58 3e
       0.36204845 0.2256218 0.23136781 0.21133596
000140 18 bc ba be 6b bb 28 3e 1a d5 6f 3e b3 7b 85 3e
       -0.3647163 0.16477744 0.23421136 0.26070938
000150 f3 b0 1d 3b a8 ea 1e bf 6e 66 00 bf 15 03 a3 be
       0.0024061769 -0.6207681 -0.50156295 -0.3183829
000160 da c1 86 be ce db a9 be 99 1f 82 bf d1 27 d3 be
       -0.26319772 -0.3317551 -1.0165893 -0.41241315
000170 03 9f 9a be 5c 6a b4 be 92 da 5f bf 2c 58 5a bf
       -0.3019944 -0.35237396 -0.87442887 -0.8529079
000180 fb b9 0e bf 3c 93 d6 be b0 0c 6f bf 01 47 aa bf
       -0.55752534 -0.41909206 -0.93378735 -1.3302919
000190 2b 2e 56 bf 87 89 05 3f 25 51 72 3f 3f ca e7 3c
       -0.83664197 0.52162975 0.94655067 0.02829468
0001a0 8d 83 7f be ed 9d c4 3c 28 32 29 3e 24 93 fd bd
       -0.24952526 0.024001086 0.1652304 -0.123815805
0001b0 34 18 69 3e 9a 60 81 be 10 f7 98 be ae 98 01 bf
       0.22763139 -0.25269014 -0.29875994 -0.50623596
0001c0 c5 74 ad 3e dc ff f4 3e 45 50 08 be 60 46 b1 be
       0.3387815 0.47851455 -0.1331187 -0.34624004
0001d0 59 c0 03 bf 81 ac 2d bf bc 40 a0 be 97 8e f9 be
       -0.51465374 -0.67841345 -0.31299388 -0.487416
0001e0 34 f4 30 bf db 36 e1 be 4f 98 15 bf ce 7a 45 bd
       -0.69122624 -0.43987164 -0.5843553 -0.04821282
0001f0 7b 09 1e bf fa 81 dc 3e 0d f5 f4 3d 32 d0 83 be
       -0.61733216 0.43067914 0.11960802 -0.25744778
000200 5a 26 50 3d db e0 b9 be 7f 2a 36 3c b7 a8 08 bf
       0.050817825 -0.36304364 0.01111853 -0.5338244
000210 d5 77 1f bf 48 06 5c 3e 65 20 3b 3e ca a4 e6 3c
       -0.62292224 0.21486771 0.18274076 0.02815475
000220 8e 3c 28 3e df 8a b4 be 87 d8 bc bd f7 76 6b bd
       0.1642935 -0.352622 -0.09220987 -0.0574865
000230 66 88 ad 3e 46 c0 bb 3d 5c 26 fa bd 76 47 02 3e
       0.33893126 0.091675326 -0.12214348 0.12722573
000240 a5 28 03 bf b7 3c 25 be f3 d2 51 3f ec 3d f4 3c
       -0.51233894 -0.16136442 0.8196251 0.029814683
000250 19 19 60 be e4 40 45 3f 40 1d 4d 3f 1f 98 15 be
       -0.21884574 0.7705214 0.80122757 -0.14608811
000260 47 14 86 3e 0c d1 9e be ba a6 16 bf b5 eb 65 3d
       0.26187345 -0.31018865 -0.58848155 0.05613299
000270 a1 e5 93 be 0e b1 a3 3e ae 5d 1b be a7 13 8e bf
       -0.2888613 0.3197102 -0.15172455 -1.1099747
000280 05 91 9d 3e 1d 1f fc be 25 64 8a bd 98 f9 c4 be
       0.30774704 -0.49242488 -0.06757382 -0.38471675
000290 4d c9 56 bf 2d 38 2f 3f a4 58 46 3e 5c a8 47 3e
       -0.8390091 0.6844509 0.19369751 0.19497818
0002a0 d4 43 e4 be e1 41 f3 be b6 1d cf 3e ec a6 4b be
       -0.44583 -0.475112 0.40452355 -0.19887894
0002b0 db 5a 41 be 52 20 66 3e 71 f6 4c 3e 89 14 cd be
       -0.18882315 0.22473267 0.20015885 -0.4005473
0002c0 d1 d5 70 3d 4e f3 f2 3e 0e 4b 00 3f 5c 1d f1 3e
       0.05879766 0.47451252 0.50114524 0.47092712
0002d0 01 43 9d bf c8 55 43 bf 3c dc fa be 3b 2a 06 bf
       -1.2286073 -0.76302767 -0.4899615 -0.5240819
0002e0 da 98 4e bf 01 26 84 bf b7 a0 a2 be fd 47 0a 3e
       -0.8070198 -1.0324098 -0.3176324 0.13504024
0002f0 af 29 f7 3c 64 a9 cc 3e ba 4d 1b 3e 9f da 38 3f
       0.030171243 0.39972985 0.15166369 0.7220859
000300 34 d4 32 3f f6 44 89 3f cf e8 a2 3f 66 bf 0a bf
       0.69855046 1.072417 1.2727298 -0.541983
000310 ea df 17 bf 48 5c a0 3d 31 9f ef bd 4d 92 2c bf
       -0.5932604 0.07830101 -0.11700285 -0.6741074
000320 93 7d 9e 3e 70 b5 2f 3f f9 51 03 3f 81 f3 d9 be
       0.3095518 0.68636227 0.51296955 -0.4256859
000330 01 6a e1 be 90 ad b3 3d 7c 09 fb 3e 44 5c 97 bd
       -0.44026187 0.08773339 0.49030674 -0.07390645
000340 64 fc 97 be 6a 8f 1b bf 42 19 4e 3d 26 c5 a0 bd
       -0.29684746 -0.6076571 0.050317056 -0.07850103
000350 e5 68 9f be 79 1e 8e be a6 91 e1 be f3 e8 a2 be
       -0.31134716 -0.27757624 -0.44056433 -0.3181835
000360 a1 58 2e 3d 8d 19 23 be 50 d4 f4 bd 63 20 84 bd
       0.04256499 -0.15927716 -0.11954558 -0.0645149
000370 1a 34 d8 be 2c f6 f0 3c 6c 69 17 be cd 6b 4c 3b
       -0.4222725 0.029414259 -0.14786309 0.0031192184
000380 77 4f 26 3e ac df 53 3f 26 37 09 3f a1 87 0f be
       0.16241251 0.8276317 0.53599775 -0.14016582
000390 4c 01 ac be 7a 46 f4 3e f6 f9 1f be 73 b4 b6 3e
       -0.3359474 0.4771002 -0.15622696 0.35684547
0003a0 62 30 fd be 4e fa d3 be 86 53 4b bd 96 a3 bd 3d
       -0.49450976 -0.41401905 -0.0496402 0.09259717
0003b0 cc 1f 33 3e 88 d1 fc be cf d7 b1 be cf 15 86 bd
       0.17492598 -0.4937861 -0.3473496 -0.065471284
0003c0 7d 0d 36 3e e8 7a fa 3c d5 89 4c be 2a 81 c8 be
       0.17778583 0.030576184 -0.19974454 -0.39161044
0003d0 2f aa 51 bc d3 cc d7 3e 93 ea 88 3e c2 e0 f8 3d
       -0.012796923 0.42148456 0.26741466 0.12152244
0003e0 48 53 0b be 11 be ea 3b a2 47 a8 3e 52 94 6f bd
       -0.13605988 0.007163771 0.32867151 -0.05849106
0003f0 7f 5a f0 be ae ce 84 be 83 46 d6 be c1 f0 7b 3d
       -0.46944043 -0.25938934 -0.4185067 0.061508898

conv2.bias f4 [16]
000000 3d 34 4a 40 77 3f 07 c0 aa 4e 1e bf 5f 23 06 bf
       3.1594384 -2.1132486 -0.6183878 -0.5239772
000010 9c 3a 96 bf 51 3f 8b be 67 df a7 c0 0c 27 61 3f
       -1.1736636 -0.27196744 -5.246021 0.87950206
000020 c4 46 ed be da 91 b2 bf f9 28 92 3e 45 b3 e7 bf
       -0.46343052 -1.395076 0.28546885 -1.8101584
000030 9a 72 11 bf b8 ee 00 40 64 c7 04 40 55 24 3f bf
       -0.56815493 2.0145702 2.0746698 -0.74664813

fc1.weight f4 [120, 400]
000000 c2 51 43 be ec 38 21 be 67 74 09 3d 2d 60 50 bc
       -0.19074157 -0.1574437 0.033558276 -0.012718243
000010 12 94 a5 3d 44 45 41 bd 8a f1 3c 3e 16 cd 86 3d
       0.08084883 -0.047185197 0.18451515 0.06582086
000020 f7 be 0e be 42 a7 9d bd 28 72 bf 3e e2 fb 42 be
       -0.13940035 -0.076979175 0.37391782 -0.19041398
000030 f1 07 c5 3e d0 28 3d 3e 67 a6 3d 3d dc 51 37 3e
       0.3848262 0.184726 0.04630127 0.1790232
000040 f7 ed 1f 3d 43 63 70 3e c5 d2 25 be b0 47 38 3d
       0.0390453 0.23475365 -0.16193683 0.04499024
000050 31 75 2b be ef 10 98 be f3 0a 86 3e 96 22 68 bd
       -0.16743924 -0.2970042 0.2618023 -0.05667361
000060 b0 d6 3e 3c c7 68 82 3e 23 ef 60 3e f5 1b 91 3e
       0.011647865 0.25470564 0.21966223 0.28341642
000070 f6 a4 6f bd 52 69 ba 3d 8f 5e 4b bd f5 34 81 3e
       -0.05850693 0.091021195 -0.049650725 0.25235716
000080 5b 10 86 3d 7c da e7 be aa b4 42 be 65 5b c3 be
       0.06546088 -0.45283878 -0.1901423 -0.38155666
000090 14 3e 8f be 6a 17 de bd 59 72 47 be e5 6e 21 bc
       -0.2797705 -0.1084431 -0.19477214 -0.0098530995
0000a0 33 bd cc bc 82 8b 20 be b2 45 2c 3e e8 59 88 3e
       -0.024992561 -0.15678218 0.16823462 0.26631093
0000b0 a7 81 1e be bf 2a 39 3e b9 aa 64 be fe e7 9e 3e
       -0.15479146 0.18082713 -0.2233075 0.3103637
0000c0 5a 02 25 3e 02 bf 9c 3e f5 36 86 3e b4 30 d4 3e
       0.16114178 0.30614477 0.26213804 0.41443408
0000d0 26 e3 16 be 81 90 83 bd 2e 0c 02 3d b3 a0 da bc
       -0.14735088 -0.06424046 0.031749897 -0.026687955
0000e0 60 10 ce 3a 1b 0a 4e 3e d2 85 f5 bd 1b 69 96 3c
       0.0015721433 0.20121042 -0.11988415 0.018360665
0000f0 de 77 3a 3d 6a 35 68 be 7e 9e 10 3e a4 67 38 3e
       0.04552447 -0.22676626 0.1412296 0.18008286
000100 f5 da 39 be 10 5e be 3d 83 70 75 3e 6b 78 fb be
       -0.18149932 0.09295285 0.23968701 -0.4911531
000110 89 04 d7 bd e7 e7 bc be 2c 81 55 3e 59 b5 a5 be
       -0.10498912 -0.36895677 0.20850056 -0.3236492
000120 3e aa 5b bf 4d be 5e 3b aa 50 94 be 75 fb 63 3e
       -0.85806644 0.003398794 -0.28967792 0.22263892
000130 ea 21 9e 3d a1 f0 65 3c 1c dd b8 3c 68 8d 23 be
       0.07721312 0.014034421 0.02256637 -0.15971911
000140 51 1d 27 3d c1 3b 70 3e 0d 44 1f 3e d4 58 f5 3d
       0.040799443 0.23460294 0.15553303 0.11979833
000150 50 bb 52 3d 16 19 1b be 8e b5 40 3e 3b 3d 35 3e
       0.051448166 -0.15146288 0.18819258 0.17699139
000160 c2 bb e6 3d b1 ea ba be fd 31 af be e2 a4 85 be
       0.11266281 -0.3650718 -0.34217826 -0.26102358
000170 60 49 9a 3e e6 14 07 3e 76 b2 97 be fe ec 8e 3e
       0.30134106 0.13191566 -0.29628342 0.27915186
000180 d9 56 8b 3d 05 ab 7a 3e 9c 16 66 3e 2e f6 8b be
       0.06803674 0.24479301 0.22469562 -0.27336258
000190 17 7e 0b 3e 8f 0e 74 bd 58 5a 39 be 41 a3 d3 bd
       0.13622318 -0.059584197 -0.1810087 -0.103338726
0001a0 0a 5e 72 be e1 99 cc 3d c1 d0 8e 3d 3b be b3 ba
       -0.23668686 0.099902876 0.069734104 -0.0013713309
0001b0 a6 a7 12 3d 36 dd c1 be 02 84 f3 bd 43 3e a2 3a
       0.035804413 -0.37864083 -0.11890413 0.0012378175
0001c0 fd 49 dd 3b 65 0d 72 3e 7b fa 2d be a8 ea 63 3e
       0.006753205 0.23637922 -0.16990082 0.22257483
0001d0 ca 79 96 3d f8 1d 5e bd b2 76 db bd 9f e8 e4 3d
       0.07347448 -0.0542278 -0.10715999 0.111771815
0001e0 be 5b 61 3e 18 78 be bd 99 a8 56 3d 72 8a 01 bf
       0.22007653 -0.0930025 0.05240688 -0.50601876
0001f0 aa 67 0b 3f 7a 98 ae 3d dc 32 c9 bd 97 be 57 bd
       0.54455054 0.08525176 -0.09824154 -0.052671995
000200 57 97 01 3e dd 0b 5b be 7d 5e 45 bd dc 99 80 be
       0.12655388 -0.21391244 -0.048185814 -0.25117385
000210 db 71 17 be f8 89 8d 3e 6a 4d 0a be fd d8 ed 3c
       -0.14789526 0.27644324 -0.13506094 0.029034132
000220 4e af ed bd 96 97 0d 3c a8 a6 89 3c ce 28 0f be
       -0.11605702 0.008642098 0.0168031 -0.1398041
000230 40 90 38 3e 40 02 72 3c ce 41 25 be 1e d0 a3 ba
       0.18023777 0.014771044 -0.16138384 -0.0012497937
000240 6d 44 8f be f2 85 0c bf f3 dd 23 be ce 22 e7 be
       -0.27981892 -0.54891884 -0.16002636 -0.4514374
000250 a0 23 49 be f4 53 a2 be 26 e3 5c be 0c 1a 5f 3e
       -0.19642496 -0.31704676 -0.21571025 0.2178728
000260 c8 d8 d0 3d 64 ff 3d 3e ed c0 52 be f9 75 07 3e
       0.10197598 0.18554455 -0.20581408 0.13228597
000270 f3 24 b8 bd 0a ea 03 3d 5a 03 07 3e fc b5 95 be
       -0.089914225 0.03220562 0.13184872 -0.29240406
000280 b4 47 d7 3d 6f 37 3c be cc 20 e5 be b3 1a d6 be
       0.10511723 -0.18380521 -0.44751585 -0.41817245
000290 5f 2c cb be a0 d6 30 be 41 c6 8c bd b3 e2 50 be
       -0.3968229 -0.17269373 -0.068737514 -0.20398979
0002a0 82 c3 d6 bd b2 0c 4e be 85 47 ff 3d 47 b0 67 be
       -0.10486509 -0.2012203 0.12464813 -0.22625838
0002b0 76 0f 07 bf 1a 24 3b be 1b d9 33 bf eb b0 4e 3d
       -0.52757967 -0.1827549 -0.7025315 0.05046169
0002c0 19 87 64 be 8c 1d 57 3d 73 3d df bd e6 d7 aa 3b
       -0.2231716 0.052518412 -0.109003924 0.0052137254
0002d0 91 bc 44 3d b7 b9 89 be 0d b1 7e bd a3 af 54 3d
       0.048031393 -0.26899502 -0.062180568 0.051925313
0002e0 74 b7 a2 3e 7b d7 d7 3c fa bc 2d be ea 75 30 be
       0.3178059 0.026347866 -0.1696662 -0.1723248
0002f0 b6 4f 2e 3e 86 ba 9e be 32 d2 6c bd 7c 86 a7 3e
       0.17022595 -0.3100168 -0.057817645 0.3271979
000300 4c c1 1c 3e df 57 c7 3e f7 f4 25 3d 9e 6b 37 3f
       0.15308112 0.38934228 0.04051682 0.71648586
000310 10 21 0f 3f 53 ca 48 be a7 14 40 3d 73 6c b4 bd
       0.55909824 -0.1960843 0.046894696 -0.088097475
000320 cb 3a 29 3e 65 64 ef 3b 1e 98 6d bd b6 83 32 be
       0.16526334 0.007305669 -0.0580064 -0.17433056
000330 0c 4f 12 be 21 11 8e 3d 6c 45 3b 3e 4c a9 bf 3d
       -0.14287966 0.06936861 0.18288201 0.09358463
000340 b1 eb 78 3e 13 66 a1 be 48 6c 75 3c ab 93 67 3c
       0.24308659 -0.3152319 0.01497943 0.014134328
000350 e6 ee 92 3e a1 11 b7 3d 72 e4 a4 3e 57 ae 74 3e
       0.2869789 0.08938909 0.3220554 0.2389463
000360 b4 9c 27 3e 40 e4 56 3e 85 bc 06 be 90 d8 3a be
       0.16368371 0.20985508 -0.13157852 -0.18246675
000370 cd 04 d9 bd 86 f2 76 be 8c fc a0 3e 67 21 d4 3e
       -0.10596619 -0.24115953 0.31442678 0.41431734
000380 34 4f 30 3e 46 fc 81 be d6 a5 2c 3d 16 b8 ac 3c
       0.17217714 -0.25387782 0.04215034 0.021083873
000390 f3 a1 dd 3d 57 84 80 3e d5 06 91 be d4 fb 87 3d
       0.10821905 0.25100967 -0.28325525 0.06639829
0003a0 f9 6f f4 3d 17 48 e5 bd 63 38 1c bd 0f 14 0d bf
       0.119354196 -0.11195391 -0.038139712 -0.5510873
0003b0 18 b1 4c be c2 eb 1c bd ae 90 9f be f8 ae cb be
       -0.19989431 -0.038310774 -0.3116507 -0.39781928
0003c0 0b e9 bf bd db a8 40 bf 62 8d e5 bd f1 36 cd b9
       -0.09370621 -0.75257653 -0.11208607 -0.00039141582
0003d0 f8 97 44 be db c4 c3 3c cd ad a6 be c6 fc 03 3e
       -0.19198596 0.023897579 -0.32554474 0.12889394
0003e0 73 47 d3 be 49 05 a2 bd 35 ab ab bd 2f d2 1f 3d
       -0.4126545 -0.07911164 -0.083822645 0.039018806
0003f0 0e 59 18 3d d0 7b 9f 3d 47 86 83 be bf 91 41 3d
       0.037194304 0.07787287 -0.25688383 0.047258135

fc1.bias f4 [120]
000000 9e c6 39 3e b3 cd 58 3e 28 80 df be 88 72 af 3e
       0.18142173 0.21172218 -0.43652463 0.34267068
000010 87 2e 21 3f db 69 4d bf d0 38 47 3e 09 ac e3 bd
       0.6296162 -0.8023965 0.19455266 -0.111167975
000020 21 18 01 3d 83 54 fe 3d c5 a8 dc bd b1 18 24 3e
       0.03151715 0.12418463 -0.10774378 0.16025044
000030 6d cd ec 3d 7a b9 39 3d 24 10 8e be 32 8e ca 3e
       0.11562619 0.0453429 -0.2774669 0.3956161
000040 e5 5c e0 3e 78 57 8a be 99 70 bb bd 29 49 f3 be
       0.43820873 -0.27019858 -0.09152336 -0.47516754
000050 05 54 e2 3d 6e c7 88 be fc 55 00 bf fe 9f 0f bf
       0.11051182 -0.26714653 -0.501312 -0.56103504
000060 34 f3 8d bd 1e 5a 02 3f 4c 7d 9e 3d 23 67 46 3c
       -0.06931153 0.5091876 0.07738742 0.012109551
000070 be 27 19 3d cd 8f 84 be 27 94 7c be a4 6e 16 3c
       0.037391417 -0.2589096 -0.2466589 0.009181652
000080 c3 3e a1 3d 62 7f 78 be 97 63 47 be d9 7c 27 3c
       0.07873299 -0.24267343 -0.19471584 0.010222637
000090 ae 78 0e 3e ae 50 ac 3d 3b d9 00 be cc 1e ae 3e
       0.13913223 0.08413826 -0.12582867 0.3400787
0000a0 bd 24 45 3f a4 74 2b 3f 71 60 a1 3e fd c5 15 be
       0.77009183 0.66974854 0.3151889 -0.14626308
0000b0 3d 30 22 be 47 95 a6 3d a4 c9 01 3d d8 62 d3 3e
       -0.15838714 0.08133941 0.03168644 0.4128635
0000c0 26 52 48 3e d4 fb 44 bc fe 0d 0a bf 86 00 99 be
       0.19562587 -0.012022931 -0.539276 -0.29883212
0000d0 7d fa ad 3d 43 7d 06 be ed db 26 be a4 71 ed be
       0.084950425 -0.13133721 -0.16294833 -0.46375763
0000e0 cc d2 c1 3e c7 bf d4 3e ed b9 fb 3e e7 2d dd 3d
       0.37856138 0.41552565 0.49165288 0.10799771
0000f0 1b 75 d5 be ec 8a f3 3e e8 93 9c 3d 36 67 05 be
       -0.41690907 0.47566926 0.076453984 -0.13027653
000100 57 79 8d 3e 67 ee 92 be 95 0b 10 3a 5f 41 a2 bc
       0.27631637 -0.28697512 0.000549489 -0.019806562
000110 ba 89 13 be db 8d 9f 3e 9b c7 00 3f 68 d2 dd 3e
       -0.14408007 0.31162915 0.50304574 0.4332459
000120 f4 f6 2c 3e a9 c7 e2 3e bc 27 6a bd b6 3c af bd
       0.1689108 0.44292954 -0.0571668 -0.085565016
000130 14 b5 bc 3e 6f d8 27 be 9c 8d 34 be fa d4 de 3d
       0.36856902 -0.16391157 -0.17632145 0.10880466
000140 8c 15 9c 3d 81 4f 0d be 11 35 00 3f 2f c1 47 3e
       0.07621297 -0.1379986 0.5008097 0.19507287
000150 76 53 99 bd f8 54 aa 3d 43 05 42 3e 07 96 69 bd
       -0.07486622 0.08316988 0.1894732 -0.057027843
000160 4e d5 bc bd 41 1e 91 3e 88 57 3a be c1 41 b8 bc
       -0.09220372 0.28343394 -0.18197453 -0.022492291
000170 06 be 67 be f6 ac 95 be 02 1b 99 bd d2 cb 46 3e
       -0.22631082 -0.2923352 -0.074758545 0.19413689
000180 4a 9a 9d be ed 81 50 3e af 3a 2d bd 9a 26 91 be
       -0.30781776 0.20362063 -0.042292293 -0.28349763
000190 8b af 03 3d 24 70 56 3e 9b 2b 72 be 7b af 9a 3d
       0.032149833 0.20941216 -0.23649447 0.075530015
0001a0 d8 38 63 3e 4a d7 01 bf 0b d6 66 bd 62 dd 8e 3d
       0.22189653 -0.5071913 -0.05635647 0.06975819
0001b0 2a 00 4e bd d6 1b 07 bf 9a e7 97 3e 42 aa ec ba
       -0.050293125 -0.5277685 0.29668885 -0.0018056112
0001c0 db 88 df 3d ce 8f 84 be 8a c7 e3 3d c8 2d 04 3b
       0.10914775 -0.25890964 0.111220434 0.002016889
0001d0 4c 02 6a bd 1b 7f 82 be c0 dc 06 bf 24 1e 6e 3e
       -0.057131097 -0.254876 -0.5268059 0.23253685

fc2.weight f4 [84, 120]
000000 3c 5c 0b 3c c1 46 57 bc c7 20 62 3d 36 97 ef bd
       0.008505877 -0.013139428 0.05520704 -0.11698763
000010 0e 41 12 bd 79 2d 4e be 5f ed 87 be 68 bd a4 3d
       -0.035706572 -0.20134534 -0.26548287 0.08043939
000020 7a 74 0f 3e 0c e5 1c bb 34 51 eb be 2f 48 78 be
       0.14009276 -0.0023940234 -0.4596039 -0.24246286
000030 b7 a1 ae bd 8c c4 57 bd 89 16 49 be bd 92 75 3e
       -0.085269384 -0.052677676 -0.19637503 0.23981757
000040 20 58 0a 3d ba a7 98 3d db f5 3c bc 3d 75 0f be
       0.03377545 0.07453866 -0.011533226 -0.14009567
000050 f2 64 95 be 99 1c 93 bd 5b 10 ad be bb d5 b2 be
       -0.29178578 -0.07183189 -0.3380154 -0.34928688
000060 67 b6 5a be da 1b 30 3e 1a 3a d0 3c 6d 64 9f 3d
       -0.21358643 0.17198125 0.02541833 0.077828266
000070 b8 81 1c 3e 59 e9 0c be d7 06 fc bd 95 3f 9e 3b
       0.15283859 -0.1376089 -0.12305992 0.004829357
000080 15 0c cc bd 74 c7 bb 3e 61 5c d4 bc 96 f0 81 be
       -0.09963242 0.36675608 -0.025922956 -0.25378865
000090 bd 24 db 3b 6d 15 78 3d 44 c0 2e be 5b 02 f2 be
       0.006687729 0.06056731 -0.17065531 -0.47267422
0000a0 b9 91 87 3d 9f c7 51 3e 58 d4 a7 be ab de ad be
       0.06619591 0.20486306 -0.32779193 -0.33958945
0000b0 cc a1 f0 be d3 e7 f4 be 18 a3 ee bb dd 25 dd 3d
       -0.4699844 -0.47833118 -0.007282626 0.107982375
0000c0 0c bc 03 bf e6 7c 86 bc f4 5e e2 bd 09 43 9d be
       -0.5145881 -0.016416978 -0.11053267 -0.30715206
0000d0 86 e2 d8 3d 5a 55 a1 be 2f 67 1b 3e 81 ce 01 be
       0.10590081 -0.3151043 0.1517608 -0.12676431
0000e0 4f de e7 bd c9 4e 44 3e 6a 95 82 bd 45 25 80 3e
       -0.11321699 0.19170679 -0.06376155 0.25028434
0000f0 ff a2 21 bb 1a d2 ce 3e 68 34 0a bf 2a 29 d2 bd
       -0.0024663804 0.4039467 -0.53986216 -0.10261758
000100 d3 25 93 3c 65 f9 dd 3c 0b c1 82 be b3 cf 55 3e
       0.017962372 0.02709646 -0.25537905 0.20880012
000110 4a 90 74 3d e9 12 4c be d9 d9 34 bc 33 78 98 be
       0.059707917 -0.19929089 -0.011038267 -0.29779205
000120 b2 69 40 3d 4e 11 1a bd e4 ca 86 3e 33 2d 10 bd
       0.0469758 -0.03761416 0.26326668 -0.035199355
000130 54 d5 9d be 02 41 af 3d b1 39 3b be 83 aa 9b 3e
       -0.3082682 0.08557321 -0.18283726 0.30403528
000140 2b f5 b0 be 91 0e a3 be 92 52 b8 3d e3 5e 61 bb
       -0.34562048 -0.3184705 0.09000124 -0.0034388832
000150 e9 df 06 bd 4d dd 94 3d e8 0e 4d be 23 04 8a 3d
       -0.03292838 0.07268772 -0.20025218 0.0673907
000160 b1 2d 48 bd 19 80 0a be 3d 7f 75 be e5 28 db bd
       -0.0488717 -0.13525428 -0.23974319 -0.107011594
000170 71 e5 51 3e 5f 8b 97 be f8 34 91 bd 56 ac 63 be
       0.20497681 -0.2959852 -0.07090181 -0.2223371
000180 9c 88 65 be ed 78 59 bd 0e d1 67 3e f4 94 ce 3d
       -0.22415394 -0.05309384 0.22638342 0.10087004
000190 7b 8a d1 3b 93 09 08 be 6f 3a b9 3d 97 80 db 3d
       0.006394682 -0.13284902 0.090443484 0.10717886
0001a0 a0 8a 27 be 83 77 32 3c b1 a4 40 bd 00 d3 c5 be
       -0.16361475 0.010892752 -0.047032062 -0.38637543
0001b0 1a f6 4f bd ee 49 95 bd af 6a d5 3d 3e ba fe bc
       -0.05077181 -0.072894916 0.10420739 -0.031094667
0001c0 6e e4 ab be 3e 6f 0b be 80 27 89 be 2b a2 37 bd
       -0.33572716 -0.13616654 -0.2678795 -0.04483239
0001d0 e8 9e 88 be 89 8e bf 3c 4d 68 91 3e 22 95 6d 3d
       -0.26683736 0.023383396 0.28399888 0.058003552
0001e0 c4 5e f9 be 83 da ba 3d da 33 5c 3d c0 dd 1e bb
       -0.48705113 0.09123709 0.053760387 -0.002424106
0001f0 be ef 97 be 5d aa 93 bb d5 cc bb 3d 2b d7 8c bd
       -0.29675096 -0.004506393 0.09169928 -0.068769775
000200 25 e3 07 bf 8d 75 2a bf c5 75 92 be 6f fc bc bc
       -0.5308097 -0.6658562 -0.28605476 -0.023069588
000210 f4 54 6e be 59 29 a6 bb ee d7 91 be 0b 0b 52 bc
       -0.23274595 -0.005070847 -0.28485054 -0.012820016
000220 4a ea e9 3c 35 c2 09 be 5a 3c 72 be 74 09 bd bc
       0.0285541 -0.1345299 -0.23655835 -0.023075797
000230 aa 64 5e 3e 35 99 ef bc a9 ad 8b 3e e9 44 92 3e
       0.21718088 -0.02924786 0.2728093 0.285682
000240 f3 85 14 3e 0c 0d 1a bd c4 74 e4 3d b5 52 c7 bc
       0.14504223 -0.0376101 0.11155084 -0.02433143
000250 c3 fc ae be 30 9a ac 3e bb 4e ea bd 51 53 06 3e
       -0.34177217 0.33711386 -0.11440798 0.1311772
000260 ec e8 88 be f7 a0 35 bd 87 fa 9d 3b 48 79 e0 3d
       -0.26740205 -0.04434296 0.004821125 0.109606326
000270 5b 2d 52 bd 9a f7 0a 3e 62 0d 4c 3e 33 6f 0f 3e
       -0.051312786 0.13571015 0.1992698 0.14007263
000280 99 82 4b 3d 6c 58 ec be 33 59 6f be e4 c7 8c 3d
       0.049685095 -0.4616121 -0.2337387 0.068740636
000290 bf 4e 0f 3d 6a 2a 1d 3d 10 8e bd be c0 ad cd 3c
       0.034987208 0.038370527 -0.37022448 0.025107265
0002a0 8e 7d f2 be b9 72 46 be 1a 98 1c 3e f3 78 4d 3e
       -0.47361416 -0.193797 0.15292397 0.2006567
0002b0 7b 91 9e be 10 4b 67 3c 5a 88 0e 3d 82 43 b6 3d
       -0.30970368 0.014117017 0.034798004 0.08899595
0002c0 e2 3f 65 3e c1 66 a9 bd 7e 1b 0d 3e 0c 05 06 be
       0.2238765 -0.08271552 0.13780019 -0.13087863
0002d0 ee 3b 80 be 39 1d 1c be 6f e7 a6 bd 1a e7 f7 bd
       -0.25045723 -0.15245523 -0.08149611 -0.12104626
0002e0 f4 6d a3 be da 53 05 bd 32 3b 0b 3e 76 39 a4 be
       -0.31919825 -0.03255067 0.135968 -0.3207509
0002f0 f7 64 05 3d 1a 09 29 be c6 5d 8c be c0 5a d6 be
       0.03256699 -0.16507378 -0.27415293 -0.41866112
000300 7d ee 09 bd 88 11 9d 3e 47 94 83 3e b2 31 29 3e
       -0.033674706 0.30677438 0.25699064 0.16522864
000310 3f d6 4f 3e d9 fb 7e be 5e 7f 82 be 84 55 8b be
       0.20296572 -0.2490076 -0.25487798 -0.2721368
000320 b3 a8 08 3b dd 37 1a be 89 67 ef be 58 64 29 3c
       0.0020852506 -0.15060373 -0.4675868 0.010338865
000330 08 bf 36 be eb 6b ca be fc e9 23 bd 9c 1a 51 be
       -0.1784631 -0.3953546 -0.040018067 -0.20420307
000340 7c 02 b5 3d 4e 3c d2 bd 30 e2 9d be d2 1d d7 be
       0.088383645 -0.102654085 -0.3083663 -0.4201494
000350 32 ef d1 3d e5 cf 2a be d4 63 89 bd b6 eb 40 3d
       0.10250701 -0.16680868 -0.06708494 0.04709979
000360 a4 0c 5d be e5 f5 02 3e 96 54 0c bd a4 81 1a be
       -0.21586853 0.12789114 -0.034260355 -0.15088516
000370 b5 0c b4 be 05 25 ea 3d 21 f7 4d 3d 4c 95 13 3e
       -0.35165945 0.11432842 0.05028451 0.14412421
000380 d0 d3 73 3e d7 2e 01 bd f2 e5 2a 3d cb 76 97 be
       0.23811269 -0.03153881 0.0417232 -0.2958282
000390 4b 39 8b 3c e2 0a 76 3e 04 0c 3a be 8d 45 81 be
       0.016995093 0.24027589 -0.18168646 -0.25248376
0003a0 1b 82 23 be 8c 58 cc bc 7a 99 72 3d 6d 53 e4 be
       -0.159676 -0.024944566 0.059228398 -0.445949
0003b0 ec c5 c1 be 68 88 d6 bd f1 12 b3 be 13 2e a5 bc
       -0.37846315 -0.10475236 -0.3497539 -0.020163571
0003c0 d1 80 b8 be 39 51 c6 be 5f de be be c5 a9 de be
       -0.3603578 -0.38733843 -0.3727903 -0.434889
0003d0 68 9f 94 be 1e da f2 bd 79 82 90 be 8b 1b 85 3e
       -0.29027867 -0.11858009 -0.28224543 0.25997576
0003e0 43 71 8e 3e d5 28 7c be 3f 54 96 bd 91 f1 7d be
       0.27820787 -0.24624951 -0.073402874 -0.24799182
0003f0 60 86 6f 3d 9a c8 c8 be 79 d0 19 be 4f 66 a9 bd
       0.05847776 -0.39215547 -0.15020932 -0.08271467

fc2.bias f4 [84]
000000 5c d2 99 3e d3 b5 1a 3e 41 f5 1c 3d f5 d2 92 3e
       0.30043304 0.15108423 0.03831983 0.28676572
000010 da 83 af 3d 61 d0 db bd 2e 79 06 be a6 32 25 be
       0.085700706 -0.107331045 -0.13132164 -0.16132602
000020 b0 32 b3 be fb fa fa 3e 94 11 31 3f 09 4b 5f bd
       -0.3499961 0.49019608 0.6916745 -0.05451492
000030 9c fd 11 3f e2 a2 9f be 61 df 2a bf bd b5 aa 3d
       0.570276 -0.31178957 -0.667471 0.08335445
000040 98 68 f4 3e 20 91 1b be e5 24 a8 3f 60 f8 a2 bd
       0.4773605 -0.1519208 1.3136259 -0.0795753
000050 fa f1 ae be 8b fa f5 3e fa 09 97 bd ad 53 0f 3f
       -0.34168988 0.48042712 -0.0737495 0.55987054
000060 9c 16 86 3f e1 53 02 be e0 4f 03 3f df be d9 3e
       1.047565 -0.1272731 0.51293755 0.42528436
000070 74 c0 0a bb 98 d5 22 3d de 70 68 3e 50 c6 16 3e
       -0.002117184 0.03975448 0.22699305 0.14724088
000080 a3 9d 1e bf 4d 2d 0e 3e c7 ac 1a be c8 3e 88 be
       -0.61959285 0.13884468 -0.15104972 -0.26610398
000090 85 c6 73 be 37 db 51 3e c7 d1 9a be a2 ab 57 3d
       -0.23806198 0.2049378 -0.30238172 0.052653916
0000a0 0f 57 4c bd c0 28 77 3d 8d e1 77 be d2 3c a1 bd
       -0.049887713 0.060341597 -0.24207135 -0.07872929
0000b0 f6 64 44 be 6b 61 a7 be 07 69 40 bf 5c 03 dd bd
       -0.19179139 -0.32691512 -0.7516026 -0.107916564
0000c0 05 ae 22 3e 69 02 9a 3e 6f e6 a9 bd af e1 04 be
       0.15886696 0.30079964 -0.08295905 -0.12976716
0000d0 7e 8d 5b bd e3 76 84 bd cc d3 04 3f 6f a2 cc be
       -0.053601734 -0.06467988 0.51885676 -0.39967677
0000e0 d0 b9 01 3f cf 4c 5c be cb ce bb 3e a8 28 2a be
       0.5067415 -0.21513675 0.36681208 -0.16617072
0000f0 55 e4 c7 3d 0c ae bf bd 40 69 65 3f ec b2 5d 3e
       0.09760348 -0.09359369 0.89613724 0.21650285
000100 13 a1 5c 3f 67 c3 c3 3e a2 53 28 3f b7 be 00 be
       0.8618328 0.38235018 0.65752614 -0.12572752
000110 9b 88 bc 3d 1a ec 9f 3f 3f ea 93 bc ec ff 2f 3e
       0.09205743 1.2493927 -0.018056033 0.1718747
000120 1c bf a3 3e bc 76 1c 3f 68 da 97 3e c2 23 c0 be
       0.31981742 0.61118674 0.29658818 -0.3752728
000130 f5 b4 56 be ea e4 bc 3c 55 97 db be 25 d2 95 be
       -0.20967467 0.023058373 -0.42888895 -0.2926189
000140 f9 6c 4e 3f 9a 4a d9 bd ba 12 83 be a8 b9 dc 3e
       0.8063503 -0.10609932 -0.25600225 0.43110394

fc3.weight f4 [10, 84]
000000 00 f5 31 bd 86 35 62 3e 49 d9 fa 3d 6e 14 04 be
       -0.04344654 0.2209073 0.12248475 -0.12898418
000010 5e e5 4d 3e 96 96 89 3d 3f 45 b7 3d f4 27 43 3c
       0.20107028 0.06718175 0.089487545 0.011911381
000020 c1 73 2a be f2 e7 75 3e 2a 98 b6 3c c5 b8 1d 3e
       -0.16645719 0.24014261 0.022289354 0.15402515
000030 39 70 a7 bd 53 2b 32 3e 57 b7 81 3e f7 6e b1 3c
       -0.08175702 0.1739934 0.2533519 0.021659357
000040 97 82 ed bd 19 09 4e 3e 4c cf 76 be df c4 0d be
       -0.11597174 0.20120658 -0.24102515 -0.13844632
000050 66 2d 23 3d f1 19 3f be 1d 83 26 be a1 94 08 3e
       0.039838217 -0.1866224 -0.16260953 0.13337947
000060 a2 75 ba bd 69 10 81 3e 18 ea c1 bd ab 35 b3 3d
       -0.09104468 0.25207832 -0.09468478 0.08750471
000070 dc 8c 72 3d 5f 1d 0b 3d 7d e4 04 3e 42 9b ba 3d
       0.059216365 0.033963557 0.12977786 0.09111644
000080 87 d3 8e 3e 30 4e fe 3d 5d 88 99 bd 20 d5 8a 3e
       0.27895758 0.12417257 -0.07496712 0.27115726
000090 14 ba e5 3d 3c e9 0e 3e 83 57 2d be ee bf b8 bd
       0.11217132 0.1395616 -0.16927914 -0.09020983
0000a0 49 bf 42 be 6f 51 0a be bd c2 1a 3d 7b 43 d7 bc
       -0.19018282 -0.13507627 0.037783373 -0.026277294
0000b0 71 3c 99 3d db cc e5 3d 9c 65 a9 bd 6d 77 21 be
       0.074822314 0.11220714 -0.082713336 -0.15768214
0000c0 59 16 e1 bd 1d 52 85 3e d9 c1 3f be 56 8d 65 3d
       -0.109905906 0.2603921 -0.18726291 0.05604299
0000d0 c5 22 0c 3e 34 3a f9 3b e2 3e a5 3d cd b7 43 3e
       0.13685139 0.0076058153 0.080686346 0.19113083
0000e0 06 b7 25 3e 84 63 30 3e 51 8d b3 3c fe c0 c1 3c
       0.16183099 0.17225462 0.02191797 0.023651596
0000f0 1f e0 ce bd c7 b9 5d 3d 1a 9d 2a bd 42 8f d4 bd
       -0.101013415 0.05413225 -0.04165373 -0.10378887
000100 63 9f 1e be e9 72 c3 bd 41 a5 a5 3b 8b fc e7 39
       -0.15490489 -0.09543402 0.0050551 0.00044247913
000110 89 e6 22 be 71 46 11 be b3 98 f7 3d 2a ba bc bc
       -0.15908255 -0.14187028 0.12089672 -0.023037989
000120 f9 32 90 bb 3b 90 54 3b f6 3b eb 3d ac ee 0e 3e
       -0.0044006077 0.00324346 0.11486046 0.13958234
000130 df 45 67 3e 34 6c 84 3e 21 68 eb bd 9b b0 1b 3e
       0.22585247 0.25863802 -0.114944704 0.15204088
000140 4e 8b 9a be 78 e4 f1 bd 86 8e 8e bd d9 10 13 3e
       -0.30184406 -0.11811155 -0.06960778 0.14361896
000150 9b 0e d5 3d 71 b1 8b 3d e2 1e 3f 3d d7 a8 02 3e
       0.104031764 0.06820954 0.04666031 0.1275972
000160 c1 a6 04 3e 78 2e ae 3c 6d 20 06 3e f7 bf 2a bd
       0.12954237 0.021262392 0.13098307 -0.04168698
000170 75 ba 51 3e 94 a8 95 bd 0f 8e 6c 3d 36 07 a0 bd
       0.20481284 -0.07307544 0.057752665 -0.078138754
000180 f3 44 b0 bd 94 31 9d bd a4 14 59 be 63 91 7c bc
       -0.08606901 -0.07675472 -0.2119928 -0.015415522
000190 28 47 42 be 80 ab 6d be 1a e5 9d bd d0 32 5a bd
       -0.18972456 -0.23209953 -0.07709713 -0.053271115
0001a0 6b 10 1f 3e 36 6e 84 bc 63 41 18 be 36 80 2c 3e
       0.15533607 -0.016165834 -0.14868693 0.16845784
0001b0 f9 9b 82 be 67 e3 5c 3c ea 3f ea 3b 66 ab cb bb
       -0.25509623 0.013481951 0.0071487324 -0.0062155006
0001c0 07 59 41 3e 7e 3f 70 3e 56 ba f7 bc c5 33 60 be
       0.18881617 0.2346172 -0.03024022 -0.21894749
0001d0 89 d6 1e bd fa 18 00 3e 60 fe 4a 3e e9 a9 b4 3e
       -0.038778815 0.12509528 0.19823599 0.3528588
0001e0 bd 20 d0 bd 69 71 ff 3c 6f b9 03 3e 16 f9 35 be
       -0.10162494 0.031182008 0.12863706 -0.177708
0001f0 be 11 bd 3d c2 61 4b be fa 80 ab 3e db d6 d2 bd
       0.092319 -0.1986151 0.3349684 -0.10294887
000200 a7 ec 1e 3e 10 bf 54 3e 72 c3 7c 3e 9d 03 91 be
       0.15519963 0.2077601 0.24683931 -0.2832307
000210 b1 8c 54 3e b4 1c 85 bb 48 80 32 3d 02 37 4f 3e
       0.20756795 -0.0040622596 0.04357937 0.20235828
000220 79 65 89 3e 55 2a 4f 3c 72 42 44 be c4 67 27 be
       0.2683523 0.01264437 -0.19165972 -0.16348177
000230 7b 35 4c 3d eb 27 20 bc 3b ee a2 bd 9a 67 39 3e
       0.04985569 -0.009775142 -0.07955595 0.18105927
000240 c0 25 14 3e ad 54 f3 bc 33 f7 c6 be 40 0a a7 bd
       0.14467525 -0.029703462 -0.38860473 -0.08156252
000250 f0 52 a2 3d 8d 7a b2 be 6c 6a 81 bd 57 b3 11 3e
       0.07925975 -0.34859124 -0.063191265 0.14228569
000260 a8 76 e6 bd 38 5d 50 be df 00 c3 bd 66 93 67 3e
       -0.11253101 -0.2034806 -0.095216505 0.22614822
000270 f6 bb f6 bd 48 20 63 bd 07 51 7b bd 67 4c 3f bd
       -0.120475695 -0.055450708 -0.06135657 -0.046703722
000280 26 19 25 3e ab 3e 4f 3e 5c 2d 96 3e cf 0c 38 3e
       0.16122875 0.2023875 0.2933148 0.17973636
000290 3e 5c e8 3d f2 4f 1c be 07 9a f0 3d 2f 08 39 be
       0.11345719 -0.15264872 0.117481284 -0.18069528
0002a0 94 b3 14 be d3 5a 41 bd ce 41 2c bc 70 4d c2 bd
       -0.14521629 -0.047205757 -0.010513736 -0.09487426
0002b0 8d f0 d0 bd b9 15 2d be ee 1f 04 be a5 45 1d 3e
       -0.102021314 -0.16902818 -0.12902805 0.15358599
0002c0 f1 cd 44 3e dd 86 ae 3b bb fb a2 bd af fe 8f 3e
       0.19219185 0.0053261355 -0.0795817 0.28123996
0002d0 f2 85 02 be ef 6d 60 3c c1 86 a0 3e 12 05 1b 3d
       -0.12746409 0.013698085 0.3135281 0.037846632
0002e0 9b c0 83 bd bb 89 95 3e 09 1d 88 3d 47 a4 b6 3d
       -0.06433221 0.29206643 0.06646163 0.08918052
0002f0 58 5e 1f 3e 95 a0 e3 3d 92 45 60 3e 50 73 60 be
       0.15563333 0.11114613 0.21901539 -0.21918988
000300 36 04 86 3e b5 d9 4e bd dc 6d 02 be 7b 1b f3 bd
       0.26175088 -0.05050059 -0.1273722 -0.11870476
000310 1f ba bf bd c0 47 9d bd d0 10 2f 3e 0a f3 07 3e
       -0.09361672 -0.07679701 0.17096257 0.13276306
000320 c3 12 f9 3d aa fb 78 3d c6 fb 10 3b 38 76 55 bc
       0.12161782 0.06078688 0.0022122725 -0.013028674
000330 2e 52 c9 bd ae d7 54 bd 8f 88 0a 3c 8f 5e 9d bb
       -0.09830128 -0.0519635 0.00845541 -0.004802532
000340 99 92 c6 3c c1 2a 06 3b 4c e8 95 3d e9 16 0b 3e
       0.024239825 0.002047226 0.07319698 0.13582958
000350 d6 2a 0e bd b3 e7 e4 bd bd 89 f9 3d 5c ef 70 3e
       -0.03470882 -0.111770056 0.121844746 0.23528808
000360 16 2f 27 3e c9 11 40 3e 93 e3 8b 3c 40 a4 c6 3d
       0.16326556 0.18756784 0.01707629 0.09699297
000370 f0 e7 4c 3d 24 76 01 be d0 9f 07 3d 90 4b 75 3e
       0.05002588 -0.12642723 0.033111393 0.23954606
000380 23 cd 7e be 5b d1 a7 bd c4 08 d7 3d 73 53 0d 3e
       -0.24882941 -0.08194228 0.10499719 0.13801365
000390 01 37 04 3c 97 67 ed 3d 65 50 0f 3e d3 ec 5b 3e
       0.008069755 0.11592024 0.13995512 0.2147706
0003a0 fb 1c 80 bd 36 2d 9a 3d 86 4d 97 3d 1f 75 dd bd
       -0.062555276 0.075281546 0.07387833 -0.10813355
0003b0 6e c4 4a bd f2 48 9c 3d ff 61 f8 bc c0 de 82 be
       -0.049503736 0.07631101 -0.030320166 -0.2556057
0003c0 39 be b6 3c 0d db f2 39 2e fb 46 be 4a a3 07 3e
       0.022307502 0.00046321042 -0.19431755 0.13245884
0003d0 24 54 8a 3c 53 00 c9 3b e4 cb e1 bd 3f 8a 13 be
       0.016885825 0.006134072 -0.11025217 -0.14408205
0003e0 76 9f 48 3d 7f 8a ef 3d 43 df 40 3e 0a 45 19 3e
       0.0489802 0.11696338 0.18835168 0.14967743
0003f0 3d 69 4f 3e ec a0 15 be 62 37 4f be 50 77 be b9
       0.20254989 -0.14612168 -0.2023597 -0.0003632852

fc3.bias f4 [10]
000000 da a9 13 bf 53 63 d7 bf c1 7d 04 be 07 80 90 3f
       -0.5768105 -1.6827186 -0.12938596 1.1289071
000010 44 42 78 3f aa 4d cb 3e 19 34 e9 3e 0a 3a cb be
       0.96976113 0.3970769 0.4554756 -0.39692718
000020 9e 9c 6b 3e 8b a1 58 be
       0.23008963 -0.21155374
