final/07-04-2023-17-04-43/model_CNN_SGD_M0.pth (torch, 251251 bytes, 10 tensors)

conv1.weight f4 [6, 3, 5, 5]
00000000: 7803 d33d 1ee0 97be bb69 f7bd 2c6b a73d
00000010: 75cb f4bd 5925 be3c 4ac2 04bf 0753 c4bd
00000020: a71d 853e e9ab 7a3d 8dc5 d9bb d2a2 fbbe
00000030: 5b7f 6fbd 787e d93d 2c2c 913e ae0e a2be
00000040: ec10 1cbd 209c 393e 76ea 3f3c 6888 333e
00000050: 6b43 22be b832 273d 1fbe 593e b81a 09be
00000060: 0d9d 19be 3f9a 7f3e 60fd 8abe ce5f f6bd
00000070: b81b 403e 57dd 893d ffac bd3d 59b2 cdbe
00000080: 9359 26bd 9263 c93e 5d9a d53d 5369 d33c
00000090: 8397 79be 7055 d3bd d173 473e 9b40 993e
000000a0: c650 6abe 80fb 01bd f7de fa3d 83c1 d43d
000000b0: 9f15 df3d ff32 1cbe 9656 843e a3b8 693e
000000c0: cd92 b93b f316 9ebc 18e8 093d 72ec d7be
000000d0: 057d 3cbc 9842 803d 8cc0 783d 4c74 8bb9
000000e0: be63 c5be b535 45be 0042 a53e 85e3 3e3e
000000f0: d0a0 c0bd 3b86 bdbe 1a4c ecbd 32de 373e
00000100: b768 db3e f03a 68be 6c9b b9bd 7a9a 703e
00000110: 5227 ce3d 7ec5 5e3e 8105 96be 4355 903d
00000120: 9da1 973e 21b7 c73d 3227 e0bd 2606 0c3e
00000130: 7e0f 74be 495c 673d faac a43e 6f7a 74be
00000140: 8361 89bd 6ca5 f5be bc8b 90be 0f0b 733d
00000150: 764b fcbe ed39 2f3e 19ca abbe 55a1 833d
00000160: cf3d a73e 79e6 02be 111c 7e3e f8ae 91bd
00000170: e966 423e 73fa 9d3e 0256 94bd 8c82 d23d
00000180: 8585 a8be eaa6 ec3b 2892 5e3e 67a1 4abe
00000190: f87f 313e c93e 9b3c 6cb2 8ebd 246e f03e
000001a0: 419d 61bd 0baa 2cbc 155d 98be bc77 5cbe
000001b0: cae4 8a3e 7206 d3be b0bc 913e 3907 f6bd
000001c0: fafc 223e f125 0e3f 4f3c 24be 30b8 3a3e
000001d0: f8fc 31be 2084 893e e508 9e3e d7af 023c
000001e0: 13fa 2a3d 8b8e 6fbe 5e7e afbc 7e06 303e
000001f0: 14c7 87be e375 35bc 92c9 b2bc 9cbf 7ebc
00000200: b1ff 403e 0888 49bd f47d f53d 56dd 8cbe
00000210: d0cc 77be f84d 253e f1bb 69be 363b 933e
00000220: 9c0a 4cbe 25ec 553c 222d 863e cbc7 ecbb
00000230: ae3a 573e 9b49 4ebe dba1 823d c409 d63d
00000240: 068e a1bc 5a83 bdbd c6ce 18be 4457 2dbe
00000250: e41c 553d 9bcd 91be 116d 593d 97a2 d8bc
00000260: ea9a 033c 0e99 1c3e b4e9 fe3d e0b0 31be
00000270: 1484 b8be eefc c8be 445c 40be c791 08be
00000280: 9fb6 bcbe c9ab edbe 9f57 c0be e3ba b1be
00000290: e3c5 81be bfdd 09bd 80b7 9f3d f5f9 e33d
000002a0: ed0f c63c f289 8f3d 8e8d 093e 943a 043e
000002b0: b4f2 133e b7a2 0f3d c5d2 9c3d 0ea0 863c
000002c0: 6495 0d3e 9044 3f3e 6426 113e 21d8 6f3d
000002d0: 0137 83bd d715 1ebc c312 33bc c275 3fbd
000002e0: 5cbb 12bd 9335 cbbd eb32 67be 3b2c 05be
000002f0: a065 19be 0861 0db9 69de 063d d72a e73d
00000300: a307 893d 661e 0b3e 10b7 963d ff64 29be
00000310: 47a8 30bd c551 5a3c 2da3 d93d 65e3 a3bb
00000320: 0408 a13d f0d5 853e 1ed3 963e 9c40 923e
00000330: 9fe8 a03e 0d8b 273e 81bc 183e 21fe 023e
00000340: 64ff 9d3d 9c9f 4f3e 2d73 7f3d e411 153d
00000350: d66b 88bd e838 173e 1001 d73a c29b 153d
00000360: a81d 903d 86b6 b43d 3fa9 1d3e 97e9 693e
00000370: 7fbe cdbc 8663 aabd 62ad 093a b645 013d
00000380: 3c0f dabd 08a1 3f3c ee6c 943d 96c0 de3d
00000390: 7d76 d43c 3df2 33bd 7749 e93c 9c26 bd3d
000003a0: 9577 9dbd 6112 7abd bafe 18be 29b0 a43c
000003b0: 3ad0 edbc 307b 7cbe 57e1 8dbe 8d73 47bd
000003c0: 9de4 1fbc f37e 32be 0ad6 4cbe 232b a5be
000003d0: 81c0 89be 2445 62bd 385e cabd 2bfd 6fbe
000003e0: 8dc3 63be 4565 edbd d445 36bd 7161 88bc
000003f0: ec08 ec3c de09 143c acf4 86bc aaa6 803d
0.10303396 -0.29663175 -0.12080713 0.08174738 -0.11952869 0.023211168 -0.5185896 -0.09586149
0.25999185 0.061199103 -0.0066458643 -0.4914766 -0.058471065 0.10619825 0.28354013 -0.31651825
-0.038102075 0.18125963 0.011713615 0.17532504 -0.1584603 0.040819854 0.21263932 -0.13389099
-0.15001316 0.24961184 -0.27146435 -0.12029992 0.18760574 0.0673167 0.09261512 -0.4017513
-0.04061277 0.3933378 0.10429833 0.025807058 -0.24374203 -0.1031903 0.19477774 0.29932103
-0.22882375 -0.03173399 0.122495584 0.10388472 0.10892796 -0.15253828 0.2584731 0.2282434
0.005663252 -0.019298052 0.033668607 -0.4217258 -0.011504416 0.06262702 0.060730502 -0.00026598794
-0.3855266 -0.19258769 0.32276917 0.1864148 -0.094056726 -0.37016472 -0.11537953 0.17955855
0.4285333 -0.22678733 -0.090628475 0.23496428 0.100660935 0.21755025 -0.29301074 0.070475124
0.2961549 0.09751726 -0.10944976 0.1367422 -0.23834035 0.056484494 0.3216322 -0.2387483
-0.06708052 -0.4797777 -0.2823161 0.05933672 -0.49276322 0.1711194 -0.33552626 0.06427256
0.32664344 -0.12783231 0.24815394 -0.07113451 0.1898457 0.3085514 -0.07242967 0.10278806
-0.32914367 0.007222046 0.21735442 -0.19788133 0.17333972 0.018950837 -0.06967625 0.4695903
-0.05508161 -0.010538588 -0.29758516 -0.2153005 0.27127677 -0.41215855 0.2846427 -0.12013096
0.15916815 0.55526644 -0.16038631 0.18234324 -0.17381656 0.26858616 0.3086616 0.007976494
0.041742396 -0.2339422 -0.021422561 0.17189977 -0.26519072 -0.01107547 -0.021824632 -0.015548613
0.18847539 -0.049201995 0.11986914 -0.27512616 -0.24199224 0.16143024 -0.228256 0.28756112
-0.19925922 0.0130567895 0.2620631 -0.0072259656 0.21018478 -0.20145266 0.06378528 0.104510814
-0.019721042 -0.09253569 -0.14922628 -0.1692782 0.052029505 -0.28477177 0.05308253 -0.026444716
0.00803254 0.1529276 0.12446919 -0.17352629 -0.36038268 -0.3925547 -0.18785197 -0.1333686
-0.3685808 -0.46420124 -0.3756685 -0.34712896 -0.25346288 -0.03365874 0.07798672 0.1113166
0.024177516 0.07008733 0.13432905 0.12912971 0.14448053 0.035067286 0.076573886 0.016433742
0.13826519 0.18678498 0.14174801 0.058555726 -0.064069755 -0.009648762 -0.010929766 -0.046743162
-0.03582321 -0.09922328 -0.22578017 -0.13005154 -0.14980173 -0.00013482955 0.03292695 0.11287468
0.0669091 0.13585815 0.07359135 -0.16542433 -0.04312923 0.013325159 0.106268264 -0.005001473
0.07862857 0.26139784 0.29457945 0.28564918 0.31427476 0.16361637 0.14915659 0.12792255
0.077147275 0.2027573 0.0623657 0.036394015 -0.06661193 0.14767802 0.0016403515 0.036525495
0.070369065 0.08823876 0.15396594 0.22843014 -0.02511525 -0.08319764 0.00052519713 0.031560622
-0.10647437 0.011696108 0.07247339 0.108765766 0.025935406 -0.04393219 0.028477414 0.0923588
-0.07688824 -0.061052684 -0.1494092 0.020103531 -0.029029954 -0.24656367 -0.27710983 -0.048694182
-0.0097590955 -0.1743124 -0.20003524 -0.32259473 -0.2690468 -0.05524172 -0.09881252 -0.2343642
-0.22242565 -0.11591581 -0.044500187 -0.016648026 0.028812848 0.009035556 -0.01647409 0.06281789

conv1.bias f4 [6]
00000000: fce9 2d3f da54 133d 1297 d93e ccdb d63e
00000010: 1b08 92bd ea86 cd3d
0.67935157 0.035969593 0.4249807 0.41964567 -0.07130452 0.100354984

conv2.weight f4 [16, 6, 5, 5]
00000000: 6ab5 8fbb e007 21be 2cb0 0ebe f4da a6bc
00000010: 20cc b33d d447 42bd ec2e 81bd d29d 16be
00000020: d3ab dcbd ea98 a4bb 5f38 b93d 02c8 733c
00000030: d657 30be d32b 20be a692 8a3c 1546 13bc
00000040: 57be 543d 0a45 41be 4530 d2bd 5ffe c53d
00000050: b746 88bd bbd5 0b3e 2052 d8bd 7014 04be
00000060: f313 1a3e 31be 253c b478 1dbd 8a8c d1bd
00000070: 25e6 bfbc 0c7b 01bc 8a5b 6a3d f466 15bd
00000080: fa79 61bd fcaa f4bd f789 b9bd a38a 863d
00000090: 728c 34bd 05c7 f9bc 66d9 a0bd 738c 83bb
000000a0: 1cef d3bd 4e11 c7bd a5a0 733d 9b29 aabc
000000b0: c830 843c 9dc1 bfbd c38b a1bd 1350 2cbc
000000c0: c3e6 073d 3761 713d 9f39 553d 07af 14bd
000000d0: d16a d6bc 57be 113d 3325 863c a812 c9bc
000000e0: 4a1f 0abd 7203 a8bd 51c4 d9bc c849 b83d
000000f0: ddc4 92bd da68 f63c dafb bbbc 4cd2 a7bd
00000100: 65ac 103e b5d8 7bbd 5dde 3cbd 1342 8abd
00000110: 6405 56bc b085 1e3e 8a72 2bbd cd0a 97bd
00000120: cdfd 71bd 1bdf 98bd c5f4 2a3d 4a62 69bc
00000130: 25b5 cd3b 96a3 f0bc 618c 9e3d eaa0 c53d
00000140: ecf8 dd3c 1e5f bfbc 7bf8 523d 8351 f73d
00000150: 5661 d13b abb4 bebd aad2 2bbd f139 493d
00000160: fb8e 2c3d 6560 1d3e e246 2fbe 8ef5 17be
00000170: 329f e0bd 1fc2 fe3d 3dc6 263e 5a6f 14be
00000180: 58f2 24be 8ee1 76be c8b1 a2bb 5f61 dc3d
00000190: d267 623d a3c4 c0bd f795 0bbe ae4d 55be
000001a0: 8d08 54be 89a5 2e3e 7e1a 063d 2335 18bc
000001b0: 6b02 45be 6e68 20be 0e0a 523e 8fca 813e
000001c0: 8e4d 1c3e 79d2 2bbd 3f8a c1bd 357d 493e
000001d0: 479c 2b3e 2f94 e33d fc92 cd3d 8a12 b13d
000001e0: 4907 4b3d b45d d63c e65d 0f3c 9f06 a53d
000001f0: 3159 923d df5b 4bbc 2228 aa3a 050a 553d
00000200: a370 11bd c2d2 0fbe 7962 a73d 894d ef3c
00000210: 6552 1c3e d59d e83d 5a39 3dbd f540 f73c
00000220: 68d4 7e3d 83f3 c93d f9c9 7b3e 46ea c33d
00000230: 6777 c9bd a36e 2abd 6adc 6a3d 442c 3d3e
00000240: 95d5 103e 85a5 0cbe 46fe aebd ead7 0abe
00000250: 60d0 323e 2151 5b3e bd8d 233e 8ad7 963d
00000260: ec8d 973d 3d7e f63b 5088 84bd a0e3 073e
00000270: c61d b43d b2b3 103c 4280 7ebc e80b f83d
00000280: 11ef babc 75ca a43e 4961 97bc e9f8 533d
00000290: ed92 113e 3796 043d adf2 4b3d bd91 813e
000002a0: 8c36 f43d f5f5 893d e1df c03d 7b5f c7bd
000002b0: 31b6 df3d d5ed 443e e773 1b3e be6c 90bd
000002c0: daaa 73bd 30f3 bebd 36b8 9cbd ac3e cabb
000002d0: d4b1 10bd bf1c 9abd 6f5f b7bd ceb6 37bc
000002e0: e533 c4bd e38c dfbb 7154 683d 2adb a7bd
000002f0: 1ee5 6a3d 16ab 943d 0af4 1b3e b08e ca3d
00000300: f59f 453c 9b2b 5abd 76a6 29bd 5c03 003d
00000310: fd38 b6bc 05f5 0d3e 7a20 cabc d50f e9bc
00000320: a1c6 6cbe ae36 37be 6fa8 4fbd 78d5 68be
00000330: 736a ddbd 521b 84bd 7416 1fbe d80f d2bd
00000340: 0f41 5dbd 1a47 f4bd 49b2 ad3c e106 583c
00000350: d9cc 0cbe 2e4a 54be 7220 3cbe 91f6 96bd
00000360: f5e0 14bd 6ab5 f43c b114 d3bd 3b64 62be
00000370: 64e5 24be b314 c7bd 03f4 18be 77d0 613a
00000380: 15be 0fbe 8f27 98bd 854b 17be d5df ffbd
00000390: 6eff cdbd e997 033d b72c 3abd dd94 3fbd
000003a0: 3f88 d0bd 42c2 b73d a3bd 823c 49fb f8bc
000003b0: 572c f9bb 6ea3 9cbc 0d6c 4cbd 906b 05be
000003c0: 7886 2fbe 7aff 2bbb 4eb9 e93d 642c 8e3d
000003d0: 11bd 5ebd 1ce4 f5bd 4149 e4bd da5d 603d
000003e0: b9ae c93d 4db1 503d bf8a be3a 888e cabc
000003f0: 94ea 6a3d 3af0 18bd 56b3 9b3d d7e8 9b3d
-0.00438564 -0.1572566 -0.13934392 -0.020368077 0.08779168 -0.047431782 -0.06307778 -0.14708641
-0.1077496 -0.0050231116 0.09043955 0.014879229 -0.17221007 -0.15641718 0.01691563 -0.008988877
0.051939335 -0.18873993 -0.10263113 0.09667658 -0.06654113 0.1365575 -0.10562539 -0.12898421
0.15046673 0.010116146 -0.03844519 -0.10231884 -0.023425171 -0.007902872 0.057216205 -0.036475137
-0.055047967 -0.11946675 -0.09059518 0.065694116 -0.04407925 -0.030490408 -0.078539655 -0.0040145456
-0.10348341 -0.097200975 0.059479374 -0.020771792 0.016136542 -0.09363101 -0.078879856 -0.010517138
0.033179056 0.058930602 0.052056905 -0.03629973 -0.02617398 0.035581913 0.01637516 -0.024545029
-0.033721246 -0.08203782 -0.026582869 0.08998448 -0.07166455 0.030079294 -0.02294724 -0.08194408
0.14128263 -0.061485965 -0.0461105 -0.06750884 -0.013062809 0.15480685 -0.04185728 -0.07375107
-0.059079934 -0.07464429 0.041737337 -0.014244625 0.0062776976 -0.029374879 0.07741619 0.096498325
0.027096234 -0.023360785 0.0515065 0.12076094 0.006389777 -0.093118034 -0.04194895 0.049127523
0.042128544 0.15368803 -0.17116883 -0.14839765 -0.10967864 0.124393694 0.1628656 -0.14495602
-0.16108072 -0.2410948 -0.004965041 0.107607596 0.055274792 -0.094125055 -0.13631426 -0.20830414
-0.20706387 0.17055334 0.03274011 -0.0092900125 -0.19239204 -0.15664837 0.20511648 0.25349852
0.1526396 -0.04194877 -0.094501965 0.19676669 0.16758834 0.11112248 0.10037801 0.08646114
0.049567495 0.026167728 0.0087504145 0.080579035 0.07145918 -0.0124120405 0.0012981931 0.05201151
-0.03550781 -0.14045241 0.08173079 0.029211776 0.15265806 0.11358229 -0.046197273 0.030182341
0.062214285 0.09860899 0.24588765 0.095661685 -0.09837227 -0.041609418 0.05733911 0.18473917
0.14143975 -0.13735016 -0.085445926 -0.13558927 0.17462301 0.21417667 0.15972038 0.073653296
0.07400116 0.007522373 -0.06471312 0.13270426 0.08794741 0.008831905 -0.015533509 0.12111646
-0.022819074 0.32185712 -0.018479006 0.05175105 0.14216204 0.03236982 0.04979198 0.25306502
0.119244665 0.06736366 0.094177015 -0.09735008 0.10923422 0.1923135 0.15180932 -0.07051991
-0.05948911 -0.09323728 -0.07652323 -0.006172022 -0.03532584 -0.07525014 -0.089537494 -0.011213018
-0.095802106 -0.006822215 0.056721155 -0.08196099 0.05734741 0.072591946 0.15229812 0.09890497
0.0120620625 -0.05326424 -0.041418515 0.031253204 -0.022243971 0.13862999 -0.02467369 -0.028449932
-0.23122646 -0.17891952 -0.05069774 -0.22737682 -0.10811319 -0.064505234 -0.15535909 -0.10256928
-0.054017123 -0.11927624 0.021203177 0.013185234 -0.13750018 -0.20731422 -0.18371752 -0.073712476
-0.03634735 0.029871661 -0.10306681 -0.22108547 -0.1610313 -0.09720745 -0.14936833 0.00086141325
-0.14037354 -0.0742942 -0.14774902 -0.124938644 -0.10058485 0.032127295 -0.0454528 -0.046772826
-0.10182237 0.089725986 0.015959566 -0.03039326 -0.0076041627 -0.019120898 -0.049907733 -0.13029313
-0.1714114 -0.0026244805 0.11412297 0.069420606 -0.054379527 -0.12006399 -0.111467846 0.054777004
0.09847779 0.050950337 0.0014537199 -0.024726167 0.057352617 -0.037338473 0.07602565 0.0761277

conv2.bias f4 [16]
00000000: eeb0 263d 90fc 7d3e c677 cdbe b164 3dbe
00000010: 6b07 31bd ddd7 3cbe a9c1 c83d f41e 293e
00000020: 9431 c4be af65 47be c477 183e c1af 353e
00000030: 261d d8be 07f3 a43d 9e93 8f3e da86 e53e
0.040696077 0.24803376 -0.40130442 -0.18495442 -0.043219965 -0.1844172 0.09802563 0.16515714
-0.38319075 -0.19472383 0.14889437 0.17742826 -0.42209738 0.08054166 0.2804231 0.44829446

fc1.weight f4 [120, 400]
00000000: e8d2 39bd c0a9 ea3c 2702 023d eae6 ad3c
00000010: b568 62bd bb14 693c 9547 d53b a20e f8bc
00000020: 4279 833a 8c78 17bd abcc 9f3c ca50 d1bc
00000030: e415 dabb 3c0e 8abc a24d 3e3c c917 20bc
00000040: 8c8c 3abd 6cd8 df3c 5a10 8c3c d642 9fbb
00000050: 6488 ad3c e0a8 f1bc a427 b0bc 2136 0fba
00000060: 3a1f a93c 9ae3 423d 2788 f7bc 4df3 5f3c
00000070: e1e0 d1bc 50bf c5bc 2cad 963c b2f7 f73b
00000080: eeaa ff3b 5186 4ebc b6dc b3bc 72dc 083c
00000090: a6ca 02bd aff9 543d aadf 13bd 6f12 013d
000000a0: b178 33bd 481c 06bb 71e9 c13c b7ca 513c
000000b0: 33e6 2c3d f351 c23c 3a44 c33b 8643 503d
000000c0: 4efc eebc 43d2 793c bd66 1dbd d08e d8bc
000000d0: d022 34bb 372e bfbb 8d33 273c bf05 be3b
000000e0: b049 d8bc 137f 423d 8036 9a3c b3b1 003c
000000f0: b2fa 02bd f5fb e8bc ae0f 493d 4bc0 00bd
00000100: 5a18 c63b 797d 5f3d c240 4fbc 6302 e3bb
00000110: a171 683c eae2 a1bc a15b 9e3c 2008 f6bc
00000120: 2688 f1ba 620a 5a3c 804e 593d 1733 28bd
00000130: 9109 2abd ada6 453d 3fd4 313d 3778 c7bc
00000140: ca17 4abd 5c30 07bd cbaf 23bc 4ef2 e3bc
00000150: fb4a bfbc a7bc 543d b09c 29bd b3cb 5fbc
00000160: 631f 40bd 532d 13bd 48ba 79bc c046 ca3b
00000170: 4486 40bd 1c4a 5c3c 119b 333d 5ea6 4abd
00000180: 7c16 21bd 7847 84bb 268f 1bbd 328b 4c3c
00000190: c7d3 583c 26a2 423d 6e4f 0c3d 93dc 84bc
000001a0: 3403 05bd aca9 6f3c 3bf4 9a3c 96dd bdbc
000001b0: 1d72 28bd 1098 84bc 529f 15bd 0a31 1fbb
000001c0: 8806 203d 39d1 183d ec68 08ba cc27 7ebb
000001d0: 2d0c 103d cb9e 96bc 638d 183c 27b0 313d
000001e0: 366a 1d3b be0c 033d 41df c73c fb7f b3b9
000001f0: 9d1f 4cbc 86a9 56bc f23f a0bc 3847 f93c
00000200: d447 1bbd f827 36bc 2d17 2fbc b67d 9d3c
00000210: 7408 4f3c fb49 07bb 4082 453d 56ef 243d
00000220: 6cfa f13c b70d 3abd b999 913c 036f eb3c
00000230: 945e f3bc 790c 063c f77e 3fbc ae92 c6bc
00000240: f257 e83c b9fd 443d 047c 72bc 01ea b6bb
00000250: 0e6a 79bc 81ad 03bd 8e3f 0dbd 01d9 3c3d
00000260: bcc2 31bd ad70 a5bc 866c 34bd 68f9 a03c
00000270: d7c5 e8bc 9a5f 41bd 44af 0bbd 0d8d b93b
00000280: 42d8 e53c c0d2 933c e691 c4bb c9ea ad38
00000290: 4309 7cbc b306 fe3c 3947 833c 9b34 1cbc
000002a0: ddca 4f3d 043d 513d 4caf 983c 8a5f f03b
000002b0: e0e1 443d f475 debc efeb 083d 43c0 9bbc
000002c0: 1325 00bd 6b3c 5abc 55fb 5d3c 55a0 f83b
000002d0: bb35 adbc 2cee 9d3c e715 373d 3eb7 30bd
000002e0: 43f4 023a 48db 453d 8152 83bb a30c 8abc
000002f0: 8a71 603d c19f dc3a 1c46 8fbc 3d0e 343d
00000300: e99d 113b 7ea0 49bb 690d 5bbc af00 03bd
00000310: adba 47bd c91f c4bc 5494 1f3d a0d8 40bc
00000320: b547 fbbc ac31 073c 69a2 363d a29e 29bb
00000330: 26b4 05bd 3830 8dbc 2e57 9bbc 5d02 dcbc
00000340: ac04 79bc 77bd 223d 8701 fa3c 298c 283d
00000350: 0603 5a3c 95a6 c53c eab8 8e3c e2cd 4c3d
00000360: 2967 38bd 69dd 53bd 8cf9 b7bc def3 113d
00000370: 2f4f 233c 96d3 233b 8c89 a43c 8fa0 023d
00000380: a113 c93c 8815 17bd faea 813c 6ea0 a4bb
00000390: 0087 8b3c 60c6 013d 030d b9bc 6193 463d
000003a0: c095 2bbd cec5 36bb 20b4 91bb e272 4b3c
000003b0: fc19 fabc 6c3d ef3a 86ff ff3c cd7d d33c
000003c0: 578b 903b 8036 2cbc d116 b4bc 90bf d9bc
000003d0: 1972 05bd 0cd3 043d 1741 9dbc f39c 67bc
000003e0: f0f4 e03c 33ba 643d de1c c4bb 4444 d7bc
000003f0: 844e c2bc 08b1 763c 1b3c ddba bd63 31bc
-0.04536715 0.028645396 0.031740334 0.021228272 -0.055275638 0.014226134 0.0065087774 -0.030280415
0.0010030644 -0.036980197 0.019506773 -0.025551219 -0.0066554416 -0.01685249 0.011615189 -0.009771296
-0.045544192 0.027324878 0.01709764 -0.0048602624 0.0211832 -0.029499471 -0.021503277 -0.0005463083
0.020644773 0.04758034 -0.03021629 0.013668847 -0.025619926 -0.024139076 0.018393122 0.0075673694
0.007802359 -0.012605266 -0.02195583 0.0083533395 -0.03193154 0.05199593 -0.036101975 0.03151172
-0.043816272 -0.0020463634 0.023670884 0.012804679 0.042211723 0.023720717 0.005959061 0.050845645
-0.029173043 0.015247884 -0.038428057 -0.026435286 -0.002748657 -0.0058343667 0.010205162 0.005799025
-0.026402324 0.04748447 0.018824816 0.007854867 -0.031977363 -0.028440455 0.04908722 -0.031433385
0.0060453834 0.05456302 -0.012649717 -0.0069277748 0.0141872475 -0.019761521 0.019330801 -0.030033171
-0.0018427416 0.0133081395 0.05305338 -0.041064348 -0.04151303 0.048254658 0.043415304 -0.024349315
-0.049339093 -0.033005103 -0.009990643 -0.0278255 -0.023351183 0.051937725 -0.041409194 -0.0136594055
-0.046904933 -0.035931896 -0.015242167 0.006172985 -0.047003046 0.013445403 0.043849055 -0.049475066
-0.039328083 -0.00403684 -0.037978314 0.012484359 0.013234085 0.047517918 0.034255438 -0.01621846
-0.032473758 0.014627855 0.018915286 -0.02317695 -0.041124452 -0.01618579 -0.036528893 -0.0024290704
0.03906873 0.037308905 -0.0005203623 -0.0038781045 0.03516786 -0.018386265 0.009311053 0.043380883
0.0024019605 0.031994574 0.024398448 -0.00034236893 -0.012458709 -0.013101941 -0.019561742 0.030429468
-0.037910298 -0.011117928 -0.010686678 0.019224983 0.012636293 -0.002064346 0.04821992 0.04026731
0.029538356 -0.045423236 0.017773496 0.028739458 -0.029708184 0.008181685 -0.011687986 -0.024239864
0.028362248 0.04809353 -0.014800075 -0.0055820947 -0.015223039 -0.032147888 -0.03448444 0.04610539
-0.043398604 -0.02019533 -0.04404881 0.019650176 -0.02841465 -0.047210313 -0.034102693 0.0056625665
0.028057221 0.01804483 -0.0059988378 8.293015e-05 -0.015383068 0.031009054 0.016025173 -0.0095340265
0.050730575 0.05108358 0.018638276 0.007335608 0.048066974 -0.027155854 0.03342813 -0.019012576
-0.031285357 -0.013320069 0.013548692 0.0075874724 -0.021143785 0.019278608 0.044698622 -0.043143503
0.0004995504 0.048304826 -0.004007638 -0.016851729 0.05479578 0.0016832278 -0.017489485 0.04395889
0.0022219366 -0.0030765827 -0.013369896 -0.031983074 -0.048762012 -0.023940938 0.038959816 -0.011770397
-0.030673841 0.008251589 0.04458848 -0.0025881906 -0.032642506 -0.017234907 -0.018962469 -0.026856596
-0.015198868 0.03973147 0.030518306 0.041149292 0.013306385 0.024127284 0.017422158 0.050001033
-0.045020256 -0.051724825 -0.02245786 0.03563296 0.009967609 0.0024997941 0.020085119 0.0318914
0.024545493 -0.03688577 0.015859116 -0.0050240075 0.017032146 0.031683326 -0.022589212 0.048480395
-0.04189086 -0.0027888897 -0.0044465214 0.012417527 -0.030529968 0.0018252558 0.031249773 0.025816822
0.004411142 -0.010511041 -0.021983536 -0.026580602 -0.032579515 0.032427832 -0.019196076 -0.014136541
0.027460545 0.055841636 -0.0059848865 -0.026277669 -0.02371908 0.015056856 -0.0016878875 -0.010827002

fc1.bias f4 [120]
00000000: b0bf 18bd b37a ad3d 2f05 2fbd b3f2 223d
00000010: fe91 283d 5d1f d03d 39a7 803d 6b4a 353d
00000020: 0537 8f3c 6a87 96bd 0c06 8dbd 9a47 983d
00000030: 5d5a 85bd f9b3 823d b73c 5ebd aa30 9b3d
00000040: 57af bc3c 9d68 653d a517 303d 0a1b fdbc
00000050: d28a 57bc 6309 8ebd cba7 f33c a50c 563d
00000060: 2968 01bd 181f 26be ecad c53c e981 653c
00000070: 3146 ea3c be53 c7bc 263e 653d 41b0 f6bc
00000080: 8e54 983c 5f7f 0bbc 117a ecbc cbd8 8d3d
00000090: 7285 0bbd f880 8c3d 1b59 393c d20f d3bd
000000a0: 5719 3f3d 6e13 90bc 4df7 8b3b ac29 4ebc
000000b0: a247 62bd bece 9c3c 6c29 babd 33d5 633c
000000c0: 0fbc 863c d222 79bc 68ab 853d d2dc d93d
000000d0: 9d6b b3bc b47c 07bc c889 e63d b5c9 bd3c
000000e0: b9b4 dabc 400e fabb dad0 e9ba 9fa8 343c
000000f0: 4022 d8b8 c755 69bd b09b 10bd 24a5 a33d
00000100: 4618 c43b 1479 cebc 1eb3 b9bc 2f4f e53c
00000110: 73c5 8d3d 8352 1dbe c95b 493c e757 813c
00000120: 6683 d13d 7b59 e53b b8f6 61bb d158 d23d
00000130: a624 b0bc 061f 923c 00e4 31bd c3f1 f63c
00000140: f64a 36bd 8750 b8bd 772d b33c beeb b43d
00000150: 976e ebbc a1aa 5a3d f470 b1bd bac5 083d
00000160: ef9b 163d d0af 5fbc 1808 333d f229 3439
00000170: 9c58 cd3d de68 6cbb 027b 99bd 44ce d33d
00000180: 7289 3c3c b572 123c 8ca8 f03b b5b9 02bd
00000190: 11c2 573c 475c 9bbd 7038 263d 99e5 61bd
000001a0: 0c79 c83c 442d d73c 9678 6a3d 6c1d 723d
000001b0: 1fc9 b63c b8a7 cabb f00c 24bc 6472 163d
000001c0: 5aef 213b e046 d53d 1a72 5d3d 3dc6 babd
000001d0: 36bd 833d 35fd 79bd f4b1 733d b0e0 cfbc
-0.037292182 0.08470669 -0.042729553 0.039782237 0.041154854 0.10162232 0.06281895 0.044260424
0.01748229 -0.07350047 -0.06885919 0.07435532 -0.06511376 0.06381983 -0.05425712 0.07577641
0.023032827 0.05600797 0.0429913 -0.030896682 -0.013155656 -0.06935384 0.029743096 0.052258153
-0.031593475 -0.16222799 0.024130784 0.014008024 0.028597923 -0.024331924 0.055967472 -0.030113341
0.018595006 -0.008514254 -0.0288668 0.069261156 -0.03406281 0.06860536 0.011312748 -0.10305752
0.046655025 -0.01758739 0.004271424 -0.012583178 -0.055244096 0.019141551 -0.09089932 0.013905811
0.016447095 -0.015206056 0.06526834 0.10637821 -0.0219019 -0.008269478 0.112567484 0.02316747
-0.026697503 -0.0076310933 -0.0017838732 0.0110265305 -0.00010306062 -0.05696657 -0.035304725 0.079904824
0.005984339 -0.025204219 -0.022668418 0.02799186 0.06922426 -0.15363507 0.01228995 0.015788985
0.102301404 0.0069991923 -0.0034479331 0.10270847 -0.02150185 0.017837059 -0.04343033 0.030144578
-0.044505082 -0.08999734 0.021872265 0.08834027 -0.028739257 0.05338538 -0.08664122 0.03339169
0.036769804 -0.013652757 0.04370889 0.00017181764 0.100266665 -0.0036073248 -0.07494165 0.103420764
0.011507379 0.008938481 0.007344311 -0.031915385 0.013168828 -0.0758596 0.040581167 -0.055150602
0.024471782 0.026266702 0.057243906 0.05911009 0.022312699 -0.0061845444 -0.01001285 0.036730185
0.0024709315 0.10413909 0.054063894 -0.09119842 0.064325735 -0.061032493 0.05949588 -0.025375694

fc2.weight f4 [84, 120]
00000000: 7269 8cbc 36f2 b438 b653 a83d b5d3 94bd
00000010: 4f70 3a3d ca29 b9bd 686d a93d e1b6 95bd
00000020: 0ac0 bbbd db1d 833d 5fab 963d a7ea e83d
00000030: cec7 7a3d 0732 043e 18e1 75bd 6617 d4bd
00000040: d412 923d cea8 503d f5b3 0cbd cad9 c53d
00000050: 6597 633c ea03 46bd ec7a 9b3d 762d 21bd
00000060: 2bc5 b0bd 386a 253d 1614 a5bd 59bc c0bb
00000070: 332f 04bc 8135 40bd 9675 963d 23eb a13d
00000080: 0eec 82bd 2eb4 11bd 0c22 7bbd 2d3f 093d
00000090: 27e6 ca3d 4a04 a43d b0fa a93d a2f0 d73c
000000a0: 266a 63bd aad1 dd3d 10d0 8dbd 495c d1bb
000000b0: 233f 2c3d 34f0 81bc cbbc 073d 5202 873d
000000c0: c1f4 9ebd 92e4 2cbc 0963 803c e256 4abc
000000d0: 7faa 2bbc 29ed 6f3d e182 3dbd 16c7 46bc
000000e0: c485 ec3b 8472 f23d 65e7 82bd aa40 92bd
000000f0: d42f 9d3c 2b45 a33d 9786 383b 234b 8cbd
00000100: 5970 25bd 4e88 19bd 5dc4 c33d 38ed b63d
00000110: 7eb5 6dbd af7a 9dbc 97ae 293d f054 babc
00000120: 92b5 d1bc cdf7 633d a010 033d c328 de3c
00000130: f4b4 683d cee9 173d 0f6e b7bc b67e d93b
00000140: 8b43 09bd c5da b93d 24d1 71bb b520 ecbd
00000150: ad8a e6bc 8a8e bfbd c478 783d adeb 843c
00000160: 695e a7bd 69b7 1cbd 9ce6 b23d c08c 8a3c
00000170: a9cc 96bd e385 853d 47f1 2a3a d17a 423d
00000180: 7372 213d 4937 32bd 00fe cebc 8a02 f53d
00000190: 19be 79bd 8302 e43b f178 f1bd 0182 cdbb
000001a0: 84e2 64bc 7654 9b3d 8c50 c5bd 0c42 bd3d
000001b0: c5de 393c 7066 873c f8b1 843d 01f0 433c
000001c0: 750e 093c 6011 8e3d 28e8 293d a4e4 14bd
000001d0: 8f42 993b 6158 5b3d 82ab 99bd 56f5 a2bd
000001e0: 82ee 7ebd 91eb d93c d43d 32bc 751e 8f3b
000001f0: c16a db3c 6470 8bbd 1e2d 6c3d df1d ef3d
00000200: cb83 9cbd 33a5 48bb a12e 8fbd cf56 bfbd
00000210: 9cfe 9e3c 8ebb d23d e756 a23d 4b1d f63c
00000220: a1af 283d 7d0d 333d 0ef6 d83c 755c 8bbd
00000230: ec2f 283d 17f3 893d 3c0f eb3c d1bc 12bc
00000240: a5d0 99bd f93a 5e3b b490 a4bc 7cb9 5b3d
00000250: 24d2 9dbd cd83 9cbc 4541 0f3d 6de2 4fbd
00000260: 1014 473b acfa 1fbd 87c1 8d3c 3392 063e
00000270: 3e8c bf3b b2d6 b13d 48e5 123d 6ad7 85bd
00000280: f4b7 b23d 33c0 5fbd f8b4 89bd fa47 13bd
00000290: cda9 61bd 8ace 113e 1ce3 6e3d 0a18 b43d
000002a0: d5f8 843c 10d6 bd3d d5f4 9abd 7340 fabc
000002b0: 5f97 b93c b52f 193d b3b0 9bbd e943 1d3c
000002c0: 9117 e03c 809c 7fbc 1420 82bd 7a0b 723d
000002d0: 0cd9 64bd 2504 9fbc a8fa 4ebd 3ec0 523d
000002e0: 7dd5 5dbd f6aa 9fbb ee1c 92bd 7e8f b1bd
000002f0: 0d97 69bd a9da fabd ca87 f4bc cf58 3a3d
00000300: f0a5 e63b 2849 e4bc 0490 ce3d e639 7bbd
00000310: 7b02 02bd 5451 193d c3c8 28bd 8906 c1bd
00000320: fa05 c6bd 80ba cb3c 8c41 893d d25f 43bd
00000330: be0b aabd 77a0 6d3d 786a dd3b 5e56 5a3d
00000340: 8a66 85bd fc2d c8bd b293 2ebc 3fa3 acbd
00000350: 2cd2 af3d c7d7 9d3c 7492 5bbc aa43 d43d
00000360: 885b a13c 2e7d a5bc 76a4 28bc 4173 523d
00000370: 7640 d1bd c0c5 503d b378 dcbb 79bf 8b3d
00000380: dc8f 58bd e933 af3c 0dad 663d 9086 a83d
00000390: 4f32 28bc bdcc 263d 44c3 b73d 6b87 c0bd
000003a0: 86ed 39bd 6c48 54bd fbec a8bc f5e5 9fbd
000003b0: 3849 4a3d 77f3 97bd 7e57 9ebd 1278 5dbd
000003c0: 1cdb a43d 81ef 03be ae3f 9cbd 9efe d63d
000003d0: aa4f bfbd a48a 93bd e6a2 1bbd c92d d03d
000003e0: a7b4 aa3b 0baa c53c 97bd a63d fcb8 3f3d
000003f0: 8245 7bbd bdbc 103e 38c7 ee3d 7b33 9f3d
-0.017140124 8.628184e-05 0.082190916 -0.072669424 0.045517262 -0.09041174 0.08272821 -0.07310272
-0.09167488 0.06402179 0.07356905 0.113728814 0.061225705 0.12909709 -0.06002912 -0.103560254
0.071324974 0.050942235 -0.034351308 0.096606806 0.013891076 -0.048343576 0.07591805 -0.039349996
-0.08631357 0.0403845 -0.08060472 -0.005881828 -0.008067894 -0.046926025 0.073466465 0.07906177
-0.0639268 -0.035572223 -0.061311767 0.033507515 0.09907179 0.080086306 0.08299768 0.02635986
-0.055521153 0.10831006 -0.069244504 -0.006389175 0.0420524 -0.015861608 0.03313903 0.065922394
-0.07761527 -0.010552542 0.015672224 -0.012349816 -0.010477661 0.058575783 -0.046267394 -0.012132427
0.0072180945 0.11838248 -0.06391791 -0.0714124 0.019187845 0.07972177 0.0028156394 -0.06850269
-0.040390346 -0.037483506 0.09558938 0.08931965 -0.058034413 -0.01922354 0.041426267 -0.02274558
-0.025599275 0.055656243 0.031998277 0.027119046 0.056813195 0.037088208 -0.022391347 0.0066374196
-0.03351168 0.0907493 -0.003689834 -0.11529676 -0.028142298 -0.09353359 0.060662046 0.01622566
-0.08172304 -0.03826085 0.087353915 0.016912818 -0.073632546 0.065196775 0.00065209385 0.047480408
0.039415788 -0.043509755 -0.025267601 0.11963375 -0.060972307 0.006958307 -0.11790646 -0.006271601
-0.013970021 0.07584469 -0.09634504 0.09241113 0.011344616 0.016528338 0.06479257 0.011959077
0.008365263 0.06936908 0.041481167 -0.03635086 0.004677124 0.05355108 -0.07503416 -0.0795695
-0.062239178 0.026601585 -0.010878999 0.0043676444 0.026784303 -0.06808546 0.057660215 0.11675619
-0.07642325 -0.0030616045 -0.06991316 -0.09342729 0.019408517 0.102896795 0.079267316 0.030043265
0.041183118 0.043714035 0.026484516 -0.06804744 0.041061327 0.06735819 0.028693788 -0.00895615
-0.07510499 0.0033909662 -0.020088531 0.05364369 -0.07706097 -0.019105816 0.034974355 -0.050753046
0.0030376948 -0.03905742 0.017304195 0.13141708 0.0058455756 0.08683528 0.03586319 -0.065352276
0.087264925 -0.054626655 -0.0672397 -0.035957314 -0.055093575 0.14238945 0.058322057 0.087936476
0.016231934 0.09269345 -0.07566229 -0.03054831 0.022655187 0.037399013 -0.07602062 0.009598711
0.027354987 -0.015601277 -0.06353775 0.059092976 -0.055871055 -0.019411156 -0.050532013 0.051452868
-0.054158676 -0.004872675 -0.07134424 -0.08669947 -0.05702882 -0.12248737 -0.029849906 0.04549485
0.0070388243 -0.027866915 0.100860626 -0.061334513 -0.031740647 0.037431076 -0.041207086 -0.094250746
-0.09669109 0.024869204 0.06701955 -0.047698803 -0.08303021 0.05801436 0.006757077 0.053305022
-0.065136984 -0.09774396 -0.0106553305 -0.08429574 0.08585009 0.01926793 -0.013401616 0.103644684
0.019696966 -0.020201292 -0.010293117 0.051379446 -0.10217373 0.05096984 -0.0067282557 0.0682363
-0.05287157 0.021387057 0.056317378 0.08228791 -0.010265901 0.040722597 0.08972791 -0.09400829
-0.045392536 -0.05182688 -0.020620814 -0.07807533 0.049386233 -0.07419484 -0.077315316 -0.054069586
0.08049604 -0.12884332 -0.076293334 0.10497783 -0.093413666 -0.07204178 -0.03799715 0.10164983
0.0052095237 0.024128934 0.0814163 0.046807274 -0.061345585 0.14134498 0.11659092 0.07773491

fc2.bias f4 [84]
00000000: 19c4 d6bd 0db0 3abd b554 d6bd bb33 003b
00000010: 78c9 1ebd 74ae f23d 385a 1fbd ada4 603e
00000020: 1e1c 40bd 61ba 8d3d 6ad3 3f3d 4e89 853d
00000030: e762 47bd 62b4 1f3e f6c5 713c 3145 873e
00000040: 120c 01bc 916b 7b3d 0f1a 69bc 7661 0bbc
00000050: 01c5 9bbd 3287 8ebd 0dd8 cdbd b76b 843c
00000060: 102a 04be 729f 1bbd 008b 853e 3daa 8f3e
00000070: eeb7 cfbc 0580 e33d 1a84 2e3e 6dde 863c
00000080: 1465 0abd 0a3b 1f3e a997 e63d dd2d a9bd
00000090: 65c3 85bd 0deb 3dbd 5020 c2bd ac0e b53c
000000a0: 4b3c 033d 4f67 3f3e 623f 9e3c a428 efbd
000000b0: de02 a3bd 4c0a 08bd 2855 99bd 674e 33bc
000000c0: ecfb a1bc d25e 1fbe b6e9 f4bb b5ea 733d
000000d0: ad59 e43b 70d0 d5bc d700 30bd 3062 7abd
000000e0: 6a76 d03d 5d86 783e 7e64 7fbd d819 b7bd
000000f0: 00ec 3a3d 648f 3e3d 18c1 80bd b4e8 ba3d
00000100: eb7c 33bd 6870 03bd 95f9 a83c d0e7 0d3d
00000110: 417c c8bc e73e d1bd 6ba0 863d bf71 26bc
00000120: d54d 463e bbe0 a5bd c13e a93d 110f 50be
00000130: ca49 ad3d a564 31bd f86b 53bd f240 823d
00000140: aed4 bc3d 9b3c dc3d 51f9 e6bd b5ba a33c
-0.104866214 -0.04557805 -0.10465375 0.0019562084 -0.038766354 0.118496805 -0.0389044 0.21937819
-0.046901815 0.069203146 0.04683248 0.065203294 -0.048678305 0.15596154 0.01475667 0.26419976
-0.007876413 0.06138188 -0.014227404 -0.008507123 -0.07605935 -0.0695938 -0.10050974 0.016164644
-0.1290667 -0.037993856 0.2608261 0.2805957 -0.02535626 0.11108402 0.1704258 0.016463483
-0.0337878 0.15549865 0.11259396 -0.08260701 -0.06531409 -0.04636674 -0.09478819 0.022101723
0.03203992 0.18691753 0.019317333 -0.116776735 -0.07959531 -0.033212945 -0.074869454 -0.010943986
-0.019773446 -0.15563515 -0.0074741496 0.059550006 0.006968698 -0.026100367 -0.04296955 -0.061128795
0.10178836 0.24270006 -0.062351696 -0.08940476 0.045635223 0.046523467 -0.0628683 0.09126416
-0.043820303 -0.03208962 0.020626822 0.0346449 -0.024473311 -0.10217076 0.06573566 -0.010158955
0.19365628 -0.080995046 0.082639225 -0.20318247 0.0846134 -0.043308873 -0.05161664 0.063600436
0.09220253 0.10753747 -0.11278022 0.01998649

fc3.weight f4 [10, 84]
00000000: fde8 5f3d 151b 42bd a586 3e3e b483 c4bd
00000010: 4bf3 b43d b7aa b93e e4fb fcbd 813e 31be
00000020: a795 a43d 763b 393e 0e2e f1bd 88f4 27bd
00000030: f606 3c3e b36b 913d 8096 2fbe b84f a33c
00000040: a14e 0bbe 4f8d 9f3e 960a 523e 01b3 8ebd
00000050: 346a c03d 4a1c aa3d 69c7 843d d7a1 8abd
00000060: 17d5 953a 8e15 69bd f82c 413e b93f 213e
00000070: 6ab1 4dbd 1f5f babd 77ba 4e3d 5ff4 dfbd
00000080: 96e6 aebe fdbe 90bc 8409 bd3d 5790 ee3b
00000090: 1f06 acbd 4fba aa3e 24d5 32be 55ba 173e
000000a0: 8ecd 883c f516 443e 491e d1bd c613 97bd
000000b0: 878d 93bc cf6f 34be 79fe f13d 063d 81bc
000000c0: ba55 003d 1bdb 24be a1c9 933c bab0 9cbd
000000d0: b06c 8bbd e34f 8fbd d426 1bbc eff4 01bd
000000e0: a73c 3a3e 1c13 56bd 2204 af3e a5a1 45be
000000f0: f266 3d3d 2572 b2bd 5188 b8bd c0ec 313e
00000100: 8b61 043e f38e 17bd 9039 fabd 9405 903e
00000110: bede 583d d278 47be b1cd 163e 1c15 51be
00000120: dcde c83d 69dc e8bd 0f22 12be 3a94 92bd
00000130: 0896 6cbe 9143 97be 0a83 adbd 905b 8a3e
00000140: ddff de3d 8992 933d 2b10 243e cd41 c9bd
00000150: 9a0f 24bd dc01 a13d 88fe a33e 505e 93bd
00000160: 2eef e8bd 6114 98be c162 6dbe 5ecf b8be
00000170: 138a b4bd 9882 32be 87f3 bdbc 9dd9 f2bd
00000180: 2b62 0e3e eec7 5c3d efbc 733d 2331 dabe
00000190: 7a89 1b3d 4fc7 5bbd 884c 9cbd 2ecf 1a3d
000001a0: 70f0 c9bd e014 cfbd e799 3d3e 51db 8bbe
000001b0: 01fc e33d a6b1 523c 6814 27be 18f3 e93d
000001c0: ebd2 46bd d625 3fbe e029 60bc cfca e6bd
000001d0: 6818 8dbd 75a3 723e da58 4dbc f3ab a03d
000001e0: a413 36be 4faa ea3c d785 babb 3e28 2c3e
000001f0: 808e 973d 4011 a6be 3784 1b3e 441e 8c3d
00000200: 453f a7bd 13af a7bd 561e 093d 80b5 3f3b
00000210: 99c0 a73d 401d 5d3e a373 7b3d 523b a53c
00000220: f8de 7b3d b792 0e3e c21e d83c da57 d4bd
00000230: d94a c2bc f491 9dbd 5abb c73d bb9d 3f3e
00000240: deee 32bd 1ca5 1f3e d920 a63d e2ad 58be
00000250: 0709 193e 13a6 083d 6a2f a0bd f768 0ebe
00000260: 166e a6bc 3588 053e 61f1 43be 11b5 123e
00000270: f3dc 5cbc d183 903b 7949 b33e 138c ee3e
00000280: 60eb 4fbc 7843 c63d ecf8 d5bc ee7f e3bd
00000290: ab4b b5bc 9eb0 3dbe 790a 233e 6fad 17be
000002a0: 18c2 2a3d 132c 953e 0dcc f63d a8f0 5c3d
000002b0: aac1 a1bc f02c a0bb 5671 023e bee6 813d
000002c0: fc0e bf3e 4832 13be 7397 863e e4f2 89be
000002d0: c422 fd3d c276 2a3d e8df 51be e087 893e
000002e0: 64ca 033e 86b6 b8bd a72d 56be bb82 ebbc
000002f0: 52f9 b2bd 8d28 56bd 5b83 cb3c 059a 36be
00000300: db18 dabd 3f6d b33d f881 113e e3ce a1bd
00000310: 9350 a2bd 1351 a13c 426f 10bc 5d62 efbc
00000320: aae4 703e 0f7c 963d 2b16 39bd 834c 153e
00000330: a82c c03c 0127 2cbe 77b6 cfbd 931e a13d
00000340: 1ce3 573d 906a 0b3c 3e85 4b3e 28f6 22be
00000350: 3f39 59bc b0be d7bd 43bb 963d 17f1 8cbc
00000360: 027c 51be 02a3 eabd 2685 ef3d b415 d83d
00000370: 37fb a2bd e70c f03c e0f3 323e e887 073e
00000380: c02a 453d 01cf e6bd 3962 83be 6159 6bbd
00000390: a7b1 c23d cd5d 383e 7578 14be 473c 163e
000003a0: ad77 97bc 1a80 b93d fa13 7e3e 16e8 b5bd
000003b0: 3be7 bf3d 22cd b53d f70c dd3e d627 3abe
000003c0: 5229 b93d 92f4 b5bd 8fef 06bb a268 3abe
000003d0: 7ea2 683d 528a 88be 5573 9dbc 19b9 c73e
000003e0: 83b1 b4bd 39fa 073d 1ccb 733d e973 cfbc
000003f0: a4a1 79bd d86a b63c c3d2 93bc bf52 7b3e
0.054665554 -0.04738911 0.1860605 -0.09595433 0.08835467 0.36263058 -0.12352732 -0.17309
0.080363564 0.18089089 -0.11776362 -0.041004688 0.1836203 0.0710062 -0.17147255 0.019935474
-0.13604213 0.31162497 0.2051185 -0.06967736 0.09395257 0.08306177 0.06483347 -0.0676915
0.0011431304 -0.05690532 0.1886481 0.15746965 -0.050218023 -0.09100174 0.050470795 -0.10935282
-0.34160298 -0.017669195 0.092303306 0.0072803902 -0.08399605 0.33345267 -0.17464119 0.14817174
0.016699579 0.19149382 -0.102108546 -0.07376818 -0.018011821 -0.17620777 0.11816115 -0.015776169
0.031331755 -0.16099207 0.01804048 -0.076508954 -0.0680784 -0.06997659 -0.009469707 -0.031727728
0.181872 -0.052264318 0.3418284 -0.19299944 0.046240754 -0.087131776 -0.09010375 0.17375469
0.12927835 -0.03700156 -0.122180104 0.28129256 0.0529468 -0.19479683 0.14726903 -0.20418209
0.09808132 -0.11370165 -0.14270805 -0.07157178 -0.23104107 -0.29543737 -0.08472259 0.27022982
0.10888646 0.07205684 0.16021793 -0.09827004 -0.04005394 0.07861683 0.3203013 -0.07195723
-0.11373745 -0.29703048 -0.23182203 -0.3609571 -0.08815398 -0.1743263 -0.023187412 -0.11857913
0.13904636 0.053901605 0.059506353 -0.42615613 0.037972905 -0.053656872 -0.07631785 0.03779524
-0.09860313 -0.101114035 0.1851574 -0.27315763 0.1113205 0.0128597375 -0.16316378 0.114233196
-0.04854099 -0.18666777 -0.013681859 -0.112691514 -0.06889421 0.23695166 -0.012533391 0.07845297
-0.1778093 0.028645663 -0.0056922245 0.16812226 0.074002266 -0.32435036 0.15187155 0.0684171
-0.081663646 -0.0818769 0.033476196 0.002925247 0.08191032 0.21593189 0.061389577 0.020169888
0.061491936 0.13923155 0.026381854 -0.10368319 -0.02371733 -0.07693854 0.09752531 0.18712513
-0.043684833 0.15590328 0.08111734 -0.21160081 0.1494485 0.033361506 -0.078215435 -0.13907228
-0.020316165 0.1304024 -0.19135047 0.14326884 -0.013480413 0.004410245 0.35016993 0.46591243
-0.012690395 0.096808374 -0.026119672 -0.11108385 -0.022130808 -0.18524405 0.15921964 -0.14812253
0.04168901 0.29135188 0.12050638 0.053940445 -0.019745667 -0.0048881695 0.12738547 0.06342839
0.3731612 -0.1437465 0.26287422 -0.26943123 0.12360147 0.041617163 -0.2049557 0.26861477
0.12870175 -0.090191886 -0.20915852 -0.02874886 -0.0873896 -0.052284766 0.024842909 -0.17832191
-0.10649272 0.087610714 0.14209735 -0.07900789 -0.079255246 0.01969198 -0.008815588 -0.029221708
0.23524728 0.07347881 -0.045187157 0.14579968 0.023458794 -0.16811754 -0.10142224 0.0786716
0.052706823 0.008509293 0.19875047 -0.15914214 -0.013258277 -0.10534418 0.07359936 -0.017204804
-0.20457461 -0.114568725 0.11695318 0.105510145 -0.07958072 0.029303027 0.17475843 0.13235438
0.048136473 -0.112699516 -0.25660875 -0.057458285 0.09506541 0.18004532 -0.14499076 0.14671431
-0.018489683 0.090576366 0.24812308 -0.088821575 0.093702756 0.088770166 0.43173954 -0.18179259
0.09041084 -0.08884539 -0.0020589565 -0.18203977 0.05679559 -0.2666803 -0.019220034 0.39008406
-0.0882292 0.033197615 0.059519872 -0.025323825 -0.06094517 0.022267744 -0.018044835 0.24543284

fc3.bias f4 [10]
00000000: 2c59 6a3e 5d3b f0be 12f0 7d3e 1395 2e3e
00000010: 6b7f 8d3e 04e8 25be 80ae 13be 3350 85be
00000020: c77d d13e 6283 9dbe
0.22885579 -0.4692029 0.24798611 0.17049055 0.27636275 -0.16201788 -0.14422035 -0.2603775
0.40916273 -0.307643
