final/07-04-2023-17-04-43/model_CNN_SGD.pth (torch, 251215 bytes, 10 tensors)

conv1.weight f4 [6, 3, 5, 5]
000000 cd 7f 80 be d0 4b 8f bf 2e 76 5f bf c9 14 0b 3f
       -0.25097504 -1.1195011 -0.872897 0.5432859
000010 35 24 45 3d ad a0 d7 be 39 23 38 be 1a 75 00 40
       0.048130233 -0.42114773 -0.17982186 2.0071473
000020 3a 87 91 3f 16 e1 7d bf f2 50 12 bf f4 b3 45 3c
       1.1369393 -0.9917158 -0.5715476 0.01206683
000030 0d 50 6e bf 87 65 34 c0 b9 6d 43 bf a9 8f 08 3f
       -0.930909 -2.8186967 -0.763393 0.5334421
000040 d5 b4 f1 3e e6 ac 95 bf 2a 6a 2d be 46 d4 b1 3f
       0.47208276 -1.169339 -0.1693503 1.3892906
000050 7a d8 99 3e ec 84 fd 3d c1 e1 14 3f af 60 82 3f
       0.3004797 0.123788685 0.58156973 1.0185755
000060 f6 af a6 3e 1c 8e 94 3f 22 d4 ab 3e fc 8e 8a 3e
       0.32556123 1.1605868 0.33560282 0.27062213
000070 53 0a b4 3f 51 9a 10 3f 32 ec a2 3e e7 f4 08 3f
       1.4065651 0.5648547 0.31820828 0.5349869
000080 ca b5 1b 40 c5 c4 da 3f 4d 7e 37 bf fb 3a fe be
       2.4329705 1.7091299 -0.71677095 -0.49654374
000090 b0 97 b3 3e 00 69 f8 be d6 1b 1c c0 94 4e 49 bf
       0.35076666 -0.4851761 -2.439199 -0.78635526
0000a0 d1 0e 73 be 71 15 7c 3d 4d b2 77 bf a8 24 d1 3c
       -0.23736121 0.061543886 -0.9675644 0.025530174
0000b0 31 25 34 3f db 40 04 bf e0 50 f5 be 2c a4 a3 3e
       0.7036925 -0.5166146 -0.47913265 0.3196119
0000c0 69 c3 8c 3e d3 d0 6d bf 4d bb 28 be b4 a3 34 bf
       0.27492836 -0.92896765 -0.164777 -0.7056229
0000d0 6c fd e5 bf b1 c5 1c bf 37 ad 82 3e 77 84 94 3e
       -1.7967963 -0.61239153 0.25522777 0.29007313
0000e0 ae 10 3f 3e 86 ee c6 3f 68 8d 94 3f 43 cc 29 3d
       0.18658707 1.5541542 1.1605654 0.041454565
0000f0 1f d1 9b be 6c 5d 3f 3e 5e b7 c3 be 92 4a f4 bf
       -0.30432984 0.18687981 -0.38225836 -1.9085257
000100 aa a3 c7 bd ad e3 f9 3d 2f dd 4d be 77 51 4c bf
       -0.09748013 0.12201629 -0.20103906 -0.79811805
000110 86 ad 5a 3e 0d 80 7a 3f 92 23 0a 3e e3 b3 a5 be
       0.21355256 0.9785164 0.13490131 -0.32363805
000120 05 51 cf 3e 8e 00 24 3f ae f2 9a bd 59 b9 16 3f
       0.404915 0.64063346 -0.07565819 0.5887657
000130 16 51 3d 3f 50 b5 0a 3f 22 d8 04 3f fa 5d 9a 3f
       0.7395185 0.5418291 0.5189229 1.2059929
000140 0b 9c 74 be ce 21 39 bf 42 e6 08 bf 67 73 8f be
       -0.2388765 -0.72317207 -0.53476346 -0.28017733
000150 ce 31 9e 3e c6 59 2c bf eb 7a 99 bf ac b2 87 bf
       0.30897373 -0.67324483 -1.1990637 -1.0601401
000160 54 98 65 bf 36 1d 23 bf 3a 70 2f bf 19 05 1f bf
       -0.8968556 -0.6371645 -0.6853062 -0.62117153
000170 b7 36 07 bf 6b c1 df be ee a4 96 be 95 ff d5 3d
       -0.52817863 -0.43702254 -0.29422706 0.10449139
000180 70 ec 3d be 3f 3d eb bc 4f e3 2d bd 69 c4 65 3e
       -0.18547225 -0.028715728 -0.042453106 0.22438206
000190 78 8c 25 bf 8d 8f 6c be 4d 71 f0 be a8 6e f7 be
       -0.64667463 -0.23101635 -0.46961442 -0.48326612
0001a0 97 d4 b2 be 01 fa eb 3d 67 bf 5b 3e 24 12 56 3e
       -0.34927818 0.11522294 0.21459733 0.20905358
0001b0 a8 8e fe 3e 49 44 01 3f b9 2e 80 3b b7 9c 9b 3e
       0.49718213 0.5049482 0.00391182 0.30393
0001c0 2d ce 4b 3d 8c d8 9c 3e 1a c7 2e 3d 52 f7 08 bf
       0.04975717 0.30633962 0.042670347 -0.5350238
0001d0 ae ad 9e 3e 81 31 4f 3e 34 af e2 3e 40 c0 2d 3d
       0.30991882 0.20233728 0.44274294 0.042419672
0001e0 e6 80 7f be 86 dc 03 3c ab 60 38 3c e6 d0 19 3e
       -0.24951515 0.008048182 0.011253516 0.15021095
0001f0 26 6d e4 bd cf 3b 4d be cf 54 ef 3e 15 a4 12 3e
       -0.11153631 -0.20042346 0.4674439 0.14320405
000200 1d 54 6d be 7d bc 98 bf ba f4 64 3f 36 1b 94 3f
       -0.23176618 -1.1932522 0.89435923 1.1570804
000210 81 29 7a 3f b2 e3 5c 3f 99 15 67 3e d0 6a 45 3f
       0.9771958 0.86284935 0.22566833 0.7711611
000220 32 d3 83 3f b0 8c d9 3e a1 65 0f 3f c1 2f 85 3e
       1.0298827 0.4249015 0.5601445 0.26012996
000230 36 47 9b 3e 14 cf 68 3f 80 e6 12 3f 19 95 10 3f
       0.30327767 0.90940976 0.57382965 0.56477505
000240 84 21 fa bd 7c 56 bd 3d e7 72 91 3e 9a 74 ec bd
       -0.12213424 0.09245011 0.28407976 -0.115456775
000250 46 01 c3 be cd 28 61 bf 24 b8 3d be 04 7b 8b be
       -0.3808691 -0.8795288 -0.18527275 -0.2724229
000260 c8 b1 7b be 58 d9 80 3e c8 a6 d0 3e de 8f 6b be
       -0.24579537 0.2516582 0.40752244 -0.230041
000270 ba bc ca be 79 49 0c 3d d5 6a 90 3e 9d 5d 8a 3e
       -0.39597112 0.034249756 0.28206506 0.27024546
000280 7a 11 83 be 22 8c aa 3e 2a 38 e8 3d 57 25 0d 3e
       -0.2559927 0.33310038 0.113388374 0.13783775
000290 0c fa b2 3e 6b e7 3a be 73 6e 0c 3e 1f e4 2b be
       0.34956396 -0.18252341 0.13714008 -0.1678624
0002a0 be 45 87 bd be c0 b0 3e ce c9 cc 3e 0e 13 ed 3e
       -0.06605099 0.3452205 0.39997715 0.463036
0002b0 3f 95 f1 bb a1 17 60 bd 30 a0 cb 3e cc 94 ce be
       -0.007372528 -0.054710034 0.3977065 -0.40347898
0002c0 7b 49 10 be ba 98 9c be ad a3 57 be 56 e3 98 3e
       -0.1409053 -0.3058527 -0.21058531 0.29860944
0002d0 6c c9 df be 82 6e d9 be 24 f7 0d bd a2 b6 2b 3f
       -0.4370836 -0.42467123 -0.03465952 0.6707555
0002e0 7a 42 63 3e 31 ac 3b bf fb 37 87 be 83 31 ba 3d
       0.22193328 -0.7330962 -0.26409897 0.09091475
0002f0 73 9c f5 3e 99 b1 77 3d ca be 0f bf 75 86 61 be
       0.47970924 0.060472105 -0.56150496 -0.22023948
000300 8c a8 87 3e 5c 0c 85 3d cf 24 36 3d 8b f3 2c bd
       0.2649578 0.06496498 0.044468697 -0.04222445
000310 3e 9b 2b bd 89 26 e0 3d 72 48 0e be a3 75 af bd
       -0.041896097 0.1094485 -0.13894823 -0.08567359
000320 28 cd c1 be 96 99 78 be a0 df 8c 3d f7 d9 03 3f
       -0.37851834 -0.24277338 0.068785906 0.5150446
000330 0c e4 33 3f 76 06 1a bf fb 29 3d bf 93 c2 03 3e
       0.70269847 -0.6016611 -0.7389218 0.12867193
000340 6b 6a 84 3f fc 52 87 3e 9a f9 03 bf 01 e6 90 bd
       1.0344976 0.264305 -0.51552737 -0.0707512
000350 de a7 b9 3e 4a 30 d7 3e 4b ec 0a 3e fd df 15 3b
       0.36260885 0.4202903 0.13566701 0.0022869103
000360 9d 89 73 3e f4 d2 18 3f a1 3c 4b 3e 90 c5 94 bd
       0.23782964 0.5969689 0.19847347 -0.072642446
000370 c2 0b dd 3e 7d 67 44 3e d6 51 05 3d 47 bd fc be
       0.43173033 0.19180103 0.032548748 -0.49363157
000380 f5 1c 16 bf 36 8a 1d be f7 74 fd bd af 50 ba 3d
       -0.58637935 -0.15384755 -0.12375825 0.090974204
000390 e4 a9 41 3e 77 56 b3 3d 67 1e e4 be fa 68 de 3e
       0.18912464 0.08756726 -0.44554445 0.43439466
0003a0 65 30 0d 3e 14 4e 57 be 39 b3 61 be 1c 35 13 bf
       0.13787992 -0.21025878 -0.22041024 -0.57502913
0003b0 d6 58 c5 3f 22 b2 16 be 1c c0 d9 bf 03 a5 40 3f
       1.5417736 -0.1471639 -1.7011752 0.7525179
0003c0 e2 98 4b bd b9 5e ee 3f b8 8b 8c bf 9a 27 d0 bf
       -0.049706347 1.8622657 -1.0980139 -1.6262085
0003d0 84 dc 75 3f 6e f8 d9 3e 5a dd 12 bc 42 68 b9 be
       0.96039605 0.4257235 -0.008963907 -0.36212355
0003e0 f0 6a 83 bd 2d 27 89 3e e9 52 a9 3e 4d e3 bf 3d
       -0.06416881 0.267877 0.33071068 0.09369526
0003f0 f7 7d a9 bd ec 52 36 bf fa a8 56 3d 8b 67 95 3e
       -0.08275979 -0.7122028 0.052407242 0.2918056

conv1.bias f4 [6]
000000 cb 52 73 bf b2 08 f4 3d 2d 11 a9 be 5e 23 5c bf
       -0.9504821 0.11915721 -0.33020917 -0.85991466
000010 27 19 82 bf a3 65 cd bf
       -1.0163926 -1.6046642

conv2.weight f4 [16, 6, 5, 5]
000000 9e 4f d6 be 37 fd 0f 3d 4a fc 14 bf bd dd 32 3e
       -0.41857618 0.035153594 -0.5819746 0.17467399
000010 5f 7b 41 3e 58 25 6c be 8f bb b0 be 60 85 d8 3b
       0.18894719 -0.2306112 -0.34518096 0.0066076964
000020 48 89 04 3f ef 4c 16 bd 6c e0 1d bf 21 cc 98 be
       0.51771975 -0.036694463 -0.61670566 -0.29843238
000030 46 93 a4 3e 91 3f 6e 3e 2b 7b 83 3e 88 7c 5a be
       0.3214361 0.23266436 0.25679907 -0.21336567
000040 f1 ce 34 3e cd 0a 10 bf 4b d9 f7 3d 12 9b e3 3e
       0.17657067 -0.5626648 0.12101992 0.44454247
000050 e9 88 65 bf a6 db e8 3c e9 a8 d0 3f f8 49 6f 3e
       -0.89662033 0.028425049 1.6301547 0.2336806
000060 99 a2 08 bf ad f7 9c bd b5 31 05 bc 0b e0 d2 bc
       -0.53373104 -0.07664428 -0.008129527 -0.025741598
000070 cf b2 52 3e 5e 0b 8b be ab 93 2b be 62 b7 65 3e
       0.20576023 -0.2715711 -0.1675555 0.22433236
000080 f3 11 1f 3f fc ba 92 3e d8 91 0d bf 54 8d 98 3e
       0.62136763 0.28658283 -0.55300665 0.29795325
000090 42 ee 99 3e 78 09 94 3e cc d2 d4 bd a1 8b 20 bf
       0.3006459 0.28913474 -0.10391769 -0.62713057
0000a0 22 b8 03 bf 50 e5 ac bd 9d 3f 2a 3f ea 23 1b 3e
       -0.5145284 -0.084421754 0.66503316 0.15150419
0000b0 a0 99 fa be a5 83 a4 3d 0a 65 1a bf 72 b5 e9 be
       -0.48945332 0.08032922 -0.60310423 -0.45646244
0000c0 6f 1d a5 3e ff 00 8e 3e 5e be b3 be 93 02 21 bf
       0.3224902 0.27735135 -0.35106176 -0.6289455
0000d0 4a e4 79 be a5 6c 4e be 5e 44 52 be 61 14 f7 3e
       -0.24403492 -0.20158632 -0.20533893 0.48257735
0000e0 3b 2b 25 bf 6c 02 0f bd 65 ba 83 3e 87 e8 7a 3d
       -0.6451909 -0.03491442 0.25728145 0.06125691
0000f0 be 08 c7 3e 39 8d bd 3e 2d ab 79 be 48 ed 8f bb
       0.38873857 0.37021807 -0.24381705 -0.0043923
000100 eb ea ba be 3f aa 19 be 5f 56 1d 3f c5 2f f5 be
       -0.36507353 -0.1500635 0.61459917 -0.47888008
000110 0c af de be fe 11 b7 3e 66 45 1c bf d9 4e 7a be
       -0.43492925 0.35755914 -0.61043394 -0.2444414
000120 f0 90 5c 3e 97 b4 6c 3e 90 8a 04 3f 60 70 c3 bd
       0.21539664 0.23115765 0.5177393 -0.09542918
000130 10 2b 8d be eb 63 99 bc af fb 29 be 0f 64 85 be
       -0.27571917 -0.018724402 -0.16599916 -0.260529
000140 80 7e 54 be 85 b5 50 bd 9f b8 6a 3e 31 26 5c 3e
       -0.20751381 -0.05095436 0.2292199 0.21498944
000150 1f 1a 10 3d f4 97 de 3d 4a 6c 2d ba f6 57 f2 3d
       0.03518116 0.108688265 -0.00066155626 0.118331835
000160 a3 d0 84 be 71 b3 98 bd a7 12 e6 3e dc d7 6c 3e
       -0.25940427 -0.07456101 0.44936106 0.23129219
000170 70 9a 49 3d 9a e5 13 3f 26 b9 aa bd 7b 73 2a bf
       0.04921955 0.5777222 -0.083360955 -0.6658246
000180 be 4f 28 be 40 a7 74 be 8f b8 8d bf 75 28 18 bf
       -0.16436669 -0.23891926 -1.1071948 -0.5943673
000190 13 4b 22 3e ae 11 ae be 2a 17 73 be 24 fa 32 3e
       0.15848951 -0.33997864 -0.23739305 0.17478234
0001a0 1f 86 b8 be 19 16 a2 3c ce 14 76 3e 82 93 f5 be
       -0.36039826 0.019785928 0.24031374 -0.47964102
0001b0 94 9c 86 be 3a fb 5f be 6c 24 93 be b7 c3 18 3f
       -0.26291335 -0.21873179 -0.28738725 0.5967364
0001c0 c1 a1 0a 3e 35 9d 1b bf 96 86 d6 be d8 da 9f be
       0.13538267 -0.60786754 -0.41899556 -0.31221652
0001d0 09 1a 18 bf 6a ac 81 3e 79 e7 4d 3e 29 29 96 bc
       -0.59414726 0.25326854 0.20107831 -0.018330174
0001e0 6b 40 50 3f 8d 1b 91 3d e3 96 42 bf 24 a6 bb be
       0.81348294 0.07085333 -0.76011485 -0.36650193
0001f0 bb c1 45 3d 48 33 cd be fd 86 ad 3d 31 00 31 be
       0.04828046 -0.40078187 0.084730126 -0.1728523
000200 02 90 32 3d 37 cd 9c be 10 fc b8 3c 33 f3 bb bd
       0.043594368 -0.30625317 0.02258113 -0.09177246
000210 87 f9 49 3d 22 f3 2d bd ba d1 e6 3e 99 1d 15 3f
       0.049310233 -0.042468198 0.45081884 0.5824829
000220 f7 10 5a bf da 72 9c be 54 eb 8c 3d 77 71 55 be
       -0.85182136 -0.30556375 0.06880823 -0.20844065
000230 b1 b0 b7 3f f8 2c 5f bc 36 a4 81 bf a5 59 2f be
       1.4350797 -0.013621561 -1.0128238 -0.1712404
000240 55 bd 64 be 39 66 8a bf ab ea db 3f 9c fa 73 3f
       -0.2233785 -1.0812446 1.718099 0.95304275
000250 85 47 65 3c 2d 62 97 bf 3b 96 d6 3c db be a7 bd
       0.013994102 -1.1826836 0.026194682 -0.081907
000260 6a e5 7b 3d b8 7e ac bd ef b5 a0 be 2a 78 c8 bd
       0.061498083 -0.08422607 -0.31388804 -0.097885445
000270 d3 05 82 3e 84 4b 1e 3e 07 56 d4 be 66 05 ee 3e
       0.2539507 0.15458494 -0.41471884 0.46488494
000280 4d ef 87 bd 63 37 af be 83 48 c6 be 75 18 13 3f
       -0.0663744 -0.34221944 -0.38727197 0.57459193
000290 72 2a f5 bc cb 7f 71 be ad 2a 4c be 3c af 4b 3f
       -0.029927466 -0.23583905 -0.19938155 0.7956426
0002a0 55 ff 17 3f 52 a2 18 bf d5 41 e4 bd 57 3c 2a 3f
       0.5937398 -0.5962268 -0.11145369 0.6649832
0002b0 1a 19 63 3e 28 84 3d bf b9 15 41 bf ba a1 55 be
       0.22177544 -0.7402978 -0.7542377 -0.20862475
0002c0 ec 46 c3 3e f4 83 aa bd 52 9f 8e 3e f5 55 e3 3e
       0.38140047 -0.08325949 0.27855927 0.44401518
0002d0 e4 aa 86 be 6a 04 ae 3d 66 90 fb 3d 76 dd fa 3e
       -0.26302254 0.08496936 0.12283401 0.48997086
0002e0 cd 69 ad be 9a 60 53 3d c0 c3 22 3e 44 3e 70 3e
       -0.33869782 0.0516058 0.15894985 0.23461252
0002f0 a3 bf 25 3e a2 d6 09 bf ea c1 af bd 99 65 c2 bd
       0.16186385 -0.5384313 -0.08581908 -0.094920345
000300 da 95 b8 3e d9 bc e1 be 70 3c 62 bf fe ae 19 3e
       0.36051828 -0.44089392 -0.8837347 0.1500816
000310 f7 d0 d3 bd c6 d7 86 be 93 7d b6 be 53 4e 20 be
       -0.10342591 -0.26336497 -0.3564268 -0.15654878
000320 ef 15 f1 bd 47 51 a5 be e4 fa 07 be eb 4f 98 be
       -0.117717616 -0.32288572 -0.13279301 -0.29748473
000330 cc d2 89 be 49 d6 48 3e 05 21 18 be 72 74 6c be
       -0.26918638 0.19612993 -0.14856346 -0.23091295
000340 57 19 79 3e 19 e2 81 bf 6b 08 f7 3d 06 4b b5 3e
       0.24326073 -1.0147125 0.120621525 0.354088
000350 cd 29 bc 3e a7 5b ac be a6 cd 72 bf 58 62 c9 be
       0.3675064 -0.33663675 -0.94845045 -0.39332843
000360 a8 4b 95 3d 2d 1f c5 be 30 17 11 bf 66 9c 46 3f
       0.07289821 -0.38500348 -0.56676006 0.77582395
000370 4e d8 ba be 2a 70 d9 be f0 c3 3b be fe fd 94 3e
       -0.36493152 -0.42468387 -0.18336463 0.2910003
000380 49 88 cc 3f 58 65 73 bd 73 22 c8 3d 1d 3b 6d 3e
       1.5979091 -0.05942282 0.09772196 0.23167081
000390 54 e0 9d 3e d4 a0 8a 3e c5 66 cf 3d 75 54 71 3d
       0.3083521 0.27075827 0.101270236 0.058918435
0003a0 36 e4 fc 3d 1f 27 5b be a4 1c 5d 3f 9c 45 57 be
       0.12348215 -0.21401642 0.8637183 -0.21022648
0003b0 57 a7 5c 3e 48 e7 f8 bd 34 75 85 3f 12 4a d3 3e
       0.2154821 -0.121534884 1.0426393 0.4126745
0003c0 c2 e5 4c 3e 69 45 58 be 9f 5f 6a 3e 0b 6d 12 3e
       0.2000952 -0.21120228 0.22888039 0.14299409
0003d0 15 8c 44 bf 0b b6 bb bd 92 42 de be c3 e5 2b bf
       -0.7677625 -0.09165581 -0.43410164 -0.67147464
0003e0 0d 41 d1 bf f9 a8 a7 bf af 78 09 3f 96 4b ac be
       -1.6347977 -1.3098441 0.53699774 -0.33651417
0003f0 6e a4 f4 3d e9 d3 aa be a4 38 1a bd d2 42 4b be
       0.11945425 -0.333648 -0.037651673 -0.19849709

conv2.bias f4 [16]
000000 35 d0 d2 bf 73 10 fa bf 4e c3 03 40 ef b3 14 3f
       -1.646979 -1.953627 2.0587955 0.58087057
000010 d0 21 5d 40 e9 89 b4 3e d9 57 f1 be f7 d1 25 3f
       3.4551888 0.35261467 -0.47137335 0.64773506
000020 a2 45 3d c0 a9 f0 c1 bf fb be a0 3f b0 0e 5e c0
       -2.957375 -1.5151569 1.2558283 -3.4696465
000030 ad 2c 7b 3e a8 15 b3 3f 58 cb 2b c0 d4 42 b4 bd
       0.24528761 1.3990984 -2.684286 -0.08801809

fc1.weight f4 [120, 400]
000000 23 b6 65 3d 0f a3 61 bd 14 d4 0c 3d 12 ed 65 be
       0.056081902 -0.055087145 0.03438194 -0.22453716
000010 82 eb 0b 3e 54 7a 84 3e a6 8f 3c 3e 36 27 60 3e
       0.13664058 0.2587458 0.18414173 0.21889958
000020 cb ed ab be 4c 62 d0 3e 14 5b da 3e 1c 63 28 3d
       -0.3357986 0.40699995 0.42647612 0.041110143
000030 bb fc 69 3e f0 66 45 be 05 98 fd bd 10 2c 3e bd
       0.22850315 -0.19277549 -0.12382511 -0.04642874
000040 29 9b 10 3e 95 ef 06 3b 4c f9 79 3e d8 0e 1e be
       0.14121689 0.002058958 0.24411505 -0.1543535
000050 7a ef 0c 3e f8 09 3f be f1 f3 23 bc 59 43 4d 3d
       0.13763228 -0.18656147 -0.010006891 0.050113056
000060 f7 fb 66 3e 7b c9 1d 3e af ae 2b be 0b 59 14 be
       0.22557054 0.1540889 -0.16765855 -0.14487092
000070 ed 24 b0 3e 9b fc c0 be c0 ea 87 be 17 c0 11 be
       0.34403172 -0.37692723 -0.26546288 -0.14233433
000080 25 ad 77 3e 04 ff ad 3d b5 fc ee bb 6a fb 89 bd
       0.24187143 0.08495906 -0.0072933086 -0.067374066
000090 c2 8c 1a be d9 1f a6 3d dd 9c 88 3e eb e5 d3 3e
       -0.15092757 0.08111543 0.26682177 0.4138635
0000a0 9e ce 10 3c 06 23 32 bd 87 ad 88 3e fe aa 8b 3e
       0.008838324 -0.043490432 0.2669489 0.27278894
0000b0 b3 9d 2d be 50 8c 20 3e 81 d0 57 be 8d 5d 79 3d
       -0.16954689 0.15678525 -0.21075632 0.060880233
0000c0 ad 4e 27 3e 3f bd e2 bd ec bf 39 be 1e f1 76 be
       0.16338606 -0.11071252 -0.18139619 -0.24115416
0000d0 34 15 19 3e 87 e1 04 bd d5 3f 74 be 82 ee 1a be
       0.14949495 -0.032441642 -0.23852475 -0.15130046
0000e0 79 bb 30 bd 3b df e6 3d a4 62 5b 3e 9a 9a ca bd
       -0.043147538 0.112730466 0.21424347 -0.09892769
0000f0 4e 7c 9e be fe 8c 72 bd bc 45 de bd 9c 3e 9f 3e
       -0.30954212 -0.059216492 -0.108531445 0.31102455
000100 da fd 54 bc c3 84 4b be 9e 07 52 bd f8 fc d6 bd
       -0.012999976 -0.19874863 -0.051276796 -0.10497469
000110 e7 b7 ea bd 58 0d f1 bd 76 19 84 be 92 7a 41 3d
       -0.11460858 -0.11770123 -0.25800675 0.047236033
000120 a2 30 49 be 53 ee 9a bd 8d d3 ac 3e d3 e9 94 be
       -0.19647458 -0.07564988 0.3375515 -0.29084644
000130 b3 d4 06 bd cb c2 15 be 6d 21 65 be 7b 8b e8 be
       -0.03291769 -0.14625089 -0.22376032 -0.45418915
000140 d3 1a 83 3e 75 84 57 bd cb 64 15 be 34 f2 26 bd
       0.25606403 -0.052616555 -0.1458923 -0.040758327
000150 ae 2a 36 be f6 ba b3 3d 98 b1 7b bb a4 ab 79 3d
       -0.17789719 0.08775894 -0.0038405415 0.060954705
000160 a9 a4 75 bc 73 da 24 be c6 ad fd bd 51 86 90 3e
       -0.014992871 -0.16098957 -0.1238666 0.28227475
000170 82 96 ca be c5 6c 46 3e 8a f4 02 be 63 7d ad 3e
       -0.39567953 0.1937743 -0.12788597 0.33884725
000180 7f 92 a0 3d 8c 63 c1 be e4 71 70 be 6f a3 4f bc
       0.07840442 -0.3777126 -0.23480946 -0.012673243
000190 21 b5 ec 3e c0 ba 95 be ed 97 af 3d a2 07 be bd
       0.4623194 -0.2924404 0.085738994 -0.092787996
0001a0 bd 2d e9 3c fa 31 21 3e 7c ad de be 26 48 a9 bd
       0.028464193 0.15741721 -0.43491733 -0.08265714
0001b0 ed 2b db be 56 d2 1e be 5c 7c 99 bd ee 87 41 be
       -0.4280695 -0.15509924 -0.07494423 -0.1889951
0001c0 eb 57 ea be 7f 1e e2 bc 3e 44 13 be 44 97 d8 3d
       -0.457702 -0.027602432 -0.14381501 0.10575727
0001d0 15 62 83 3e 1a ee 6b be 5c 25 54 be a9 fd e8 bc
       0.25660768 -0.23040047 -0.20717376 -0.028441267
0001e0 f0 65 f6 3e f1 9e 8a bc 96 01 14 3f e2 05 25 be
       0.48124647 -0.016921492 0.5781492 -0.16115525
0001f0 13 9f 28 3e 44 b2 ee bd e7 07 38 3e 4a 68 5f 3e
       0.16466932 -0.11655095 0.17971765 0.21817127
000200 c6 48 d4 3d 37 ba 53 bc c7 65 87 3d 8c 43 12 be
       0.10365443 -0.012922815 0.06611209 -0.1428358
000210 6d 4b 93 bd 22 09 23 be 5d 16 8e 3c 6f 61 0c 3e
       -0.07192121 -0.15921453 0.017344648 0.13709043
000220 48 0c 48 3d 23 69 2f 3c 6c 41 1c 3e 60 cf 8c 3e
       0.048839837 0.010706219 0.15259331 0.27501965
000230 24 41 2c 3e de e4 4c 3e d3 6f 01 3d a8 56 96 bd
       0.16821724 0.20009181 0.031600785 -0.07340747
000240 40 a9 47 3e 01 7b e5 3d d1 c2 18 bc b5 00 8d be
       0.19498158 0.11205102 -0.009323792 -0.27539602
000250 41 80 2c bd 81 7e f7 3c 2e 65 17 bf ad 4b 79 be
       -0.0421145 0.030211689 -0.5913876 -0.24345274
000260 a3 50 98 be b7 0e 24 be c4 e4 3a be 07 a5 f1 be
       -0.2974902 -0.16021238 -0.1825133 -0.47196218
000270 2e af e4 be 30 a0 a7 be 83 f3 5e be 54 c3 c4 be
       -0.44664901 -0.327394 -0.2177258 -0.38430274
000280 f4 34 1c be ee 04 f7 3c 60 01 4b bc 91 a9 65 bd
       -0.15254575 0.030153718 -0.012390465 -0.056069914
000290 1f 7b 1e be 8f 0e a4 3e ff cf e8 bd bf 1d c2 be
       -0.15476654 0.32042357 -0.11367797 -0.3791332
0002a0 33 94 76 be 66 c5 c9 bd a5 18 ef 3d 7b 34 09 bf
       -0.24079971 -0.09852104 0.116746224 -0.53595704
0002b0 0f aa 4b be ca 54 90 bd 45 bd 62 3e f5 12 7b bc
       -0.19889091 -0.07047422 0.22142513 -0.015324344
0002c0 3b 33 f7 be 7f 2c af be 40 3b b2 be 8b 79 87 be
       -0.48281273 -0.34213635 -0.3481083 -0.26459917
0002d0 b0 ae a5 be 72 58 b6 bc 43 9d 8e be 56 f8 b4 bd
       -0.32359838 -0.02225897 -0.27854356 -0.08836429
0002e0 6e 0f 9b be b4 f2 c3 3e 17 75 bc 3c 44 36 1d be
       -0.3028521 0.38271105 0.023005052 -0.15352732
0002f0 e5 dd 0b be 0d a3 93 3e 09 36 94 3d 34 69 17 3e
       -0.13658865 0.28835335 0.07236869 0.14786226
000300 e8 c3 94 be 56 d4 1c be b5 8d 4c be e2 eb 9d 3c
       -0.29055715 -0.15315375 -0.19975932 0.019277517
000310 81 eb 2c 3e 4d 1d 91 3e b9 25 b1 3d 12 f2 de be
       0.16886713 0.28342667 0.08649773 -0.4354406
000320 e3 26 21 3e b9 c6 d4 3d 96 05 64 bd a7 ff 65 3e
       0.1573749 0.10389466 -0.05566939 0.22460805
000330 1e cc 1c be 03 d2 9d 3e 70 73 e5 be 97 e2 8b 3d
       -0.1531224 0.3082429 -0.44814634 0.06830328
000340 86 89 99 3d 4a 39 01 3e 22 ff 30 be 55 d3 1b bc
       0.07496934 0.1261951 -0.17284825 -0.009510835
000350 44 95 84 3d 3b d0 59 be 76 53 75 be d9 9d 61 bd
       0.06473783 -0.2127084 -0.23957619 -0.055082176
000360 1e 59 cc 3c c6 50 86 be 1b 2e c4 bc 7f 7b 6e 3c
       0.024944838 -0.262335 -0.023947766 0.014555811
000370 05 c8 19 3c 07 1e 9d be 5f 31 13 3e 97 81 07 be
       0.009386067 -0.30686972 0.14374302 -0.13233028
000380 eb ee b9 3e 8d a5 00 be c7 aa 4b bd 5a 9f fb 3c
       0.36315092 -0.12563153 -0.049723413 0.030715633
000390 84 03 6b 3d b9 50 33 3f a9 5b c6 bc 62 f5 81 3e
       0.0573764 0.7004505 -0.024213629 0.25382525
0003a0 3b f9 11 3f df dc a1 3d c6 5d e4 bc 78 a7 b2 be
       0.5702092 0.07903456 -0.027876746 -0.34893394
0003b0 af ae 2c be 90 97 32 bd bc 00 fc 3d 89 57 e2 bd
       -0.16863512 -0.043601573 0.123048276 -0.11051852
0003c0 56 74 b8 bd 2a be 56 3d ca d9 5c bd 36 98 3e 3e
       -0.09006564 0.05242745 -0.053918637 0.18612751
0003d0 25 1f 3a 3e b1 e5 c1 3d 9c 20 ec bd 82 a9 f6 bb
       0.18175943 0.09467638 -0.11529657 -0.007527531
0003e0 8a dc b2 be e7 da 75 bd 76 ed 04 be 77 b1 0c be
       -0.34933883 -0.060023215 -0.12981209 -0.13739572
0003f0 33 53 97 be c3 8d 36 be 1e 90 c1 3d ee 95 43 be
       -0.29555663 -0.17827515 0.09451316 -0.19100162

fc1.bias f4 [120]
000000 c7 a4 ce 3c a6 64 4c bf 10 3d c4 3e 9f dc 52 be
       0.025225056 -0.7984108 0.38327837 -0.20591973
000010 70 4c 36 bf c3 ea a9 39 dd d9 b8 3e 23 9a cd 3e
       -0.71210384 0.00032409103 0.36103716 0.4015666
000020 8d 44 f5 be d9 4e 78 3e d1 55 7e 3b a0 f0 c4 3e
       -0.47903863 0.24248828 0.0038808475 0.38464832
000030 a8 bc 90 bd e2 8a 09 be 5f 1e 11 be 70 a4 57 3e
       -0.07067233 -0.13431886 -0.14171742 0.21058822
000040 88 ea d2 3b 84 59 b0 be 9f 8c be be 7d 8b 97 be
       0.0064366497 -0.34443295 -0.3721666 -0.2959861
000050 3d 2d f9 bc 70 d3 80 bd a2 41 a1 be 77 46 32 be
       -0.03041708 -0.062903285 -0.31495386 -0.17409693
000060 ed a7 aa 3a a2 6d 89 bd 4a ac 02 be fb ca f6 3e
       0.0013020016 -0.06710364 -0.12761036 0.48201737
000070 60 86 16 3e e3 96 c7 bd 02 ed 05 3e ca e3 26 3e
       0.14699697 -0.09745576 0.13078693 0.16297832
000080 0a 0a 8f bd 15 ec 09 bf ae a3 b0 3e 67 97 9e bd
       -0.06984337 -0.5387586 0.34499878 -0.077437215
000090 1c dc c3 3e 9d 96 e9 3d ba fd ef be 26 62 7a 3e
       0.38253868 0.1140568 -0.46873266 0.24451503
0000a0 16 8a 05 3f ca fd e9 3e 0a 51 c8 3e 9d ea 91 3e
       0.5216383 0.45701438 0.39124328 0.28499308
0000b0 29 75 b6 be 5d f1 a0 3e f7 3c 8a 3e 63 6d 7d be
       -0.3563626 0.31434146 0.26999637 -0.24748759
0000c0 00 d5 97 3e 9e 39 82 3d d3 59 96 3e 30 5a 1d be
       0.29654694 0.06358646 0.29365405 -0.15366435
0000d0 c9 9d fb bd e8 db 9b be 3c b3 8b 3e a6 33 25 3f
       -0.122859545 -0.30441213 0.27285182 0.64531934
0000e0 89 db 98 bd 19 16 d4 3d db 19 af 3d f5 95 a6 be
       -0.07463748 0.10355777 0.085498534 -0.32536283
0000f0 2a e4 5a be 4b 5b 32 3c d4 fd b8 3d 77 92 ad 3c
       -0.213761 0.010886024 0.09032789 0.021188004
000100 e1 62 58 3d 0c b7 65 3e 44 d2 92 3d ee 0f a9 3d
       0.052828673 0.22433108 0.07169011 0.082549915
000110 ae c1 14 3f 90 ad 85 3e 3e 5e b9 bd 0d b3 13 be
       0.5810803 0.2610898 -0.090511784 -0.14423771
000120 9a 20 a4 be aa cf 83 be b6 17 dd bd 1d 8d 96 be
       -0.32056123 -0.25744373 -0.10795538 -0.29404536
000130 4d 5b bd 3b ff 29 05 be 7a bb 4f 3e cd e9 a9 be
       0.005778706 -0.13004301 0.2028636 -0.33186188
000140 39 00 15 3e 0a 4c cb 3c f1 47 71 be 58 ce 78 be
       0.14550866 0.024816532 -0.235626 -0.24297464
000150 d8 b1 f6 3d 82 04 64 3e 4c 3f 27 bd 87 e8 06 3f
       0.1204564 0.22267345 -0.04083185 0.5269856
000160 0a e0 9f 3c da 44 ef bd a4 e1 c5 3e 6e c8 6c bd
       0.01951601 -0.11683054 0.38648713 -0.057808332
000170 f3 2a a1 bd c1 71 a9 3e d5 4a 52 3e e0 f3 50 bd
       -0.0786952 0.330946 0.20536359 -0.051013827
000180 9e c9 c7 3b e5 03 19 be ab cb e8 be f7 c3 e2 3e
       0.0060970327 -0.14942892 -0.45467886 0.44290134
000190 bd 9f 82 3e 94 a3 40 be db 95 d5 3e 9c f9 ab bd
       0.25512496 -0.188124 0.41715893 -0.083972186
0001a0 24 3d 34 be 5d 46 21 3d dd 33 f1 3e 0e bb 63 bd
       -0.17601448 0.039373744 0.4710988 -0.05559831
0001b0 36 9e a0 be 9d ac 1d be aa 22 06 3f 01 ca 4b be
       -0.31370705 -0.15397878 0.52396643 -0.19901277
0001c0 ca b5 cb bd 05 d8 cc be 7d 50 85 3c 7b ae 0f bf
       -0.09946783 -0.4000856 0.016273731 -0.5612561
0001d0 84 28 22 3e cc 08 6d be c4 ac 80 3e 6d 29 7f 3e
       0.15835768 -0.23147887 0.2513181 0.24918146

fc2.weight f4 [84, 120]
000000 f1 6b ac 3e 6a 17 a1 bd d7 9f 96 3d 4d eb 61 bd
       0.33676103 -0.07865794 0.07354706 -0.05515604
000010 fa 96 17 3e ab eb 82 be 18 f2 26 bf 69 b6 d9 3c
       0.14803687 -0.25570425 -0.65213156 0.026576238
000020 cc f9 cb bd 92 7d d4 3d 71 62 b6 be 49 31 1d 3d
       -0.09959754 0.10375513 -0.3562198 0.03837708
000030 d0 e7 1f 3e a2 9d d5 be 02 57 bd 3b f5 46 cd bc
       0.15615773 -0.41721827 0.0057781944 -0.025058249
000040 0e 28 2a be 9b f0 8f be 9d 84 be bd 2a 41 25 3e
       -0.16616842 -0.28113255 -0.09302638 0.1613814
000050 72 67 0e bf 97 b2 1c bf a2 f1 83 be 98 d5 55 3e
       -0.55626595 -0.61210006 -0.2577029 0.20882261
000060 83 24 c3 bd 4e b6 94 be 0d bc 17 3e d1 f1 6d be
       -0.095284484 -0.29045337 0.1481783 -0.23236777
000070 81 37 84 be 9c 6e dc 3e 56 de a8 be ce 56 3e bd
       -0.25823596 0.43053138 -0.3298213 -0.046469502
000080 a9 43 fc 3d f9 05 41 bc 01 73 da be 94 11 20 be
       0.12317593 -0.011781209 -0.42665866 -0.15631706
000090 fe 62 ca be ac d9 04 be 67 81 bb 3d 8c 45 82 bd
       -0.3952865 -0.1297366 0.09155541 -0.06360921
0000a0 ea 99 00 3d b1 54 09 be d6 8b ad be a4 6a a6 be
       0.031396784 -0.13411213 -0.3389575 -0.32503235
0000b0 31 75 83 3d fd 9e c8 be a9 90 28 3e c9 04 0c 3e
       0.06418837 -0.39183798 0.16461433 0.136737
0000c0 14 c5 23 bf 61 04 38 bd 55 ae 04 3e 3b 7b d5 be
       -0.6397259 -0.04492605 0.12957127 -0.4169558
0000d0 95 8b a2 3d aa 2a 6f 3e 8a 06 0f 3d b5 de c4 bd
       0.079367794 0.23356119 0.034918346 -0.096127905
0000e0 18 d0 b1 3d d9 c4 b5 bd 86 12 29 be da 56 9c be
       0.08682269 -0.08875436 -0.16510972 -0.30535012
0000f0 00 c9 84 3e b5 bf b6 bc c6 a5 3b be be 91 37 be
       0.259346 -0.02230821 -0.18324956 -0.1792669
000100 f4 de b8 be 12 87 87 bd 84 05 19 3e 4b 26 1a bf
       -0.361076 -0.066175595 0.1494351 -0.6021468
000110 c7 bb b4 bd 55 e9 12 be 53 c4 92 3e 26 d6 9d 3e
       -0.08824878 -0.14346822 0.28665408 0.30827445
000120 0c b8 6a bd 31 a3 91 be 28 9a 47 be f6 27 3c 3e
       -0.057304427 -0.28444818 -0.194924 0.18374619
000130 78 b6 e1 3d c5 9f 67 3e ef e9 07 3e c5 ef 27 bc
       0.11021131 0.22619541 0.13272832 -0.010250037
000140 34 f8 1d be 8d 15 19 3c e4 c5 b2 bd 70 8b 60 be
       -0.15426713 0.009343517 -0.08729151 -0.21928191
000150 49 1e 86 be b2 20 8b 3c 16 e5 07 be 0c c3 a0 bd
       -0.2619498 0.016983364 -0.13270983 -0.07849702
000160 58 e4 68 be be d8 20 be 0d 76 f4 bd ee da b8 be
       -0.22743356 -0.1570768 -0.11936579 -0.3610453
000170 3b 6c 65 be 45 9b 43 be cc cf b5 be 90 28 69 be
       -0.22404568 -0.191022 -0.355101 -0.2276938
000180 7c 58 78 3c 69 11 65 3d be 37 b7 3d ea 93 c2 be
       0.015157815 0.055924807 0.08946179 -0.38003474
000190 7c 63 67 3d da 26 8d 3d df 63 41 be 8c d2 bb be
       0.05649136 0.06892176 -0.18885754 -0.36684072
0001a0 49 89 9d be 0d e8 a3 be 85 32 57 be 80 be 3f be
       -0.30768803 -0.32012978 -0.21015365 -0.18725014
0001b0 80 94 98 3d 9d d7 5e be 81 dc 2f be 4a 2f 11 3c
       0.07450199 -0.21761937 -0.1717396 0.008861372
0001c0 33 bc af 3e 9c a5 81 3e 94 64 e4 3e 6f 86 4a 3d
       0.34323272 0.25321662 0.44607985 0.049444612
0001d0 c6 b3 1a 3e b6 2c ac be 14 5e 47 3d ab 18 e2 bc
       0.1510764 -0.33627862 0.048673704 -0.027599653
0001e0 61 76 14 3d ac 8a a5 be 05 21 5b be 05 3a 1e 3d
       0.036245707 -0.3233236 -0.21399315 0.03862955
0001f0 bc f7 06 be d2 8f 6d be d1 17 0c 3c 13 25 4c be
       -0.1318044 -0.23199394 0.0085506 -0.19936018
000200 49 02 5e bd 40 9b 89 bd 80 ae f4 bc db 20 07 bd
       -0.054201398 -0.06719065 -0.029868364 -0.032990318
000210 cc 7f 03 be 2a ac 8f be c5 ff 8a be f9 87 b4 bd
       -0.1284172 -0.28061038 -0.27148262 -0.08814997
000220 e9 5c 31 be 79 e1 f1 be dc 38 34 bf ba a8 d1 bc
       -0.17320599 -0.47242334 -0.7039926 -0.02559315
000230 d0 5f ec 3d c9 87 bc bd 72 c3 2c 3e 24 ad 7a be
       0.11541712 -0.092055865 0.16871431 -0.2448011
000240 6f fe 10 3d 0c 26 2f bd 7e 13 31 3e 33 c6 44 3e
       0.035398897 -0.042760894 0.17292592 0.19216232
000250 48 62 09 3d fd 9c 28 3e 0b 87 af bd be 37 d6 bd
       0.033540994 0.16466136 -0.08570679 -0.10459851
000260 f5 b9 8e bb b4 60 cb be 78 2d 87 be c5 e7 4e be
       -0.004355664 -0.39722216 -0.26401877 -0.202056
000270 7b cd de be 27 b5 2f 3e 61 8f b5 3d 77 ca 16 3e
       -0.43516144 0.17158948 0.08865238 0.14725672
000280 ac d3 5c bd 39 25 66 be fa eb 97 be 42 c2 99 bd
       -0.053912804 -0.22475137 -0.29672223 -0.07507755
000290 b4 73 ad 3c 87 ca 05 be e5 56 fd bc 62 f0 b4 bc
       0.021173336 -0.1306554 -0.030925224 -0.02208728
0002a0 00 56 06 3e dc 8f 2d bc 42 5b aa bd 6a 80 25 be
       0.13118744 -0.010593381 -0.08318187 -0.16162267
0002b0 66 06 17 be 49 4c 67 bd 30 38 c7 bd 6b 01 b8 bd
       -0.14748535 -0.056469236 -0.09727514 -0.089846455
0002c0 c3 a1 cd bd 5d 1d 89 be 8c d8 00 3d 54 6f d7 be
       -0.10040619 -0.26780215 0.031456515 -0.42077124
0002d0 cf 4c 7d bd 1b 3e 6f bb ef 2d 4f be 72 03 dd 3d
       -0.06184083 -0.0036505524 -0.20232366 0.10791673
0002e0 a2 a8 d8 3d 48 6a ee 3b 63 e3 68 3c d7 bb db 3c
       0.10579039 0.0072758533 0.0142143695 0.026822967
0002f0 78 d8 92 be 69 7f ca be aa 56 d5 3d 08 de 67 be
       -0.28680778 -0.3955033 0.104169205 -0.22643292
000300 d8 b9 a2 3d e5 fa ab bd 6f bd 9a 3d ab 1c 03 be
       0.07945603 -0.08397464 0.07555663 -0.12803905
000310 2f 3d 0e 3e f2 a7 ce bc 2d 0a c3 be f6 11 12 bd
       0.13890527 -0.025226567 -0.380937 -0.03566166
000320 cf 73 47 be 76 a1 84 bc 8b 0a d3 3d 84 00 82 bd
       -0.19477771 -0.016190272 0.10304745 -0.063477546
000330 14 0a 33 be 19 aa 28 be 92 32 41 3d fb 44 5a bd
       -0.17484313 -0.16471137 0.04716737 -0.05328844
000340 d8 24 8e 3e 61 3f 63 be 8d 7e 70 3e 54 29 fe be
       0.27762485 -0.22192146 0.23485775 -0.49640906
000350 36 b2 82 3e f1 79 9e 3e 7f d5 f8 bd 22 1e 90 bd
       0.2552659 0.3095241 -0.12150096 -0.070369974
000360 ad ad 2a 3c 84 ee 69 bd 6f b9 a8 bc a8 70 3d be
       0.010417384 -0.05711223 -0.020596234 -0.18500006
000370 9d 28 69 3e 3b 93 e8 bd fb 42 d3 bd af 9a 45 be
       0.22769399 -0.11356207 -0.1031551 -0.19297288
000380 75 6f 90 3e d1 69 ee 3c 4c 12 9c 3e e8 65 6b be
       0.28210035 0.029103192 0.3048271 -0.22988093
000390 c8 d9 a6 3c dc 6e 27 3d 12 b2 cd be e8 bf 99 be
       0.020367518 0.040877208 -0.4017492 -0.30029225
0003a0 2c 16 b1 3d fa 69 bd bd 5f e5 2f 3e ff ff 02 3e
       0.08646807 -0.09248729 0.17177342 0.12792967
0003b0 64 d0 03 be 8c ba bd 3d 9a 40 2b 3e 5c 06 23 3d
       -0.12872463 0.092640966 0.16723862 0.039800987
0003c0 fd fa 33 bc 1a db 09 3d 17 76 a9 be 95 24 25 bf
       -0.010985133 0.033656217 -0.33097908 -0.64508945
0003d0 92 26 03 3c df f3 57 3e 3c a9 57 3e f3 2b c8 bd
       0.008004801 0.21089123 0.21060652 -0.09774008
0003e0 c8 63 77 bd 8d 76 0b 3e bf 11 03 3e a3 86 b4 be
       -0.060397893 0.13619442 0.12799738 -0.3525897
0003f0 5c 50 4a be b2 19 c9 3d 52 1a 52 be 41 cb 8b 3d
       -0.19757217 0.09819354 -0.20517853 0.06825877

fc2.bias f4 [84]
000000 3a 6c 12 bf 90 82 35 3e ce 38 95 3e 67 51 45 be
       -0.5719639 0.17725587 0.291449 -0.19269334
000010 e7 e4 2d 3d f5 f5 32 3f 83 7e 2f be 26 43 74 3f
       0.042454626 0.6990655 -0.17138104 0.9541496
000020 95 ec e1 3e c9 67 8c be 0f 56 f6 3e 0e 8f 90 3f
       0.4412581 -0.27422932 0.48112532 1.1293657
000030 d5 b9 86 be b8 e0 4b 3f 67 5a a3 bd 62 81 46 be
       -0.26313654 0.7963977 -0.07976227 -0.19385293
000040 da b1 e4 3e ff 8f 01 3e ec b3 37 3f 91 69 28 3f
       0.4466694 0.12652586 0.71758914 0.6578608
000050 71 c3 46 be fc cb 10 3f b5 4a 48 3d 9a e9 12 3f
       -0.19410492 0.56561255 0.04889937 0.573877
000060 91 f4 6f be 45 d6 ff bd 5e 50 02 be ee 09 db 3c
       -0.23433138 -0.124920405 -0.1272597 0.026738133
000070 d9 e4 92 be 79 ec 53 be 58 af 08 3f 2f 4b b0 bd
       -0.28690222 -0.20695676 0.53392553 -0.0860809
000080 36 68 34 3e 35 05 39 3f ee fe 04 3f 6e 6c 6b 3f
       0.17617878 0.7227357 0.5195149 0.91962326
000090 c4 1b 96 bd 05 73 d8 be d5 d4 1c 3f c0 17 20 be
       -0.073295146 -0.42275253 0.61262256 -0.1563406
0000a0 6c 0c 08 bf dd b1 8d 3d c0 09 a0 3c 9b e9 4f 3e
       -0.53143954 0.0691869 0.0195359 0.20303957
0000b0 b2 60 43 3f ed ec 84 be ab 99 4f be 43 cb 23 3e
       0.7631942 -0.2596201 -0.20273463 0.15995507
0000c0 18 f7 8a be 57 8c 05 3f af 0d 4f 3f 72 b2 da be
       -0.27141643 0.52167267 0.80880255 -0.42714268
0000d0 8f 3a 44 bd 76 4e 27 bd b2 43 91 3e 8e 1c 09 3e
       -0.04790741 -0.04084631 0.2837196 0.13389799
0000e0 91 e5 46 be 66 13 b7 be 90 4d b5 be 60 f0 f1 bd
       -0.1942351 -0.35756987 -0.35410738 -0.11813426
0000f0 2a 4e a7 3f cf b8 b6 bd d0 e8 0b 3f 5a 27 9c 3e
       1.3070729 -0.08921968 0.5465212 0.30498773
000100 32 0f 57 3e 44 10 36 bd 95 0b 25 be 16 4a 9b be
       0.2100189 -0.044449106 -0.161177 -0.3032996
000110 70 20 e8 3d 38 7b 25 3e 20 b8 5f 3e 38 e7 bc bc
       0.11334312 0.16160285 0.21847582 -0.023059472
000120 93 63 48 3d e7 e0 d5 be 7f 29 d6 bd 60 63 af 3d
       0.048923086 -0.4177315 -0.104571335 0.08563876
000130 2a eb 30 3f 78 84 d2 be 29 e1 61 3e f5 b5 20 3d
       0.6910883 -0.4111669 0.22058548 0.039236028
000140 1c 33 a9 bb 64 1c 60 3e 8b f3 95 be b6 a4 e6 be
       -0.0051635634 0.2188583 -0.2928737 -0.4504754

fc3.weight f4 [10, 84]
000000 5c 1e ef bd ca e5 81 bb c4 b5 78 3e a7 3b 77 bd
       -0.116757125 -0.0039641606 0.24288088 -0.060359623
000010 3f 59 38 3e 1b 7a 20 bd 36 97 06 be f6 f8 83 3d
       0.18002795 -0.03917895 -0.1314362 0.0644397
000020 e0 bb 31 3d 7b cc 93 3e a9 18 49 3e 92 ca 04 be
       0.043392062 0.28866944 0.19638313 -0.129679
000030 5d 25 33 3d d7 b4 df 3d fe a7 07 3e 47 45 22 3e
       0.043736804 0.10923164 0.13247678 0.1584674
000040 f4 a3 ed bc a5 ba 47 be ea 4c 88 bd 1d 96 42 3d
       -0.029008843 -0.19504793 -0.06655295 0.04750644
000050 78 c1 e9 3d 19 cb 57 be 9f e2 ae bd 8e 14 a3 bd
       0.11413854 -0.2107357 -0.08539318 -0.07962905
000060 ab ab 1c 3d 9c 82 2d 3e 45 e3 bc 3d 6a 61 c2 bc
       0.038249653 0.16944355 0.09223036 -0.023728091
000070 b5 54 22 3d 51 87 2d 3e 78 02 0d 3d 48 86 35 3e
       0.039631564 0.1694615 0.034426183 0.17727005
000080 72 b2 69 bd c8 dc 4f be 45 d3 7c bd 0b fe 8a be
       -0.057054944 -0.20299065 -0.06172492 -0.27146944
000090 31 a6 7c 3e d4 12 c0 bc 8f b9 9c bd 1a 1a 87 3e
       0.24672772 -0.023446478 -0.0765258 0.263871
0000a0 0c 7a 63 3e 75 c0 3a bc 7b a7 02 bd 66 4f ca bc
       0.22214526 -0.011398424 -0.031898003 -0.024696063
0000b0 a2 4a c0 bd 0a ef 61 3e b9 5f 58 3d fc 9b 27 3d
       -0.09389235 0.22063842 0.052825663 0.040920243
0000c0 c5 b0 25 3e cb 21 49 be db de a9 3d 73 c6 f3 3d
       0.16180713 -0.19641797 0.082944594 0.119030856
0000d0 4b e1 45 3e 03 22 6c 3d 9f c5 1e be c8 37 4b be
       0.19324224 0.057649624 -0.15505074 -0.19845498
0000e0 e0 8d c0 bd 3f 9c 7b 3e 7e da a4 bd 3d ae 18 bd
       -0.094020605 0.24571322 -0.080494866 -0.03727554
0000f0 87 67 41 be 54 4d 97 3b 0c 9a 10 be 99 80 da 3d
       -0.18887149 0.0046173725 -0.14121264 0.10669059
000100 ba 9d 18 3e f4 f3 42 bd f6 d6 e4 bd 29 e4 17 3e
       0.14903918 -0.047595933 -0.11173813 0.1483313
000110 1a f6 64 3e f2 90 e6 bd 8b 57 f4 bd 3b 04 ba 3c
       0.22359505 -0.11258115 -0.1193076 0.022707095
000120 09 d4 2f 3e ba 60 ed bd 42 56 4f be 23 81 38 3d
       0.17170729 -0.11590715 -0.20247748 0.04504503
000130 5f 4d 60 bd 3a 45 8f 3e 42 14 06 be 77 b0 b0 bd
       -0.054761287 0.27982503 -0.13093665 -0.08627408
000140 d8 e2 6b 3e 9b b9 ce 3d d7 7b 14 3e 66 1e a7 3e
       0.23035753 0.10093995 0.14500366 0.3264038
000150 b1 3a 70 3e 7d 57 89 3d 4b 41 83 be 68 a1 37 be
       0.23459889 0.0670614 -0.25635752 -0.17932665
000160 2a 24 3a 3e f1 79 af bd 82 02 a4 3d 84 60 25 be
       0.18177858 -0.0856818 0.08008291 -0.16150099
000170 ba 00 9d 3d 03 9a 06 3e 9d 85 76 be 3e c0 86 be
       0.07666154 0.13144688 -0.24074407 -0.26318544
000180 4b 0b 06 3e 8d b1 9f be 49 38 c6 bd d0 20 5a 3e
       0.13090245 -0.31190148 -0.09678704 0.2130158
000190 a4 08 a8 bc 40 02 b7 bd 09 93 f5 bd 1d d6 54 bc
       -0.020511933 -0.08935976 -0.11990935 -0.012990502
0001a0 72 65 88 3e fd 78 66 be 0f 4e b7 be 29 1c 6c be
       0.26639897 -0.22507091 -0.3580174 -0.23057617
0001b0 71 a3 87 bc f3 2c 33 3d 83 75 97 3e 4f ae 25 bd
       -0.016557427 0.04374404 0.29581842 -0.040449437
0001c0 9a 7b 22 3e ef b8 53 3d 24 f9 94 3c e9 db 6c bc
       0.15867463 0.05169004 0.018185206 -0.014456728
0001d0 00 a5 80 3d e0 40 af bd ca ef 88 3d 32 eb 80 bd
       0.06281471 -0.08557296 0.06686361 -0.0629486
0001e0 1c a3 77 bd ff e4 29 3d fd f5 e9 b9 e6 19 3d 3e
       -0.060458288 0.041478153 -0.000446245 0.1846691
0001f0 0b a6 24 3e c8 ea 9a be 55 aa 5f 3e 30 72 f1 bd
       0.16078965 -0.3025725 0.2184232 -0.11789358
000200 7c c2 02 3e 3d a9 9a bc 41 c5 c1 3d 4b 50 cb 3d
       0.12769502 -0.018879527 0.09461451 0.09927424
000210 dd 3f e8 bc 47 36 01 be 67 5f 92 3d fe 65 7e 3e
       -0.028350765 -0.12618361 0.07147103 0.24843594
000220 6d 89 e5 bc e3 63 bf be 8b 03 97 3c 87 24 36 be
       -0.028019631 -0.37380895 0.018434307 -0.17787372
000230 62 07 67 3e 7c be 3e 3e fb 13 cb 3c 3d d9 bf bd
       0.2256141 0.18627352 0.0247898 -0.09367607
000240 5c f6 38 be a0 f7 56 be 9f 03 77 be 2b 9e 9e 3e
       -0.18062729 -0.20992899 -0.24122475 0.30980048
000250 8b 78 36 3d 10 8b 33 bc 3e 4b 27 3a 69 d9 e4 bd
       0.044548552 -0.010958448 0.00063817564 -0.1117428
000260 b2 6b 2e 3e bc d1 b3 bd c6 4b 43 3e cb 9c 6f 3e
       0.1703327 -0.08780238 0.19071874 0.23399656
000270 20 5e c7 bd 3f e5 97 3d 6b 7a 9c 3d 47 7e 5a bd
       -0.0973475 0.07416772 0.07640537 -0.053343084
000280 02 04 7a be 37 c6 a0 3e 80 f9 b8 bc 95 8f cd 3c
       -0.24415591 0.31401226 -0.022579908 0.02509288
000290 8c 29 82 bc 14 56 2f be eb aa 53 3e 7d 28 eb 3c
       -0.015888952 -0.1712268 0.20670669 0.02870583
0002a0 86 3a 39 bd 4b 77 5e bd a6 c4 79 3e cd f9 10 3e
       -0.045221828 -0.054312985 0.24391422 0.14157791
0002b0 a6 05 49 bc e1 0c 76 3c a7 15 df 3a 42 68 10 3e
       -0.012269413 0.015017719 0.0017020003 0.14102271
0002c0 be cf 00 be c1 70 23 3d 03 39 63 3e 91 0e 80 3e
       -0.12579247 0.039902452 0.22189717 0.25011113
0002d0 3c 19 1e be 43 1a 1c 3e 9a 09 2b 3e d3 ac 2a 3e
       -0.15439314 0.15244393 0.16702881 0.1666749
0002e0 9f 4d 79 3b 5a db 74 bd 2b a5 21 3e 44 f5 f2 3d
       0.003804065 -0.059779502 0.15785663 0.11863187
0002f0 91 55 00 3d b3 c5 8c 3d ae 3e 96 bd 20 31 cb 3d
       0.031331602 0.06873646 -0.07336174 0.09921479
000300 cd 0c d5 bc 63 18 65 bd 35 19 4a bd ac ce 81 bd
       -0.02600708 -0.05593146 -0.049340446 -0.06338248
000310 8f 28 75 3c 96 8d 00 be 58 0e 36 bd 5f e0 d1 ba
       0.014963283 -0.12554011 -0.044447273 -0.0016012302
000320 5c 51 47 bd 84 f8 1f 3c c0 e5 1d be 8a fe 7b bc
       -0.048661575 0.009763841 -0.15419674 -0.015380511
000330 82 d1 4d 3e 68 dc 16 3e c4 37 69 3e 50 ca 90 3d
       0.20099452 0.14732516 0.22775179 0.07069838
000340 c0 d0 c0 bc 47 bb e7 3d 2b e2 84 bd 97 13 5a 3e
       -0.02353704 0.11315017 -0.064884506 0.21296535
000350 47 1e 7f bd 7d 87 a2 3e f8 e8 40 3c bd 85 db bc
       -0.062284734 0.31743994 0.011774294 -0.02679717
000360 0c f9 fb bd 9d df 2d bd 95 65 4e 3d 25 bb d4 3d
       -0.12303361 -0.042449582 0.050389845 0.103872575
000370 92 e9 5e bd 30 27 c9 3c 3f bb db bd 54 4b 2a 3e
       -0.05442197 0.024554819 -0.10729074 0.16630298
000380 6c 43 6b be e6 db 99 3d a6 6f 61 3d 9d 26 47 3e
       -0.22974938 0.075126454 0.055038117 0.19448324
000390 d8 e0 95 3e 47 f3 82 3d f1 4f 85 bd d7 56 04 3e
       0.29273105 0.06394058 -0.06509388 0.12923752
0003a0 24 0d 0f be a0 13 99 3e 29 66 35 3e 47 0f c9 bb
       -0.13969857 0.29897785 0.17714752 -0.0061358544
0003b0 0f 65 83 3d 13 11 1d 3d a0 e7 cc bd 21 39 ae 3c
       0.0641576 0.03834636 -0.100051165 0.021267476
0003c0 b7 b7 a0 bb 69 e1 0c 3d 9f 18 e4 bc 59 b0 b3 bd
       -0.004904713 0.034394655 -0.027843772 -0.0877387
0003d0 e8 17 0a bd 60 a4 63 be 8c 6f 8c 3d 7a 53 6c 3e
       -0.033714205 -0.22230673 0.068572134 0.23078719
0003e0 22 2e 32 bd 26 69 8c 3a f0 1b 19 be 84 c0 d1 3d
       -0.043501027 0.0010712489 -0.14952064 0.102417976
0003f0 01 5e 37 be 5d cd f7 3c f7 36 b2 3d 67 02 1e 3e
       -0.17906953 0.030249292 0.0870189 0.15430604

fc3.bias f4 [10]
000000 92 21 fe be 7b ce c6 bf 02 86 33 3c fd 49 87 3f
       -0.49634987 -1.5531763 0.010957243 1.0569454
000010 10 c0 6e 3f e8 60 12 3e b7 e5 36 3e 69 35 0e bf
       0.93261814 0.1429478 0.17861067 -0.5555025
000020 79 39 2d 3f e7 91 ab be
       0.6766582 -0.33509752
