final/07-04-2023-17-04-43/model_CNN_Adam.pth (torch, 251227 bytes, 10 tensors)

conv1.weight f4 [6, 3, 5, 5]
-0.23182459 -0.14254801 -0.12330858 0.10498232 0.39355847 -0.41749996 -0.37032518 -0.11748162
0.024269914 0.08962021 -0.28092474 -0.36714026 -0.44823495 -0.39580712 0.108528756 -0.02790241
-0.23619053 -0.19988559 -0.2272499 0.2633519 -0.00909393 0.16097048 -0.020182647 0.10400276
0.32020158 -0.16638452 0.0020596518 -0.1843866 -0.27306232 -0.09936942 -0.32336038 0.15896626
0.14773428 0.23795258 -0.06015169 -0.05725871 0.29456964 0.13031039 0.037023325 -0.06697994
0.037966236 0.23760213 0.25323236 0.20953889 -0.039238118 -0.34204373 0.051514927 -0.12771517
-0.21125102 -0.2283144 0.5240334 0.5688937 0.057392344 -0.065203846 -0.4590489 0.1812694
0.44647855 0.51984394 0.34616205 -0.2726925 0.27582368 0.37813804 0.39178014 0.44933712
-0.06868974 0.27611843 0.35928193 0.4502397 0.37478074 -0.120840676 -0.20576186 0.08242915
-0.08543789 -0.22962727 -0.43548232 0.15739062 0.5310856 0.3740136 0.23085576 -0.18238369
-0.065509886 0.3344664 0.3265864 -0.07722842 -0.1349168 -0.17417815 0.20122214 0.05446661
-0.060748007 0.12744384 0.06181792 0.05959172 -0.90355307 -0.00029964262 0.57643884 -0.19460338
0.11852636 -0.896972 -0.1977388 0.6089843 -0.43293223 -0.21288669 -0.4709101 -0.20894746
-0.09268434 -0.07802786 -0.20174477 -0.3451981 -0.032569174 0.08856888 -0.0035316588 -0.011601933
-0.5405307 -0.15203327 0.31902117 0.36559454 0.11304932 -1.0113328 0.11727084 0.69221777
0.15288132 0.22642113 -0.7879885 -0.059236754 0.5256855 0.052485287 0.12221851 -0.08185394
0.1515444 -0.1733247 -0.010470612 -0.07690706 0.107406735 0.12320404 -0.027052533 -0.13240561
0.027057389 -0.0731807 0.020330017 -0.09991493 -0.08943127 0.4672769 -0.49111053 0.07444631
0.24897018 -0.19177498 0.2106643 -0.3451449 0.21491274 0.29467806 0.71638995 1.1461353
0.99306065 0.5312772 -0.18822072 0.2987344 -0.05166546 -0.16243428 -0.032447513 0.14874637
-0.30696818 -0.39584097 -0.6127415 -0.38704252 0.12344384 -0.108086936 -0.43352225 0.16565014
-0.38801378 -0.08220651 -0.3724642 -0.30153123 0.050779343 -0.11452606 -0.21561317 -0.3031967
0.42596146 0.52720875 0.055827286 -0.18468991 -0.55904734 -0.61959314 -0.52603316 -0.25092432
0.11478903 -0.3254297 -0.37188548 -0.4241771 -0.17833418 0.13379215 0.44925782 0.2636953
0.42153683 -0.023897573 0.26418048 -0.042989466 -0.18395732 0.23878732 -0.14711075 -0.3406925
0.07189177 0.10812858 0.06725914 -0.05524122 -0.0383018 -0.29364386 -0.28225726 -0.31394026
-0.25868878 0.0404615 0.012211768 -0.15492345 0.05187924 -0.14541888 0.040035836 0.55117935
0.3211754 0.71582544 0.2224791 0.42421207 0.05796496 0.040739283 0.1699406 -0.008986268
-0.11369432 -0.1339051 -0.9244794 0.26311788 -0.40383887 0.14364856 -0.53418964 -1.2854742
0.3505185 -0.43513808 0.052453775 -0.22388919 0.24117905 -0.15091363 -0.39635134 0.10531327
0.83643836 0.7639706 -0.418567 0.19692448 0.11543542 0.115925595 -0.0227124 0.24944231
0.102198474 -0.17441534 0.44814944 -0.13057664 1.0661969 -0.2049586 0.023643512 0.2436153
00000000: 6d63 6dbe 1bf8 11be 3589 fcbd f800 d73d
00000010: 7f80 c93e 8ec2 d5be 439b bdbe 349a f0bd
00000020: b3d1 c63c cd8a b73d 5ed5 8fbe cff9 bbbe
00000030: 0d7f e5be 3ba7 cabe 5344 de3d 9893 e4bc
00000040: eedb 71be cfae 4cbe 33b4 68be 0fd6 863e
00000050: b5fe 14bc 72d5 243e 1456 a5bc 66ff d43d
00000060: 76f1 a33e b460 2abe 39fb 063b d7cf 3cbe
00000070: d3ce 8bbe 3282 cbbd 7e8f a5be 0dc8 223e
00000080: a847 173e d7a9 733e 9e61 76bd 1c88 6abd
00000090: d5d1 963e 1670 053e c5a5 173d c72c 89bd
000000a0: 7c82 1b3d f94d 733e aca7 813e 5d91 563e
000000b0: 26b8 20bd 5b20 afbe 5101 533d c4c7 02be
000000c0: 3052 58be 40cb 69be 0e27 063f 04a3 113f
000000d0: 3c14 6b3d 9889 85bd 7508 ebbe b09e 393e
000000e0: d698 e43e 7e14 053f 273c b13e 5a9e 8bbe
000000f0: c338 8d3e 4f9b c13e 6897 c83e 840f e63e
00000100: 35ad 8cbd 655f 8d3e cdf3 b73e d185 e63e
00000110: 43e3 bf3e 517b f7bd 3db3 52be 9dd0 a83d
00000120: 0ffa aebd 6923 6bbe 8af7 debe 022b 213e
00000130: 3af5 073f b67e bf3e 7465 6c3e cac2 3abe
00000140: 0c2a 86bd 2e3f ab3e 5536 a73e ef29 9ebd
00000150: a127 0abe c25b 32be 2d0d 4e3e 6118 5f3d
00000160: e7d2 78bd a380 023e ca34 7d3d 7316 743d
00000170: 414f 67bf 5a19 9db9 7f91 133f 1c46 47be
00000180: f3bd f23d f59f 65bf 0a7c 4abe 65e6 1b3f
00000190: 4ba9 ddbe f8fe 59be 211b f1be 53f6 55be
000001a0: 4ad1 bdbd 12cd 9fbd 2e96 4ebe cebd b0be
000001b0: 4167 05bd 9a63 b53d 6773 67bb 0916 3ebc
000001c0: 3860 0abf 9cae 1bbe be56 a33e 352f bb3e
000001d0: 6786 e73d 5a73 81bf b22b f03d 2f35 313f
000001e0: ec8c 1c3e f1da 673e 9db9 49bf 3da2 72bd
000001f0: 5393 063f d0fa 563d b34d fa3d 0aa3 a7bd
00000200: 752e 1b3e 087c 31be ee8c 2bbc 7381 9dbd
00000210: 10f8 db3d 6652 fc3d 469d ddbc 5695 07be
00000220: 75a7 dd3c c3df 95bd 238b a63c 33a0 ccbd
00000230: be27 b7bd eb3e ef3e d772 fbbe 4f77 983d
00000240: 0af2 7e3e a960 44be 62b8 573e d5b6 b0be
00000250: 1612 5c3e 0be0 963e 5565 373f 90b4 923f
00000260: 3939 7e3f c801 083f efbc 40be b7f3 983e
00000270: 299f 53bd 2c55 26be afe7 04bd f850 183e
00000280: ef2a 9dbe abab cabe a0dc 1cbf 702a c6be
00000290: 20d0 fc3d af5c ddbd a1f6 ddbe 31a0 293e
000002a0: bea9 c6be e35b a8bd a1b3 bebe 4d62 9abe
000002b0: 00fe 4f3d a48c eabd b3c9 5cbe 993c 9bbe
000002c0: 9f17 da3e 27f7 063f 27ab 643d 5a1f 3dbe
000002d0: ba1d 0fbf a89d 1ebf 1caa 06bf 2779 80be
000002e0: 8316 eb3d b99e a6be c667 bebe be2d d9be
000002f0: 3c9d 36be cf00 093e 1f05 e63e 1203 873e
00000300: add3 d73e d8c4 c3bc aa42 873e b915 30bd
00000310: 4f5f 3cbe aa84 743e 33a4 16be 3f6f aebe
00000320: fe3b 933d 8472 dd3d 29bf 893d 9e44 62bd
00000330: 59e2 1cbd 7d58 96be 0684 90be c7bc a0be
00000340: db72 84be f5ba 253d de13 483c 41a4 1ebe
00000350: 537f 543d b0e8 14be 9efc 233d 171a 0d3f
00000360: 1a71 a43e 5640 373f 90d1 633e 5332 d93e
00000370: aa6c 6d3d 3cde 263d e904 2e3e 243b 13bc
00000380: 91d8 e8bd 6b1e 09be afaa 6cbf 63b7 863e
00000390: f8c3 cebe 9c18 133e a7c0 08bf 6b8a a4bf
000003a0: 2977 b33e 6bca debe c5d9 563d 3543 65be
000003b0: a4f7 763e 1a89 1abe 90ee cabe 7cae d73d
000003c0: d320 563f 9493 433f 6a4e d6be 92a6 493e
000003d0: 6869 ec3d 666a ed3d 5b0f babc ce6d 7f3e
000003e0: 6f4d d13d ef99 32be d873 e53e e2b5 05be
000003f0: 2479 883f abe0 51be 0ab0 c13c 4a76 793e

conv1.bias f4 [6]
-0.02237787 -0.43600768 -0.5830884 -0.33855274 -0.5491989 -0.34336242
00000000: cb51 b7bc 663c dfbe 4845 15bf c956 adbe
00000010: 4d98 0cbf 33cd afbe

conv2.weight f4 [16, 6, 5, 5]
0.5066728 0.24557059 -0.06833704 -0.11891993 0.5715381 -0.25111374 -0.37613738 0.09836843
-0.41990054 -0.19432151 0.16976516 -0.04347053 0.44009283 -0.33263096 0.4362556 0.29769287
0.09129794 0.28815922 -0.5678426 0.018021293 -0.05330932 -0.31349835 0.039442062 -0.3538284
-0.5912928 -0.21971208 0.8448146 -0.4685946 0.8215414 0.39720878 -0.33521652 0.8422468
-0.4173824 0.5560665 -0.05921334 -0.64757407 0.7464279 -0.5369218 0.73849475 0.30933166
-0.38245213 0.27064696 -0.33624 0.48916626 0.3428276 -0.2423614 0.08743952 -0.028439224
-0.25373602 -0.2157212 0.5103521 0.1850784 0.32397112 -0.8438266 -0.020327019 0.15117335
-0.29801273 -0.33316708 -0.49948522 0.09420395 0.23752251 0.051277813 -0.8560505 -0.6226946
-0.0511529 0.12380365 0.47881523 -0.120467134 -0.6452063 -0.49343494 0.10695084 0.5358101
0.43060485 -0.095868334 -0.55487525 0.5797466 0.4771916 0.2754451 -0.16550426 0.252092
-0.043042377 -0.0009053772 0.091995396 -0.36709046 -0.40046403 -0.18702507 0.23548071 -0.07032781
-0.59007025 -0.59100914 0.32144323 0.48256013 0.16010743 -0.10401698 -0.1885456 0.17715646
0.16529371 0.15346785 -0.19181144 -0.16191529 0.10828429 0.03546088 -0.33687595 -0.9802172
0.25382885 -0.42430446 -0.27290532 -0.26353046 -1.4113795 0.747759 -0.18895212 -0.52333206
-1.3083949 -1.2581531 -0.7073699 0.40700403 0.46241492 -0.03217489 0.051126547 -0.31922618
0.22586131 0.12771663 -0.049175315 -0.5772553 -0.044573765 0.039166223 0.037633426 0.6145189
0.23483703 -0.22900549 -0.14395474 -0.12217541 0.3689171 0.18532774 -0.21955858 -0.36966786
-0.6377205 0.49729025 0.18429644 0.15089433 -0.5862867 -0.4148685 0.40781716 0.23479545
0.28232387 -0.23044567 -0.24467112 0.1657723 0.35689422 -0.77824473 0.19869426 0.14353277
0.36160952 0.24171354 0.25785014 -0.24030004 0.46015942 0.13975105 -0.1336095 -0.1775888
-0.13348176 0.2827396 -0.58733946 -0.17566335 0.019755553 -0.37633693 -0.42693081 -0.07312481
-0.016480904 -0.020472879 -0.65288526 0.2732853 0.43062314 0.0015899946 0.3198486 0.092652984
-0.35757118 -0.53890246 -0.27736783 0.09911077 0.17828572 -0.31193998 0.3060948 0.31969926
0.2412157 -0.98393935 0.007380293 0.41643727 0.020940812 0.07850797 -0.09226102 0.25401032
-0.15871146 -0.20770565 0.19175704 -0.13951841 -0.2268532 0.12432554 0.018693719 -0.13081177
-0.3274334 -0.07657638 0.28954598 0.5891008 0.7653133 -0.008812185 -0.1453586 0.3699636
0.3270514 0.18984354 -0.014137552 -0.27345043 0.37298763 0.02066797 -0.00742926 -0.1523593
0.96050674 -0.21714501 -0.14943463 -0.88498926 0.7055489 -0.08293101 -0.24201548 -0.32525408
-0.032572664 -0.059230328 0.40411302 -0.11700604 -0.01639925 -0.08682781 -0.03450145 0.08780556
-0.17240828 0.19117555 0.10726147 0.52499753 0.55922574 -0.5405867 -0.6269739 0.62074816
-0.37142372 -0.9189027 -0.09178761 0.49678257 0.56253314 -0.50204676 -0.1904286 0.07938956
-0.1096183 0.054162703 0.17810771 -0.20036496 -0.0905134 -0.09716568 -0.17112544 0.12800255
00000000: 4fb5 013f db76 7b3e 4af4 8bbd 4b8c f3bd
00000010: 5250 123f fb91 80be 1495 c0be 6375 c93d
00000020: 34fd d6be 38fc 46be ebd6 2d3e 280e 32bd
00000030: d953 e13e 9b4e aabe e55c df3e 336b 983e
00000040: 6afa ba3d 9b89 933e 225e 11bf 64a1 933c
00000050: e05a 5abd db82 a0be 008e 213d ff28 b5be
00000060: f75e 17bf 34fc 60be c545 583f a2eb efbe
00000070: 8a50 523f f35e cb3e 80a1 abbe 7c9d 573f
00000080: 25b3 d5be 605a 0e3f b089 72bd 6ac7 25bf
00000090: e615 3f3f b573 09bf fe0d 3d3f b860 9e3e
000000a0: c4d0 c3be 3d92 8a3e a627 acbe 0074 fa3e
000000b0: 1987 af3e 962d 78be 7e13 b33d 60f9 e8bc
000000c0: b0e9 81be 05e6 5cbe 6fa6 023f 3185 3d3e
000000d0: 8bdf a53e 0505 58bf d984 a6bc 30cd 1a3e
000000e0: 2095 98be e094 aabe 87bc ffbe 00ee c03d
000000f0: 1a39 733e af08 523d 2026 5bbf ea68 1fbf
00000100: b485 51bd c58c fd3d 4527 f53e 79b7 f6bd
00000110: 3d2c 25bf 81a3 fcbe 0b09 db3d da2a 093f
00000120: 3d78 dc3e 9e56 c4bd 4e0c 0ebf 466a 143f
00000130: 7552 f43e 2407 8d3e f379 29be 3412 813e
00000140: 344d 30bd d656 6dba 1568 bc3d 48f3 bbbe
00000150: 9f09 cdbe 8083 3fbe db21 713e 0708 90bd
00000160: d80e 17bf 604c 17bf 3594 a43e 1f12 f73e
00000170: 34f3 233e db06 d5bd 1912 41be 8168 353e
00000180: c142 293e ad26 1d3e 386a 44be 1fcd 25be
00000190: 27c4 dd3d 6d3f 113d 017b acbe 84ef 7abf
000001a0: dbf5 813e 6f3e d9be 3fba 8bbe 77ed 86be
000001b0: 15a8 b4bf 226d 3f3f aa7c 41be 17f9 05bf
000001c0: 7c79 a7bf 290b a1bf 3216 35bf d562 d03e
000001d0: a6c1 ec3e d1c9 03bd 126a 513d 9d71 a3be
000001e0: 3048 673e 26c8 023e 0e6c 49bd 01c7 13bf
000001f0: fb92 36bd c36c 203d 8225 1a3d 1c51 1d3f
00000200: 1e79 703e 6a80 6abe df68 13be 1a37 fabd
00000210: b4e2 bc3e 8ec6 3d3e f7d3 60be 1b45 bdbe
00000220: a741 23bf d49c fe3e 35b8 3c3e 0b84 1a3e
00000230: e316 16bf a569 d4be 69cd d03e 386e 703e
00000240: c18c 903e f3f9 6bbe 118b 7abe 37c0 293e
00000250: d7ba b63e 0c3b 47bf 8276 4b3e 41fa 123e
00000260: e224 b93e c183 773e ef04 843e 3711 76be
00000270: 049a eb3e e61a 0f3e eed0 08be d7d9 35be
00000280: 71af 08be 3fc3 903e e15b 16bf 18e1 33be
00000290: 66d6 a13c 3caf c0be ad96 dabe 76c2 95bd
000002a0: f602 87bc bdb6 a7bc 7d23 27bf 0dec 8b3e
000002b0: a37a dc3e 5e67 d03a 32c3 a33e d9c0 bd3d
000002c0: 9213 b7be 83f5 09bf 2803 8ebe 96fa ca3d
000002d0: 8890 363e 99b6 9fbe 75b8 9c3e 9faf a33e
000002e0: 4001 773e 73e3 7bbf 63d6 f13b 4437 d53e
000002f0: 118c ab3c c9c8 a03d 58f3 bcbd a40d 823e
00000300: 4285 22be cab0 54be f55b 443e eadd 0ebe
00000310: 354c 68be 649e fe3d 9223 993c 85f3 05be
00000320: 5aa5 a7be 14d4 9cbd 5f3f 943e 4fcf 163f
00000330: 93eb 433f fc60 10bc e3d8 14be de6b bd3e
00000340: 4873 a73e 5866 423e 31a1 67bc b201 8cbe
00000350: 3cf8 be3e e04f a93c 2671 f3bb 1404 1cbe
00000360: c5e3 753f 435b 5ebe 6405 19be a88e 62bf
00000370: da9e 343f bcd7 a9bd e8d2 77be b487 a6be
00000380: ea6a 05bd 809b 72bd e7e7 ce3e dda0 efbd
00000390: b857 86bc c7d2 b1bd 6451 0dbd 67d3 b33d
000003a0: cc8b 30be 86c3 433e e7ab db3d 3d66 063f
000003b0: 6b29 0f3f e463 0abf 5d81 20bf 5ae9 1e3f
000003c0: 402b bebe 353d 6bbf 24fb bbbd 495a fe3e
000003d0: 2c02 103f 2386 00bf b7ff 42be fe96 a23d
000003e0: 8f7f e0bd b6d9 5d3d de61 363e 792c 4dbe
000003f0: 175f b9bd cdfe c6bd 823b 2fbe 1a13 033e

conv2.bias f4 [16]
-0.9839277 -1.5881888 0.96991426 0.5402342 0.30546647 0.10134128 -0.14625138 0.008720944
0.5336009 0.03575211 1.5413048 0.94777226 0.20881629 -1.0590335 -0.31886908 -1.2268894
00000000: b0e2 7bbf c549 cbbf 4d4c 783f ca4c 0a3f
00000010: 1a66 9c3e 048c cf3d ecc2 15be 4ae2 0e3c
00000020: 129a 083f ce70 123d 7a49 c53f 34a1 723f
00000030: f0d3 553e 698e 87bf cf42 a3be b60a 9dbf

fc1.weight f4 [120, 400]
-0.065469645 0.07864899 -0.041673616 -1.1278301 0.22771958 -0.89453936 -0.15402421 -0.25945678
0.14974615 0.43245834 -0.55186266 -0.7492793 0.0928795 0.7546008 -0.072522156 -0.1305915
-0.47504383 0.2346264 0.10102408 0.7118299 -0.16432093 -0.46404552 -0.33144122 -0.622902
0.7222356 -0.7434447 -0.10013083 -0.15927516 0.71245813 0.46215457 -0.44620705 0.012627246
0.17797293 0.11075599 0.06320421 -0.6234817 -0.09095831 0.49082923 0.79001844 -0.23529778
0.65295523 -0.040089365 0.51777977 -0.88311243 -0.08298139 0.020075545 -0.4456816 -0.6708974
-0.020999106 1.4070212 0.5835689 -1.0760818 -1.01631 -0.0065869903 0.13177402 -0.539642
-0.36718678 -0.3128641 -0.2672354 0.030676145 0.88189894 -0.04861903 -1.0785098 0.42315605
0.4505628 -1.2275888 0.51339436 -0.84560615 0.07304177 0.020210939 -0.422899 -0.5705584
-0.3477527 -0.23259865 0.30876628 0.21491542 0.62194806 -0.11131405 1.0888926 -0.051163964
0.25664914 -0.04094584 -0.23118605 0.29012606 1.0100675 0.20514598 -0.22128356 -0.08219814
-0.8791042 -0.15639535 -0.28921595 0.5056916 1.0867416 -0.17711584 -0.29004422 -0.18747148
-0.7065481 0.20500883 -0.5000695 0.6826573 0.3279053 -0.7434204 0.5757858 0.43089715
-0.106833056 -1.2725966 -0.21166922 -0.6467804 -0.18074183 -0.14340845 -0.15849681 0.5057919
-0.086965285 -0.47798577 0.016793342 -1.3648785 -1.1199273 0.27087694 0.7397746 0.2242384
-1.2308782 -1.0830079 -0.8363292 0.94900215 0.27546644 0.30980173 -0.67682844 -0.62768114
-0.60435474 -0.3684309 -0.22290327 0.17444405 -0.26221165 -0.21942066 0.47353417 -0.7278463
-0.37660483 -0.58465254 0.50268084 1.03772 -0.39968565 -0.31689766 -0.030272305 0.30131233
-0.43283972 -0.69757104 -1.4120282 0.14502928 -0.85821927 -0.11262292 -0.026290732 0.0022563767
-0.00066046126 0.01755729 -0.046138585 -0.00039268628 -0.04569728 -0.017916663 0.011290002 0.039526984
0.017083647 0.019928962 -0.038686343 -0.034996565 0.023095144 0.020728318 0.037960075 0.043628767
0.03284067 -0.033899743 0.019070314 -0.032282706 -0.04439184 0.004989868 0.016355732 -0.94233114
-0.02057367 -1.1062357 -0.3424469 0.30074012 -0.23407997 0.24831915 0.2422967 0.13594046
-0.6219463 -0.2169332 1.399028 -1.6829259 0.20691909 0.40948367 -1.0998759 0.14345433
0.1566924 -0.51764137 0.45937172 -0.06482954 0.091885164 -0.31730166 0.103430115 0.8218539
0.6226909 0.29377034 -0.65244156 -0.6865789 0.66070163 -0.10996241 -0.11023042 0.36638942
-0.19387673 0.13984124 1.3032057 1.0391206 0.9074565 0.29581204 -1.1600708 -0.3249196
0.25709742 0.37728947 -0.4816709 0.59507453 -0.43292812 -0.54191774 -0.281676 -1.7217724
0.39832684 0.38960373 1.5295073 1.1681654 -0.21067496 -0.52071077 0.5864067 0.23276468
0.38623333 -0.55043066 -1.0768921 0.98781705 0.35259622 -0.16379887 -1.3289764 -1.5195217
0.36244527 -0.50303715 -1.3277613 -0.42336327 -1.1990811 0.30935493 0.21076423 -0.2518982
-0.24008512 -0.56867945 -0.67428136 -0.3630952 0.06274843 -0.71714586 0.06764803 0.6487361
00000000: f314 86bd b912 a13d f4b1 2abd bd5c 90bf
00000010: 522f 693e 8800 65bf 86b8 1dbe 85d7 84be
00000020: 0e57 193e 2e6b dd3e df46 0dbf c5d0 3fbf
00000030: 9b37 be3d 852d 413f 7f86 94bd c7b9 05be
00000040: f238 f3be e741 703e b6e5 ce3d 7c3a 363f
00000050: bf43 28be 6097 edbe aab2 a9be 8176 1fbf
00000060: 6fe4 383f 6452 3ebf 6511 cdbd 0719 23be
00000070: a863 363f 869f ec3e 4075 e4be 82e2 4e3c
00000080: 893e 363e 09d4 e23d 3571 813d 7f9c 1fbf
00000090: 5a48 babd f84d fb3e a63e 4a3f e7f1 70be
000000a0: 1328 273f bf34 24bd 378d 043f a813 62bf
000000b0: 26f2 a9bd 7875 a43c 6130 e4be efbf 2bbf
000000c0: 5106 acbc 4519 b43f c564 153f 0cbd 89bf
000000d0: 7216 82bf aed7 d7bb c5ef 063e fa25 0abf
000000e0: e8ff bbbe b92f a0be 14d3 88be 8a4c fb3c
000000f0: 21c4 613f bf24 47bd 9c0c 8abf e9a7 d83e
00000100: 2bb0 e63e a121 9dbf d06d 033f a579 58bf
00000110: ec96 953d 6991 a53c 3886 d8be 1e10 12bf
00000120: a40c b2be 572e 6ebe 9d16 9e3e ca12 5c3e
00000130: fd37 1f3f 9ff8 e3bd d560 8b3f 4e91 51bd
00000140: 8467 833e d3b6 27bd 09bc 6cbe 678b 943e
00000150: e449 813f ca11 523e 2898 62be 8057 a8bd
00000160: f90c 61bf 1a26 20be 1d14 94be 0175 013f
00000170: 591a 8b3f db5d 35be ad80 94be 86f8 3fbe
00000180: 56e0 34bf d6ed 513e 8e04 00bf a1c2 2e3f
00000190: 34e3 a73e cd50 3ebf b366 133f 8d9e dc3e
000001a0: 4acb dabd 72e4 a2bf d1bf 58be 6693 25bf
000001b0: 6314 39be aad9 12be fd4c 22be 947b 013f
000001c0: db1a b2bd 8dba f4be 3192 893c 57b4 aebf
000001d0: c759 8fbf 62b0 8a3e de61 3d3f c09e 653e
000001e0: 6b8d 9dbf 01a0 8abf ac19 56bf cef1 723f
000001f0: f009 8d3e 559e 9e3e a144 2dbf b6af 20bf
00000200: feb6 1abf faa2 bcbe c140 64be 76a1 323e
00000210: 9b40 86be cfaf 60be 1273 f23e 2354 3abf
00000220: 59d2 c0be caab 15bf b1af 003f 02d4 843f
00000230: 99a3 ccbe 6940 a2be a0fd f7bc 9c45 9a3e
00000240: 2b9d ddbe 0494 32bf 57bd b4bf 8e82 143e
00000250: 42b4 5bbf d8a6 e6bd a95f d7bc b8df 133b
00000260: ce22 2dba 4ed4 8f3c d0fb 3cbd 76e1 cdb9
00000270: 122d 3bbd f7c5 92bc b3f9 383c 0ce7 213d
00000280: 01f3 8b3c 1042 a33c 9275 1ebd 8f58 0fbd
00000290: 0732 bd3c 6fce a93c 067c 1b3d 14b4 323d
000002a0: f083 063d 75da 0abd 5939 9c3c df3a 04bd
000002b0: 38d4 35bd 0c82 a33b 75fc 853c 9d3c 71bf
000002c0: 1d8a a8bc 2299 8dbf 3355 afbe 9cfa 993e
000002d0: a9b2 6fbe 6047 7e3e a01c 783e fa33 0b3e
000002e0: df37 1fbf bd23 5ebe 5913 b33f 1e6a d7bf
000002f0: 99e2 533e d8a7 d13e bcc8 8cbf b1e5 123e
00000300: f973 203e 2584 04bf c532 eb3e 5ac5 84bd
00000310: 4a2e bc3d 5d75 a2be 2bd3 d33d 0465 523f
00000320: ac68 1f3f 1169 963e 6906 27bf a3c3 2fbf
00000330: be23 293f f933 e1bd 7dc0 e1bd 6597 bb3e
00000340: 9f87 46be 8b32 0f3e 72cf a63f e701 853f
00000350: 124f 683f ad74 973e 337d 94bf dd5b a6be
00000360: 46a2 833e 162c c13e 919d f6be ce56 183f
00000370: c1a8 ddbe 1fbb 0abf d637 90be 0a63 dcbf
00000380: 7ff1 cb3e 247a c73e e5c6 c33f 7286 953f
00000390: 2dbb 57be 4d4d 05bf c01e 163f dd59 6e3e
000003a0: 60c0 c53e 06e9 0cbf 9ad7 89bf 94e1 7c3f
000003b0: 7e87 b43e e4ba 27be e61b aabf b07f c2bf
000003c0: 6d92 b93e 0bc7 00bf 15f4 a9bf 12c3 d8be
000003d0: 7d7b 99bf c563 9e3e 94d2 573e cdf8 80be
000003e0: e0d8 75be fa94 11bf b49d 2cbf 9de7 b9be
000003f0: 4082 803d df96 37bf 0d8b 8a3d 9213 263f

fc1.bias f4 [120]
-1.2746868 -0.49617258 -0.10146878 -0.06404873 -0.03922091 -1.5093464 -0.74246496 -0.15326591
-0.6300358 -0.97214425 -0.049737692 -0.04661629 0.20831735 -1.8285612 -0.09453969 2.9022639
-0.07498192 -1.6951668 -3.331685 1.1172068 -0.03738187 -0.056446787 1.7739037 -0.044393513
-0.068402246 0.42612368 -0.073398314 -1.6378344 -0.072890855 -0.010072659 -0.74837404 -1.1251261
-0.0016292623 -2.5642893 -1.8332974 -0.19312505 -0.07156514 -0.06034591 -2.000033 0.86323583
-0.1567089 -2.3046434 -0.09124544 1.576497 -2.5931091 -0.033650957 -2.5559256 -0.060781296
-0.056101605 -0.034928653 -0.0021993786 -0.68110615 0.63385075 -2.318589 -1.8616022 1.3087808
-0.043730278 -0.57951164 -0.013134287 1.0747055 -1.8971188 0.32030985 -1.0255277 0.774957
-0.076752044 -1.2688069 -0.016118174 -2.7875688 -0.71716547 -0.07992977 3.1703563 2.256354
-0.09411154 1.1502103 -1.2582929 -0.3098782 0.8056253 -1.25466 -0.1450299 -0.052186947
-2.050309 -0.010712565 -0.17089082 -2.2260299 -0.1936048 -1.4454052 -0.059110474 0.5151627
0.048979707 -0.08048269 -2.1562989 -1.3020239 -1.3357406 -0.24452615 -0.6685783 0.9023772
-0.024259223 0.0023420984 0.97306556 -0.08847404 -0.05206063 -0.4749216 -0.096734 -1.6497211
-0.04988425 -0.018100394 -1.2980591 -0.3451206 0.5187803 0.7660137 -0.28812724 -1.3525552
-0.84953296 -0.11385088 -2.0704992 -0.78649765 0.5472125 -0.7942087 -0.1034337 0.018224996
00000000: f028 a3bf 550a febe ddce cfbd fb2b 83bd
00000010: 1ba6 20bd 4332 c1bf 2f12 3ebf bdf1 1cbe
00000020: 074a 21bf 72de 78bf c0b9 4bbd b9f0 3ebd
00000030: 2551 553e 4b0e eabf 069e c1bd b1be 3940
00000040: 1f90 99bd 3afb d8bf 543a 55c0 a200 8f3f
00000050: bb1d 19bd bf34 67bd 470f e33f f9d5 35bd
00000060: 7a16 8cbd e22c da3e db51 96bd 8fa4 d1bf
00000070: cd47 95bd cb07 25bc 7195 3fbf 2204 90bf
00000080: f98c d5ba 511d 24c0 7da9 eabf 93c2 45be
00000090: be90 92bd 462d 77bd 8a00 00c0 06fd 5c3f
000000a0: 4c78 20be 477f 13c0 e4de babd a7ca c93f
000000b0: 80f5 25c0 96d5 09bd 4994 23c0 cff5 78bd
000000c0: ccca 65bd 5911 0fbd 7323 10bb f95c 2ebf
000000d0: 0b44 223f c363 14c0 fb48 eebf 2186 a73f
000000e0: 851e 33bd e05a 14bf 3131 57bc f38f 893f
000000f0: cad4 f2bf a7ff a33e 7e44 83bf 9563 463f
00000100: 2d30 9dbd 4468 a2bf 430a 84bc 8767 32c0
00000110: 2898 37bf 38b2 a3bd 1ee7 4a40 1b68 1040
00000120: 8dbd c0bd 173a 933f be0f a1bf 5ba8 9ebe
00000130: 763d 4e3f b398 a0bf b882 14be fbc1 55bd
00000140: 4338 03c0 c183 2fbc 01fe 2ebe 4677 0ec0
00000150: 5640 46be 0a03 b9bf d31d 72bd b4e1 033f
00000160: f29e 483d 1cd4 a4bd cd00 0ac0 b8a8 a6bf
00000170: 8cf9 aabf 1065 7abe f327 2bbf 3102 673f
00000180: 47bb c6bc e47d 193b d31a 793f e131 b5bd
00000190: 873d 55bd ed28 f3be 7a1c c6bd 102a d3bf
000001a0: 6d53 4cbd 4747 94bc cd26 a6bf a6b3 b0be
000001b0: c9ce 043f 7919 443f 6a85 93be 8720 adbf
000001c0: fe7a 59bf a62a e9bd 0f83 04c0 e957 49bf
000001d0: 1e16 0c3f 4351 4bbf 0cd5 d3bd 964c 953c

fc2.weight f4 [84, 120]
-0.10623876 0.46697733 -0.05107851 0.085117206 0.066056915 0.04323233 -0.36990958 0.049710654
0.45937136 0.85475147 0.10590859 -0.07240195 -1.0708832 -0.17922622 -0.00767721 0.31585956
0.037499513 -0.5073433 1.2127028 0.57016665 -0.050590854 -0.006676228 -0.21052404 -0.0184943
-0.06450598 0.39190224 0.08562278 -0.0027815115 -0.038097948 -0.05772009 0.32800037 0.998459
-0.016839836 -1.2131846 0.39681298 0.064254984 -0.033828944 -0.028291982 -0.06005653 1.2231694
0.03438362 -0.87173545 0.006632882 0.5935242 0.012570721 0.023367643 0.83255136 0.4697203
0.094745904 -0.10572072 -0.08226826 -0.03365846 1.3277245 0.015266065 0.28660282 0.07227107
0.0013618583 0.5859815 -0.10568612 -0.3445098 -0.50734586 0.23396532 -0.111071795 0.20558366
-0.0110324 1.0081958 0.062911324 0.7280359 -1.2832998 -0.071749 -0.15284857 0.42644957
-0.024664978 0.06054102 -0.40044355 -0.6583643 0.19627945 1.3206586 0.084487796 -0.0631177
0.18066612 0.06296906 -0.014823278 -0.22440298 0.5773787 0.0127020925 0.028303292 0.33048457
0.33514646 -0.009693006 0.6100988 0.21330851 0.27318597 -0.99922484 -0.46202692 0.40954262
0.12280144 0.39404404 0.60497403 0.09063636 0.09191902 0.22914352 -0.05232265 0.25768554
0.004741253 -0.013018456 1.4672343 0.37952715 1.2658857 -0.28209433 0.73773587 0.34222555
-0.15825756 -0.6690302 0.75325596 0.009453926 0.7741217 -0.28890035 0.032997128 0.9994936
0.34133875 0.28355238 0.115285434 0.059119407 0.017031448 -0.8755742 -0.5998082 0.21806479
-0.6465165 0.009696335 0.021106673 0.072194606 -0.15291072 0.5973826 -0.016778577 0.40760776
0.023980647 0.066214435 0.37270752 -0.5525278 0.008054935 -0.05862549 0.2020205 -0.0035890902
-0.07074925 -0.488829 -0.08869974 0.12245368 0.013385124 0.017708521 0.6167842 0.032428205
0.014014721 1.2430782 -0.8422473 -0.9396797 0.014895585 -0.05000878 0.13347699 0.2845744
0.05228967 1.0169191 0.018959453 -0.6296939 0.5519456 0.012739475 0.63447917 -0.0022330019
-0.06416914 0.006681766 -0.075903505 0.4235045 -0.55545205 0.18981351 0.3510098 -0.83704895
0.018405853 -0.59360915 -0.06619213 -0.054390498 -0.17957711 0.09401569 -0.41695568 -0.5525897
0.09645815 0.20048001 0.054582328 0.43683013 -1.0825347 -0.022865504 -0.021514492 0.05064509
0.021838821 -0.07594126 -0.32232168 -0.13022986 -0.017490936 -0.033354938 0.06649156 -0.041980878
-0.40517092 -0.005731914 0.030286131 0.38547882 -0.6327085 -0.017189847 0.032463696 -0.54395103
-0.8953193 0.07372862 0.5945013 0.49516279 0.58563375 0.31674787 -0.010048491 -0.5857035
0.038263194 -0.15479676 0.14216252 0.091938 -0.08729563 0.18578699 0.06613982 1.1454012
0.053217985 -0.1037018 -0.4020946 -0.17600228 -0.75499445 -1.2596574 -0.7999224 1.1020333
-0.73957396 -0.27355117 0.54306585 1.1289865 -1.3295707 -0.0035976665 -0.048605863 0.45166314
0.55552065 1.0882854 -0.02908599 -0.06745185 -0.023840483 0.43861404 0.6427308 0.22838077
-0.28990814 -0.016638778 0.06578546 -0.033337723 0.4085781 -0.07250214 -0.08772366 0.046048783
00000000: b593 d9bd a717 ef3e b337 51bd ee51 ae3d
00000010: d948 873d 6214 313d ca64 bdbe 669d 4b3d
00000020: b932 eb3e fed0 5a3f 9ae6 d83d 7947 94bd
00000030: b312 89bf 1487 37be 1b91 fbbb 58b8 a13e
00000040: 1799 193d 40e1 01bf d839 9b3f 71f6 113f
00000050: 5b38 4fbd 42c4 dabb 9d93 57be 5c81 97bc
00000060: b61b 84bd 69a7 c83e ff5a af3d 054a 36bb
00000070: 980c 1cbd e76b 6cbd aaef a73e 029b 7f3f
00000080: b2f3 89bc a249 9bbf 122b cb3e 1e98 833d
00000090: 3890 0abd 96c4 e7bc d6fd 75bd d190 9c3f
000000a0: d7d5 0c3d 0e2a 5fbf a658 d93b 34f1 173f
000000b0: 6df5 4d3c 806d bf3c 1622 553f 2e7f f03e
000000c0: 240a c23d 1b84 d8bd 437c a8bd 74dd 09bd
000000d0: e0f2 a93f 841e 7a3c 9bbd 923e db02 943d
000000e0: 6280 b23a e202 163f f771 d8bd 9763 b0be
000000f0: 6be1 01bf 9b94 6f3e 9c79 e3bd 8684 523e
00000100: 3dc1 34bc 8f0c 813f a7d7 803d 9060 3a3f
00000110: 2b43 a4bf 24f1 92bd 5684 1cbe 9957 da3e
00000120: 350e cabc dcf9 773d f006 cdbe 908a 28bf
00000130: 7bfd 483e 570b a93f f007 ad3d da43 81bd
00000140: 8a00 393e ecf5 803d 56dd 72bc e5c9 65be
00000150: 17cf 133f 701c 503c 4edc e73c 4635 a93e
00000160: 5198 ab3e 6acf 1ebc 6f2f 1c3f 8c6d 5a3e
00000170: 08df 8b3e 33cd 7fbf cb8e ecbe 92af d13e
00000180: 527f fb3d 24c0 c93e 94df 1a3f 8e9f b93d
00000190: 0a40 bc3d 99a4 6a3e 4650 56bd 5cef 833e
000001a0: 835c 9b3b 5d4b 55bc 55ce bb3f 6251 c23e
000001b0: 8b08 a23f ab6e 90be 42dc 3c3f 3038 af3e
000001c0: 450e 22be 9045 2bbf 62d5 403f a4e4 1a3c
000001d0: d72c 463f bfea 93be ff27 073d d0de 7f3f
000001e0: f4c3 ae3e c72d 913e c51a ec3d 3127 723d
000001f0: 8985 8b3c a125 60bf 088d 19bf 604c 5f3e
00000200: 1b82 25bf 60dd 1e3c e7e7 ac3c c4da 933d
00000210: a194 1cbe 11ee 183f 3a73 89bc f7b1 d03e
00000220: 1073 c43c 6f9b 873d 85d3 be3e 7672 0dbf
00000230: d9f8 033c 4821 70bd 76de 4e3e f136 6bbb
00000240: fce4 90bd cb47 fabe 36a8 b5bd ffc8 fa3d
00000250: 474d 5b3c 7611 913c 92e5 1d3f 70d3 043d
00000260: 009e 653c 301d 9f3f 859d 57bf d98e 70bf
00000270: 9d0c 743c 02d6 4cbd 31ae 083e bcb3 913e
00000280: b12d 563d 682a 823f db50 9b3c 9f33 21bf
00000290: 4f4c 0d3f 3bb9 503c 3a6d 223f 8e57 12bb
000002a0: 1c6b 83bd b7f2 da3b 4c73 9bbd 95d5 d83e
000002b0: 1b32 0ebf 795e 423e 8eb7 b33e d748 56bf
000002c0: dfc7 963c c5f6 17bf bd8f 87bd 92c8 5ebd
000002d0: 10e3 37be 4c8b c03d 377b d5be 8576 0dbf
000002e0: da8b c53d a24a 4d3e b891 5f3d 33a8 df3e
000002f0: 7f90 8abf 7050 bbbc 293f b0bc 3a71 4f3d
00000300: 54e7 b23c 1787 9bbd 5907 a5be fa5a 05be
00000310: 2749 8fbc 309f 08bd ba2c 883d 24f4 2bbd
00000320: 9072 cfbe c8d2 bbbb 9f1a f83c 7b5d c53e
00000330: 2ff9 21bf b9d1 8cbc a7f8 043d 6040 0bbf
00000340: a533 65bf 08ff 963d 3d31 183f fa85 fd3e
00000350: 18ec 153f c72c a23e 6da2 24bc aaf0 15bf
00000360: deb9 1c3d 0b83 1ebe 0d93 113e fd49 bc3d
00000370: 0dc8 b2bd f23e 3e3e 5074 873d 829c 923f
00000380: 1afb 593d 9c61 d4bd 58df cdbe f139 34be
00000390: 5147 41bf 743c a1bf b7c7 4cbf 6d0f 8d3f
000003a0: b854 3dbf e60e 8cbe 5d06 0b3f a182 903f
000003b0: 5f2f aabf d4c6 6bbb f116 47bd 6440 e73e
000003c0: 9a36 0e3f f04c 8b3f be45 eebc 3224 8abd
000003d0: 1e4d c3bc 0592 e03e 018a 243f a6dc 693e
000003e0: d76e 94be 0c4e 88bc 87ba 863d 238d 08bd
000003f0: 2631 d13e 017c 94bd 76a8 b3bd a69d 3c3d

fc2.bias f4 [84]
0.99464405 -1.6027856 -1.233043 0.17527813 -0.8259332 -1.2330608 -0.40576997 -0.7405191
-0.14529441 -0.679534 -1.0613652 -0.73523605 -0.22841209 -0.04256172 0.39333072 3.1004303
-0.813362 5.295763 -0.929345 -0.4403338 -0.7584307 1.5834798 0.23734157 0.066074334
0.4059126 0.97198915 -0.47174957 -0.05111171 0.3497026 0.7283243 2.1327646 -1.2004743
-1.8951552 -1.1804655 -0.6474431 1.0533174 -0.47002956 -1.7150002 -0.88561565 -0.72364974
-0.9530298 -0.8614288 -0.3555124 -1.8224853 3.079397 0.7829645 -0.23613033 0.5089917
-0.08281117 -0.18311661 -0.670577 0.050704524 2.2767372 -0.6792526 0.57830304 -2.3442461
-1.1034256 -0.3565116 -0.81289595 -0.41952643 4.0531225 -0.86020595 -0.42521858 -2.2603917
0.769162 -0.806751 5.022185 -0.894339 -0.79949003 -0.36773592 -1.2665775 -0.6861317
-0.71058804 -0.41890752 0.584492 -0.56515235 -0.13851425 -0.6751801 0.026988478 -0.66508126
-1.2881105 -0.10673252 0.83918786 3.987257
00000000: fea0 7e3f 1428 cdbf 5ad4 9dbf 1c7c 333e
00000010: 5c70 53bf f0d4 9dbf 15c1 cfbe a992 3dbf
00000020: 0fc8 14be f1f5 2dbf d1da 87bf 6e38 3cbf
00000030: dce4 69be 3355 2ebd a562 c93e 736d 4640
00000040: 7e38 50bf e476 a940 8ee9 6dbf 6f73 e1be
00000050: 8428 42bf 77af ca3f ab09 733e fb51 873d
00000060: c7d3 cf3e 48d4 783f 2989 f1be 835a 51bd
00000070: 380c b33e 7673 3a3f 377f 0840 24a9 99bf
00000080: 7294 f2bf 7e19 97bf d5be 25bf 1bd3 863f
00000090: b7a7 f0be 2085 dbbf b5b7 62bf 1c41 39bf
000000a0: c3f9 73bf 9986 5cbf b905 b6be 3347 e9bf
000000b0: d714 4540 5d70 483f 26cc 71be 484d 023f
000000c0: e798 a9bd ec82 3bbe efaa 2bbf 8caf 4f3d
000000d0: 10b6 1140 80e3 2dbf ab0b 143f 2108 16c0
000000e0: 0d3d 8dbf b088 b6be f319 50bf 2bcc d6be
000000f0: 2eb3 8140 7536 5cbf 40b6 d9be 42aa 10c0
00000100: cde7 443f 3c87 4ebf bdb5 a040 67f3 64bf
00000110: 61ab 4cbf e247 bcbe 361f a2bf 54a6 2fbf
00000120: 19e9 35bf 0c7b d6be 45a1 153f d3ad 10bf
00000130: aed6 0dbe 9ad8 2cbf f116 dd3c c442 2abf
00000140: cee0 a4bf 9496 dabd 04d5 563f 382f 7f40

fc3.weight f4 [10, 84]
-0.63262373 -0.45473886 -1.0462765 -0.3858753 -1.5617652 -0.94430166 -0.6190146 -1.1969427
-0.47521904 -1.2359091 -1.7808632 -1.8861588 -0.24660961 -0.089313306 -0.74073666 -0.33620024
-3.1285427 -0.31873566 -1.2991501 -0.51401114 -1.2313391 -0.31655806 -0.39973667 -0.58346665
-0.861627 -0.3777779 -1.6190954 -1.4847193 -0.6767645 -1.1155554 -0.5952557 -0.55823016
-0.584097 -0.2984759 -1.7922684 -0.63132316 -0.8622167 -1.6639342 -0.3789744 -1.1554946
-0.7691511 -1.7390352 -0.12755154 -0.854447 -0.2736146 -0.46985522 0.015124696 -0.5148077
-1.2347504 -1.7031056 -1.7678037 -1.1948854 -0.40193313 -1.3094943 -1.5600692 -0.31342804
-0.6571602 -0.85878104 -1.7977825 -0.32900703 -0.29686248 -1.024758 -1.814956 -0.04339754
-0.41007328 -0.49614534 -0.48506802 -1.8772287 -1.1821342 -1.5478228 -0.2055926 -1.168232
-0.94124335 -1.7324078 -0.27663606 -0.2877918 -1.6325185 -1.1279534 -1.4236313 -0.84087974
-2.5448625 -1.4452405 -0.6321033 -0.33694074 -0.65744096 -0.3192987 -1.0218734 -0.3804226
-1.3520464 -1.0135537 -1.1122724 -2.7292032 -0.6710395 -2.0696096 -0.621684 -1.8011734
-0.20391189 -0.06907961 -1.4493603 -0.30368957 -1.2756039 -0.4035004 -0.7695105 -0.5120252
-2.5619192 -0.22419484 -1.5984889 -0.8440521 -1.3854042 -0.36425424 -0.76699543 -1.3358352
-1.684947 -0.7912171 -0.6426957 -0.8626008 -0.67386436 -2.3241954 -2.0011947 -0.71040434
-0.8588174 -0.62500626 -1.7508328 -1.025624 -0.3291299 -1.5289915 -1.7642026 -0.62627757
-0.4534724 -0.5508722 -0.11204547 -0.395853 -1.3113716 -0.5991923 -1.6263981 -1.2046577
-1.380795 -0.9390745 -1.5667995 -0.19160035 -1.9752293 -1.0841322 -1.753377 -1.804683
-0.33688894 -2.2537987 -1.6531768 -0.18765405 -0.7166668 -1.9580401 -0.47848895 -0.72886217
-2.5972292 -2.041643 -0.15757866 -0.60554445 -1.3478101 -1.8948262 -0.2594461 -1.1631396
-2.4280999 -1.8798909 -2.3725483 -0.9603942 -0.80815774 -1.2611393 -0.6945024 -0.33928514
-0.791278 -0.43679497 -2.0661087 -0.27748567 -1.8102515 -1.1452448 -3.2196841 -0.555337
-0.3549047 -2.0114584 -1.7678654 -1.4326966 -0.29884717 -0.14863606 -0.18926372 -0.31306025
-2.6332417 -0.23832546 -1.5863757 -0.5773589 -1.1389782 -0.23035523 -0.35525754 -0.88158536
-1.3103273 -0.4268036 -1.2113268 -1.0076313 -1.3070105 -1.139892 -0.5576953 -0.53927875
-0.7330462 -1.1454418 -2.0097919 -0.68389493 -0.6164119 -1.6853453 -1.0398129 -2.0726771
-1.4056617 -1.0664889 -1.2184565 -0.91069186 -0.29629508 -0.6515017 -0.19096018 -0.41741657
-0.7699232 -0.9981591 -2.003041 -2.3187695 -1.4959675 -1.5690408 -1.9316353 -0.35386643
-0.6163585 -0.39710644 -2.1468449 -1.2416449 -0.19923188 -1.3995987 -1.7121615 -0.0347399
-0.75471604 -0.5629158 -0.5315994 -2.0520098 -1.8053484 -1.3775413 -0.3290098 -1.326318
-1.2123433 -2.3267448 -0.20515206 -0.18410566 -0.94783026 -2.2170317 -0.895844 -0.8962499
-3.0025902 -2.188203 -0.703197 -0.2537691 -0.7297399 -0.4217775 -2.1030657 -0.25426003
00000000: a1f3 21bf 88d3 e8be 63ec 85bf 7391 c5be
00000010: ece7 c7bf c1bd 71bf be77 1ebf 6b35 99bf
00000020: e94f f3be 4532 9ebf 53f3 e3bf a76d f1bf
00000030: 3b87 7cbe e5e9 b6bd eba0 3dbf 7022 acbe
00000040: 0b3a 48c0 5231 a3be 8d4a a6bf 3c96 03bf
00000050: 859c 9dbf e613 a2be 49aa ccbe 125e 15bf
00000060: 9693 5cbf 1b6c c1be 853e cfbf 480b bebf
00000070: 7040 2dbf 85ca 8ebf ad62 18bf 2ce8 0ebf
00000080: 6287 15bf d5d1 98be 0d69 e5bf 659e 21bf
00000090: 3cba 5cbf ccfb d4bf ef08 c2be 3fe7 93bf
000000a0: 16e7 44bf b598 debf df9c 02be 0abd 5abf
000000b0: 3617 8cbe dd90 f0be 93cd 773c 70ca 03bf
000000c0: 4d0c 9ebf 5dff d9bf 6447 e2bf 01f2 98bf
000000d0: 2eca cdbe 829d a7bf 59b0 c7bf a479 a0be
000000e0: a73b 28bf 13d9 5bbf bd1d e6bf 9c73 a8be
000000f0: 5cfe 97be 452b 83bf 7a50 e8bf 9ec1 31bd
00000100: 20f5 d1be c306 febe d65a f8be 0849 f0bf
00000110: 2c50 97bf 0f1f c6bf de86 52be a088 95bf
00000120: 53f5 70bf 8abf ddbf 3ea3 8dbe 7259 93be
00000130: 5ef6 d0bf c760 90bf 8d39 b6bf e543 57bf
00000140: 07df 22c0 a4fd b8bf 86d1 21bf 7f83 acbe
00000150: 0d4e 28bf 1f7b a3be bfcc 82bf c0c6 c2be
00000160: db0f adbf 21bc 81bf f15e 8ebf 44ab 2ec0
00000170: 3fc9 2bbf 7c74 04c0 af26 1fbf da8c e6bf
00000180: 47ce 50be 9c79 8dbd a384 b9bf 337d 9bbe
00000190: fd46 a3bf 9b97 cebe a4fe 44bf 1514 03bf
000001a0: 7cf6 23c0 5593 65be 499b ccbf cc13 58bf
000001b0: ed54 b1bf 887f babe d059 44bf a6fc aabf
000001c0: 58ac d7bf 348d 4abf b587 24bf 68d3 5cbf
000001d0: 6082 2cbf 9ebf 14c0 9313 00c0 0fdd 35bf
000001e0: 75db 5bbf 6900 20bf 4a1b e0bf a647 83bf
000001f0: b783 a8be feb5 c3bf 64d1 e1bf ba53 20bf
00000200: 892d e8be f605 0dbf 1878 e5bd 3fad cabe
00000210: 06db a7bf ab64 19bf d02d d0bf 3932 9abf
00000220: e4bd b0bf 3067 70bf e38c c8bf e232 44be
00000230: 50d4 fcbf d8c4 8abf a86e e0bf daff e6bf
00000240: b57c acbe 3d3e 10c0 4c9b d3bf 6228 40be
00000250: 7a77 37bf 0fa1 fabf 81fc f4be b696 3abf
00000260: 0139 26c0 47aa 02c0 4d5c 21be f604 1bbf
00000270: 0b85 acbf aa89 f2bf 1fd6 84be c2e1 94bf
00000280: fd65 1bc0 44a0 f0bf d5d7 17c0 65dc 75bf
00000290: 6de3 4ebf 036d a1bf e9ca 31bf c8b6 adbe
000002a0: 3291 4abf 97a3 dfbe 203b 04c0 9a12 8ebe
000002b0: 52b6 e7bf 6297 92bf 4e0f 4ec0 912a 0ebf
000002c0: 12b6 b5be bcbb 00c0 6a49 e2bf 9a62 b7bf
000002d0: 7f02 99be 0d34 18be 59ce 41be 6f49 a0be
000002e0: 0887 28c0 970b 74be 5c0e cbbf cbcd 13bf
000002f0: 0aca 91bf 3ee2 6bbe 51e4 b5be 94af 61bf
00000300: ceb8 a7bf 0086 dabe c20c 9bbf 10fa 80bf
00000310: 1f4c a7bf fbe7 91bf 1fc5 0ebf 2c0e 0abf
00000320: eaa8 3bbf d69d 92bf 6ea0 00c0 bd13 2fbf
00000330: 2ccd 1dbf 65b9 d7bf 9718 85bf bea6 04c0
00000340: b9ec b3bf b582 88bf 62f6 9bbf 1a23 69bf
00000350: fdb3 97be d1c8 26bf 118b 43be a0b7 d5be
00000360: b019 45bf 5b87 7fbf d331 00c0 b866 14c0
00000370: dd7b bfbf 54d6 c8bf d33f f7bf fb2d b5be
00000380: acc9 1dbf 8951 cbbe e865 09c0 38ee 9ebf
00000390: 7103 4cbe 0d26 b3bf 1c28 dbbf 6d4b 0ebd
000003a0: 1235 41bf 401b 10bf e616 08bf 2154 03c0
000003b0: a815 e7bf 4653 b0bf f973 a8be cac4 a9bf
000003c0: 112e 9bbf 63e9 14c0 6213 52be 3286 3cbe
000003d0: 01a5 72bf d9e3 0dc0 0856 65bf a270 65bf
000003e0: 702a 40c0 850b 0cc0 b804 34bf 06ee 81be
000003f0: 3cd0 3abf 38f3 d7be a198 06c0 5f2e 82be

fc3.bias f4 [10]
-0.011030749 -1.0522723 0.018584942 0.43819407 0.6312679 -0.4751165 0.60457504 -0.9193477
0.61989504 -0.77052814
00000000: 51ba 34bc dcb0 86bf 733f 983c f95a e03e
00000010: c69a 213f 7842 f3be 6ec5 1a3f 5f5a 6bbf
00000020: 71b1 1e3f 5541 45bf
