Models/03-04-2023-14-34-55/model_CNN_AdaGrad.pth (torch, 250951 bytes, 10 tensors)

conv1.weight f4 [6, 3, 5, 5]
0.09580796 0.068635166 -0.037335537 0.055908065 0.056378033 -0.0062553966 0.08584544 -0.08754837
-0.10562435 -0.051683735 0.06455423 0.02393566 -0.09142823 -0.111516215 0.0043098833 -0.12081415
-0.13927566 -0.07172819 0.03435531 -0.06625712 0.06450162 -0.041207887 -0.06295595 -0.044123493
-0.046102345 -0.062234975 -0.02772693 0.07253973 0.033148278 0.02327839 -0.091950305 -0.10261658
0.048427045 -0.063240595 0.087306045 -0.021674754 -0.12692805 -0.12866913 -0.09599972 -0.022811713
-0.10801602 0.020812197 0.058412097 -0.0021221424 0.07029235 0.02704426 0.10105702 -0.08174773
0.10312663 -0.07911708 0.043596484 -0.06997948 -0.11199391 0.04313365 -0.015034233 -0.140297
0.03357475 -0.12871796 -0.09924011 -0.1270183 -0.13108449 -0.049949877 -0.17602792 -0.14976677
-0.017991312 -0.16552335 -0.03979862 -0.024747793 -0.11115769 -0.13524972 -0.01616704 -0.120422386
-0.15846597 -0.118160196 -0.053184297 -0.054991566 -0.10804332 0.08186417 0.05827507 0.06518734
-0.12930049 -0.08276929 0.06421818 0.0071564047 0.16351047 -0.043380085 -0.052861452 0.07513636
0.08200618 0.1433969 -0.13308455 0.053990684 -0.13315813 0.12884803 0.054526024 -0.061727468
0.031217841 0.045986783 0.11318761 0.083919175 -0.03661984 -0.07004195 -0.07057771 0.08186599
0.06839558 -0.0477692 -0.07267559 -0.0055887857 0.023133963 0.037702963 -0.042523906 -0.060373012
-0.06340578 -0.05577352 -0.0017698806 -0.08760114 -0.1292302 -0.008107948 -0.0414098 0.18128178
-0.1119673 -0.0015812353 -0.07674794 -0.07255185 0.030032666 -0.16344069 -0.03037707 0.0089889
0.06356498 -0.031363025 -0.13654405 0.019933106 -0.024267653 0.014931123 0.1062156 0.057123166
-0.1066273 -0.088662565 0.08035961 0.0825677 -0.060363732 -0.15405984 0.028500076 0.0018859975
0.16062039 0.036745954 -0.06626388 -0.12276603 -0.00014724719 0.14070411 -0.021555591 -0.068821974
-0.098253146 -0.087295406 0.026384082 -0.04969519 -0.06538731 0.10644665 0.1154815 -0.0409178
-0.0011821172 0.047757994 0.019313237 0.10089848 0.073054224 -0.15439583 0.07728228 -0.044114538
-0.070373245 -0.009216507 0.0096056 -0.07689083 -0.050191015 -0.076533705 -0.13042733 0.093095176
-0.07714561 0.0471083 0.07468902 0.045029227 -0.06328523 0.07901466 0.08181995 -0.055470742
0.08977378 -0.05184823 -0.08340582 -0.055492297 -0.0047889412 0.050823614 -0.002239121 -0.13166912
-0.15390547 0.035906814 -0.03866225 0.02121036 -0.11527798 -0.08079995 -0.15246846 -0.10842018
0.08723357 0.11007578 0.082669236 0.09261102 0.07482442 0.19888175 0.08520121 0.17327864
0.095023625 0.14193805 0.06710145 0.0544563 0.02825891 -0.039400984 0.04517803 0.09012556
-0.07094644 0.022480091 -0.055163383 -0.015025639 -0.07234111 0.0683398 0.010159152 -0.051095728
0.0080947075 0.09877592 0.03687013 0.02225523 0.01937732 0.13922825 0.022462726 0.0066141966
-0.050252195 0.064103566 0.0079074325 -0.008050442 -0.043908328 -0.11865154 -0.07810168 -0.11978277
0.05361045 -0.114723206 0.015195387 -0.02846974 0.05618333 -0.043290406 -0.14247552 -0.093327776
-0.06455745 0.0048425696 -0.019165885 -0.031803068 -0.16690068 -0.14740516 -0.02700003 -0.18315414
00000000: f736 c43d 9890 8c3d 26ed 18bd dbff 643d
00000010: a7ec 663d 12fa ccbb bccf af3d 8f4c b3bd
00000020: 9451 d8bd 53b2 53bd 0235 843d b814 c43c
00000030: b93e bbbd 9d62 e4bd ec39 8d3b 696d f7bd
00000040: 479e 0ebe 3be6 92bd 27b8 0c3d d0b1 87bd
00000050: 6d19 843d 9ac9 28bd 0def 80bd d6ba 34bd
00000060: d0d5 3cbd 1aea 7ebd 9623 e3bc b68f 943d
00000070: 7dc6 073d 52b2 be3c 7150 bcbd a428 d2bd
00000080: 705b 463d 4984 81bd 83cd b23d 418f b1bc
00000090: 6df9 01be d7c1 03be 809b c4bd a1df babc
000000a0: 8137 ddbd 577e aa3c 8641 6f3d a413 0bbb
000000b0: 70f5 8f3d ed8b dd3c fcf6 ce3d 5b6b a7bd
000000c0: 0e34 d33d 2308 a2bd 3a92 323d 6751 8fbd
000000d0: 105d e5bd e9ac 303d 2552 76bc 04aa 0fbe
000000e0: ad85 093d a4ce 03be 663e cbbd 1611 02be
000000f0: 033b 06be 3e98 4cbd aa40 34be 765c 19be
00000100: 8462 93bc f47e 29be e103 23bd e2bb cabc
00000110: a5a6 e3bd e77e 0abe be70 84bc 03a0 f6bd
00000120: e744 22be f9fd f1bd c7d7 59bd d63e 61bd
00000130: d145 ddbd 67a8 a73d d7b1 6e3d f180 853d
00000140: 5967 04be f282 a9bd d284 833d 4680 ea3b
00000150: 4a6f 273e 51af 31bd 4085 58bd 18e1 993d
00000160: dbf2 a73d a3d6 123e 5147 08be 5625 5d3d
00000170: 9b5a 08be bdf0 033e ae56 5f3d f1d5 7cbd
00000180: 8fbc ff3c a35c 3c3d e8ce e73d d1dd ab3d
00000190: affe 15bd 2772 8fbd 0c8b 90bd 5ba9 a73d
000001a0: fb12 8c3d a3a9 43bd f1d6 94bd 2222 b7bb
000001b0: 7083 bd3c 6c6e 1a3d 8c2d 2ebd b149 77bd
000001c0: e4da 81bd c672 64bd 57fb e7ba 3a68 b3bd
000001d0: ec54 04be 33d7 04bc 539d 29bd eea1 393e
000001e0: 1d4f e5bd 7441 cfba 062e 9dbd 1096 94bd
000001f0: 1107 f63c ff5c 27be 55d9 f8bc 2e46 133c
00000200: 5b2e 823d 8476 00bd 34d2 0bbe c14a a33c
00000210: f5cc c6bc aba1 743c 9187 d93d fbf9 693d
00000220: 6a5f dabd b894 b5bd 9493 a43d 4119 a93d
00000230: f63f 77bd ddc1 1dbe fe78 e93c 9333 f73a
00000240: ac79 243e ed82 163d 5bb5 87bd c26c fbbd
00000250: 5e66 1ab9 bd14 103e 5a95 b0bc 89f2 8cbd
00000260: f238 c9bd efc7 b2bd 6e23 d83c 2f8d 4bbd
00000270: c8e9 85bd b400 da3d 9181 ec3d 6c99 27bd
00000280: 45f1 9aba e39d 433d cb36 9e3c dda3 ce3d
00000290: 749d 953d f119 1ebe 2c46 9e3d 72b1 34bd
000002a0: d91f 90bd d500 17bc ce60 1d3c f178 9dbd
000002b0: 1895 4dbd b4bd 9cbd be8e 05be afa8 be3d
000002c0: 84fe 9dbd a2f4 403d 8ff6 983d 9170 383d
000002d0: b09b 81bd 70d2 a13d 3891 a73d 4a35 63bd
000002e0: 51db b73d cf5e 54bd acd0 aabd e44b 63bd
000002f0: 8dec 9cbb 6c2c 503d 37be 12bb 45d4 06be
00000300: 6599 1dbe 0613 133d 4f5c 1ebd 59c1 ad3c
00000310: dd16 ecbd 727a a5bd b120 1cbe 660b debd
00000320: 84a7 b23d 696f e13d 7d4e a93d d9aa bd3d
00000330: 8c3d 993d a8a7 4b3e f97d ae3d f56f 313e
00000340: bf9b c23d 3558 113e 7c6c 893d 920d 5f3d
00000350: 3b7f e73c ed62 21bd 990c 393d c093 b83d
00000360: 5e4c 91bd 2b28 b83c 00f3 61bd 192e 76bc
00000370: 9327 94bd bdf5 8b3d 9272 263c c149 51bd
00000380: aa9f 043c 084b ca3d 2205 173d 9a50 b63c
00000390: 2fbd 9e3c da91 0e3e c003 b83c e7bb d83b
000003a0: 3fd5 4dbd bb48 833d 2d8e 013c 00e6 03bc
000003b0: 38d9 33bd 94ff f2bd c6f3 9fbd ab50 f5bd
000003c0: a296 5b3d 00f4 eabd 13f6 783c 5f39 e9bc
000003d0: 7e20 663d 4851 31bd 1ae5 11be a222 bfbd
000003e0: b236 84bd 6bae 9e3b c601 9dbc ef43 02bd
000003f0: 03e8 2abe 61f1 16be 2b2f ddbc c28c 3bbe

conv1.bias f4 [6]
0.18901852 0.0133435 0.12361312 0.049873453 0.02210002 -0.05829711
00000000: 128e 413e b29e 5a3c e028 fd3d 1b48 4c3d
00000010: 1a0b b53c f3c8 6ebd

conv2.weight f4 [16, 6, 5, 5]
-0.052930914 -0.07723578 -0.012301972 0.049565714 -0.05445373 -0.06760728 -0.04823062 0.020293556
0.044601083 0.07798311 0.008764687 -0.0023983398 -0.07950385 0.002333234 -0.011037816 -0.06454357
-0.053222124 0.02729734 0.038731195 0.028524317 0.0514532 0.033747833 -0.023429168 -0.019623073
0.028389512 -0.031943742 -0.055280726 -0.012059318 -0.0051562865 0.06316439 -0.08091462 0.024778455
-0.042721067 0.023806602 -0.02742769 0.018699942 0.069943696 0.018788362 0.047108542 0.009478805
0.044046666 -0.035843566 0.02717808 -0.012869145 -0.08267158 -0.020632701 -0.011197119 -0.026890269
-0.0066085253 -0.029799784 0.13063295 0.14715523 0.1318786 0.04464353 0.08246497 0.09977336
0.07017535 0.08482263 0.0988875 0.10442623 0.08754937 -0.009814911 0.030651337 0.073395714
0.07468941 -0.00020397485 0.02089668 -0.012653368 0.028641326 0.00434087 0.04264054 0.054485675
0.08308972 0.072554864 0.006104068 -0.07419504 0.07683535 -0.0419655 0.021741759 0.07215016
-0.014165226 0.056220964 0.055373274 0.0077851377 -0.032688525 0.017505756 0.008490318 0.04526098
0.0075438125 -0.06338354 -0.059912425 0.04568127 -0.07411948 0.06733519 -0.0100593325 0.03766294
-0.02443592 -0.0052570435 0.052460637 -0.05485935 0.014357431 0.08024523 -0.0028291456 0.0239091
0.019734511 0.031932224 0.06444561 0.0878689 0.06328005 0.061709292 0.013220308 -0.0035244832
-0.00068538624 0.052329607 0.023629466 0.057097625 0.058604922 0.06923748 0.0032619697 0.10245676
0.0091570625 0.068835035 -0.018391699 -0.017156763 0.0059089987 -0.018804707 0.011339613 0.027149424
0.001825685 0.028891563 0.07259093 0.06874881 -0.021888899 0.0934769 -0.022987654 -0.042826016
0.042762168 0.051993255 0.018525185 0.03780416 0.060072515 -0.033599813 0.10880422 0.117227174
0.078682914 0.06615374 -0.012911744 0.1196107 0.05756445 -0.008532428 -0.018018838 0.050671443
0.009608604 -0.08345795 -0.044115122 -0.026574304 -0.06542666 0.036588326 0.04293329 0.012321595
-0.006015534 -0.016098965 -0.06907794 0.0043493663 0.0762934 -0.046734143 -0.0023114805 0.07331445
-0.0025849154 0.069395825 0.057941027 -0.035887543 -0.019282563 0.016202133 -0.038821034 -0.018006
0.05990364 -0.026848137 -0.03817653 0.028501518 -0.058927886 -0.029800447 0.05675403 -0.043038003
0.040342994 -0.003442158 0.07184054 -0.058699194 -0.06876628 0.017628198 0.062043928 0.026859779
0.059710126 0.063137196 -0.027635258 -0.05548156 -0.00099576 -0.07625547 -0.0058506513 0.021476237
-0.05873937 -0.06398532 -0.0040177605 -0.0059569855 0.028472066 -0.018707044 -0.06291816 0.06718599
-0.0112296995 -0.037445664 0.016386747 -0.054713003 -0.017428303 0.016537495 0.058534097 0.04846739
0.010548764 -0.06200641 -0.07692679 0.019942928 -0.046367332 0.049273923 0.024102231 0.03344647
-0.039648164 0.030546516 -0.0038969524 -0.04100178 0.037949063 0.06663063 -0.015595245 -0.049356606
0.009302968 -0.018040825 -0.07385197 -0.0126894545 0.06730718 -0.010005112 0.02137211 -0.024187855
-0.059897713 -0.028340867 0.0261772 -0.029093781 0.015162179 0.042997546 -0.064872235 0.013138936
0.06819061 -0.07353874 0.003051613 -0.05952817 -0.0060089855 -0.06576953 -0.052600153 0.0061882716
00000000: 16ce 58bd cb2d 9ebd 368e 49bc 6b05 4b3d
00000010: e00a 5fbd b075 8abd 788d 45bd ac3e a63c
00000020: a0af 363d 9cb5 9f3d c399 0f3c 772d 1dbb
00000030: ead2 a2bd 2ce9 183b f5d7 34bc 6b2f 84bd
00000040: 71ff 59bd ac9e df3c 9aa4 1e3d d4ab e93c
00000050: 97c0 523d 2b3b 0a3d 87ee bfbc 91c0 a0bc
00000060: 1f91 e83c 71d7 02bd 0b6e 62bd 7294 45bc
00000070: 11f6 a8bb 555c 813d 90b6 a5bd 30fc ca3c
00000080: 49fc 2ebd 1006 c33c 09b0 e0bc 9f30 993c
00000090: a43e 8f3d 0dea 993c e3f4 403d fd4c 1b3c
000000a0: 476a 343d b4d0 12bd 91a4 de3c 1bd9 52bc
000000b0: b84f a9bd e905 a9bc 1f74 37bc fb48 dcbc
000000c0: 548c d8bb ad1e f4bc a5c4 053e dcaf 163e
000000d0: 2f0b 073e 22dc 363d 65e3 a83d fa55 cc3d
000000e0: 18b8 8f3d 7db7 ad3d 8885 ca3d 6bdd d53d
000000f0: 164d b33d b8ce 20bc 8318 fb3c 7e50 963d
00000100: c3f6 983d 15e2 55b9 842f ab3c 1250 4fbc
00000110: 37a1 ea3c db3d 8e3b d9a7 2e3d 5f2c 5f3d
00000120: f12a aa3d a597 943d a204 c83b 92f3 97bd
00000130: da5b 9d3d 04e4 2bbd c61b b23c 77c3 933d
00000140: 4415 68bc f447 663d 16cf 623d 781a ff3b
00000150: 67e4 05bd 3b68 8f3c fa1a 0b3c 9463 393d
00000160: 1632 f73b 3bcf 81bd bb66 75bd 491c 3b3d
00000170: f4cb 97bd 08e7 893d e6cf 24bc 7444 1a3d
00000180: d72d c8bc 4743 acbb f7e0 563d 33b4 60bd
00000190: 6e3b 6b3c 9c57 a43d 3069 39bb 04dd c33c
000001a0: 45aa a13c 5dcb 023d 0ffc 833d 9cf4 b33d
000001b0: f998 813d e2c2 7c3d fe99 583c 04fb 66bb
000001c0: 7eab 33ba 9257 563d 9592 c13c 33df 693d
000001d0: b70b 703d 61cc 8d3d c5c6 553b dad4 d13d
000001e0: 8107 163c 62f9 8c3d 30aa 96bc 578c 8cbc
000001f0: 46a0 c13b 540c 9abc c9c9 393c 7868 de3c
00000200: d34b ef3a 00ae ec3c 8eaa 943d 2dcc 8c3d
00000210: 5950 b3bc d170 bf3d 9b50 bcbc 556a 2fbd
00000220: 6227 2f3d e1f6 543d 21c2 973c 89d8 1a3d
00000230: 990e 763d f59f 09bd bfd4 de3d cd14 f03d
00000240: 8224 a13d 9d7b 873d c88b 53bc 74f6 f43d
00000250: b3c8 6b3d 99cb 0bbc 3e9c 93bc dc8c 4f3d
00000260: 686d 1d3c 00ec aabd 0fb2 34bd 5bb2 d9bc
00000270: 6afe 85bd a4dd 153d d1da 2f3d 84e0 493c
00000280: f51d c5bb fae1 83bc bc78 8dbd 2185 8e3b
00000290: b73f 9c3d 4d6c 3fbd 357c 17bb e325 963d
000002a0: af67 29bb 661f 8e3d 9253 6d3d d1fe 12bd
000002b0: 77f6 9dbc 56ba 843c ce02 1fbd 5281 93bc
000002c0: 855d 753d a0f0 dbbc fe5e 1cbd 047c e93c
000002d0: 5e5e 71bd 1120 f4bc ea76 683d 9e48 30bd
000002e0: b23e 253d d495 61bb 2221 933d 916e 70bd
000002f0: 56d5 8cbd 0369 903c c621 7e3d 0a09 dc3c
00000300: 9b92 743d 134e 813d 5663 e2bc a240 63bd
00000310: 2984 82ba d42b 9cbd d2b6 bfbb efee af3c
00000320: b298 70bd bc0a 83bd 6ba7 83bb d132 c3bb
00000330: 403e e93c 843f 99bc 3cdb 80bd cf98 893d
00000340: c6fc 37bc a060 19bd 803d 863c be1a 60bd
00000350: cdc5 8ebc a479 873c 73c1 6f3d be85 463d
00000360: b9d4 2c3c 6ffa 7dbd cb8b 9dbd 5a5f a33c
00000370: aceb 3dbd 74d3 493d 0b72 c53c 2aff 083d
00000380: 1d66 22bd b03c fa3c 0364 7fbb 7cf1 27bd
00000390: 7a70 1b3d a475 883d 3383 7fbc 272a 4abd
000003a0: 7a6b 183c 5aca 93bc b43f 97bd 6ee7 4fbc
000003b0: 59d8 893d 7bec 23bc 9014 af3c 9c25 c6bc
000003c0: 4e57 75bd 1b2b e8bc 9171 d63c 1556 eebc
000003d0: ca6a 783c 321e 303d bcdb 84bd b144 573c
000003e0: 85a7 8b3d 7b9b 96bd 92fd 473b cfd3 73bd
000003f0: 06e7 c4bb 2db2 86bd 4273 57bd fcc6 ca3b

conv2.bias f4 [16]
0.07252756 -0.051698696 0.049953755 -0.05908551 0.09927311 -0.004494725 0.11904099 0.029858802
-0.02626772 -0.023219943 -0.062464036 0.04209001 0.018671416 -0.078768186 0.06659934 -0.022150144
00000000: 5489 943d 03c2 53bd 4f9c 4c3d a603 72bd
00000010: b34f cb3d 7c48 93bb c3cb f33d 729a f43c
00000020: 672f d7bc c037 bebc 4ada 7fbd 9366 2c3d
00000030: ccf4 983c 3751 a1bd 3c65 883d 3874 b5bc

fc1.weight f4 [120, 400]
0.028983513 0.011414372 0.03304011 -0.03324873 -0.009249533 -0.043701936 0.01799499 -0.04890803
-0.005432857 0.003037213 0.023394352 -0.006903331 -0.003092586 0.004762332 0.033469643 -0.048808955
-0.048193038 -0.0007798953 -0.0005656455 -0.005551411 0.0058126478 -0.008833084 -0.008567817 -0.023704614
0.05102684 -0.0058638216 0.03128156 0.038059607 -0.015251457 -0.011235643 0.01606209 -0.0068563083
-0.023397671 0.023562677 -0.03154452 0.022238525 -0.024795325 0.037510272 0.039754532 -0.02186572
-0.0073214257 -0.00057451916 0.02005913 0.047747783 0.026789451 -0.0019858868 0.022823174 0.0038684148
0.042829793 0.04449779 -0.045315757 0.016012168 0.03474015 -0.05271776 0.020883413 0.033318978
0.009885909 -0.034644395 0.02313527 0.007771311 -0.017924089 0.03269684 -0.007635383 -0.011115397
-0.033911046 -0.012934582 0.0024682702 0.03226736 -0.032018237 0.012157034 0.04606136 -0.017897297
0.012488774 0.04704967 -0.011860161 -0.011501741 0.0015394235 0.021257237 0.020194914 0.0038653917
-0.00683224 -0.028205995 -0.06122659 0.010453866 -0.04093847 -0.008589429 -0.04332318 0.012579708
-0.027254079 0.02340481 0.03309645 0.009189523 -0.024228474 -0.024424834 -0.017322188 -0.011849093
0.051561538 0.045309987 0.025901696 0.040845096 -0.006140838 -0.038006704 0.01072102 0.027340088
0.020115431 0.021421457 -0.02450554 0.026651759 0.019819813 0.0077452394 -0.0011608287 -0.006830463
0.029971957 -0.015756639 0.0052796025 -0.027687248 0.03473428 -0.012485195 0.045147344 -0.015263773
0.008365191 0.052210007 -0.03500722 0.04578825 0.03321904 -0.032502536 0.044403456 -0.0013051826
-0.03428519 -0.053509798 0.0074109724 -0.0052387086 0.04786808 -0.0107936775 0.0012075586 0.05849643
-0.0075655575 -0.035361398 0.032669146 -0.047436267 0.008414533 -0.030561035 0.017776875 -0.030619692
0.02176711 -0.026555017 0.057058763 0.010177515 -0.006813034 0.0540158 0.021081617 0.019484036
-0.024074394 0.048925553 -0.016809277 -0.016797142 0.009166895 0.034593955 0.010129895 -0.014565766
-0.007203819 -0.0055541643 -0.005039508 0.016012188 0.02262356 0.014954083 0.052314047 -0.01702059
-0.00022623886 0.011273156 0.03144888 0.048709225 -0.04587333 -0.030120078 -0.016702257 0.004435036
-0.033936884 -0.025408639 -0.011879649 0.005149023 -0.033159766 -0.03611472 -0.014556472 0.030024676
-0.036617026 0.037979525 -0.017088471 0.017399943 0.014764966 -0.04094809 -0.003879316 0.05555355
0.015911903 0.0074297558 0.025239894 0.008506437 0.011954411 -0.010580983 0.0002072495 0.0019228293
-0.0051287347 -0.017480956 -0.007821831 -0.0049669603 0.021543236 0.04963284 0.049606554 -0.0150938695
-0.01781046 0.020250076 -0.01879077 0.04529921 -0.0051481854 -0.015584156 0.007655063 0.0044921366
-0.019969856 -0.017091496 0.0017274333 0.016170671 0.021157546 0.04793095 -0.035250414 0.021338739
0.06200023 0.004788772 0.046465144 -0.0073510627 0.04212275 -0.02684687 0.022601172 0.04693449
-0.020181376 -0.009970106 -0.043907218 0.0018572501 0.03819063 0.007713236 -0.03413596 0.036473528
0.03138093 0.029128175 -0.014320499 0.013779164 -0.048268147 0.02705963 0.04504535 0.041345473
-0.0015409025 -0.034856346 -0.04691991 0.012528222 0.02028356 -0.0497172 0.008434047 0.008314235
00000000: d56e ed3c 5903 3b3c 1155 073d d22f 08bd
00000010: 5a8b 17bc cd00 33bd 3b6a 933c c953 48bd
00000020: 1c06 b2bb fb0b 473b 83a5 bf3c 5635 e2bb
00000030: fcac 4abb 560d 9c3b 7717 093d e6eb 47bd
00000040: 1066 45bd e371 4cba d447 14ba 9ce8 b5bb
00000050: 0678 be3b a4b8 10bc 0760 0cbc 2e30 c2bc
00000060: 8501 513d 4d25 c0bb 1821 003d 64e4 1b3d
00000070: 3fe1 79bc b415 38bc a594 833c e2aa e0bb
00000080: 79ac bfbc 8406 c13c d434 01bd 912d b63c
00000090: 911f cbbc 5fa4 193d a6d5 223d bd1f b3bc
000000a0: 92e8 efbb 549b 16ba 0b53 a43c 2e93 433d
000000b0: 8d75 db3c a725 02bb aaf7 ba3c 3b85 7d3b
000000c0: 4b6e 2f3d 5143 363d 049d 39bd f32b 833c
000000d0: b04b 0e3d 94ee 57bd b113 ab3c 7b79 083d
000000e0: 82f8 213c 48e7 0dbd 2e86 bd3c 7ba6 fe3b
000000f0: 8ad5 92bc 1fed 053d 3c32 fabb 5b1d 36bc
00000100: 4fe6 0abd 92eb 53bc b4c2 213b c72a 043d
00000110: 8e25 03bd 4c2e 473c d6aa 3c3d 5a9d 92bc
00000120: b79d 4c3c 28b7 403d 1f51 42bc cc71 3cbc
00000130: 7bc6 c93a a823 ae3c ce6f a53c 8352 7d3b
00000140: fce0 dfbb 4210 e7bc bcc8 7abd b146 2b3c
00000150: 19af 27bd adba 0cbc a673 31bd 1f1b 4e3c
00000160: f243 dfbc 72bb bf3c 2590 073d a78f 163c
00000170: cb7a c6bc 9716 c8bc 43e7 8dbc b322 42bc
00000180: 3132 533d f796 393d cb2f d43c 304d 273d
00000190: 1539 c9bb ebac 1bbd 38a7 2f3c 52f8 df3c
000001a0: 1ec9 a43c 0d7c af3c d8bf c8bc ca54 da3c
000001b0: 295d a23c c7cb fd3b f326 98ba 14d2 dfbb
000001c0: c087 f53c 1114 81bc 8400 ad3b 5ed0 e2bc
000001d0: 8845 0e3d b48e 4cbc 6cec 383d e714 7abc
000001e0: 270e 093c 29da 553d bb63 0fbd 768c 3b3d
000001f0: b010 083d 6121 05bd 66e0 353d a912 abba
00000200: a16e 0cbd 172d 5bbd bed7 f23b 79a9 abbb
00000210: 5211 443d f7d7 30bc f146 9e3a f499 6f3d
00000220: 7fe8 f7bb 1dd7 10bd 15d0 053d 884c 42bd
00000230: 1cdd 093c 235b fabc cfa0 913c 26d6 fabc
00000240: f050 b23c e889 d9bc 73b6 693d 98bf 263c
00000250: df3f dfbb ac3f 5d3d 5bb3 ac3c fc9c 9f3c
00000260: aa37 c5bc 2966 483d 9cb3 89bc 299a 89bc
00000270: bf30 163c 64b2 0d3d dcf7 253c 40a5 6ebc
00000280: 040e ecbb b5ff b5bb 7522 a5bb fe2b 833c
00000290: 0b55 b93c f801 753c 4147 563d c46e 8bbc
000002a0: 883a 6db9 0bb3 383c 8ad0 003d 5383 473d
000002b0: ace5 3bbd 62be f6bc 2cd3 88bc c753 913b
000002c0: 6701 0bbd c725 d0bc dca2 42bc 23b9 a83b
000002d0: 89d2 07bd 07ed 13bd 457e 6ebc 4ff6 f53c
000002e0: bcfb 15bd 6b90 1b3d 1ffd 8bbc 538a 8e3c
000002f0: c2e8 713c 2fb9 27bd 1f3c 7ebb 1f8c 633d
00000300: ae59 823c 4f75 f33b e5c3 ce3c 955e 0b3c
00000310: 6fdc 433c dc5b 2dbc 1d51 5939 7207 fc3a
00000320: f20e a8bb 3934 8fbc 2327 00bc e2c1 a2bb
00000330: 717b b03c ce4b 4b3d 3e30 4b3d 474c 77bc
00000340: 3ee7 91bc 7de3 a53c 1aef 99bc aa8b 393d
00000350: 1cb2 a8bb b054 7fbc 53d7 fa3b c632 933b
00000360: d397 a3bc 7703 8cbc 0b6b e23a 5b78 843c
00000370: 9752 ad3c 3e53 443d bd62 10bd 94ce ae3c
00000380: f4f3 7d3d 22eb 9c3b 3c52 3e3d 2fe1 f0bb
00000390: e888 2c3d f8ed dbbc 1826 b93c 613e 403d
000003a0: 6a53 a5bc a859 23bc 0ed8 33bd f96e f33a
000003b0: c76d 1c3d 50bf fc3b 26d2 0bbd 4465 153d
000003c0: 4a89 003d 369e ee3c 87a0 6abc 01c2 613c
000003d0: d2b4 45bd 28ac dd3c 7981 383d df59 293d
000003e0: 1cf8 c9ba 87c5 0ebd 172f 40bd 2c43 4d3c
000003f0: b529 a63c 43a4 4bbd f52e 0a3c 6e38 083c

fc1.bias f4 [120]
0.022653772 0.015326785 -0.029622264 0.033143774 0.023526061 0.0036622444 0.021955196 0.08575288
0.04120649 -0.026417771 0.006185096 0.026619442 0.06344336 -0.021866906 0.053983685 0.05755764
-0.008459473 -0.018289942 -0.05119428 -2.1960253e-05 0.045659557 -0.0025423586 -0.021037532 0.006854829
-0.0062725754 0.018309044 0.0559509 -0.024164027 -0.010889739 -0.016200315 0.047596335 -0.022630505
0.064616874 0.02729645 0.022963082 0.013347117 0.0016474837 -0.016667327 -0.048229314 0.021136492
-0.064007945 0.006236198 0.019270077 -0.0065514445 0.030934323 -0.0034334925 0.0358311 0.03485292
0.02019871 -0.0643963 -0.0064677554 -0.054383203 0.0040705083 0.0047827032 0.033125486 -0.03491664
0.004377028 -0.03883504 0.024169814 0.019157816 -0.024214044 0.027049335 0.004428122 0.03609562
-0.02236819 0.014646252 0.010174358 -0.025407387 0.030558981 -0.032411568 0.083848804 0.078712896
0.01019292 0.044879578 0.0062934975 -0.01666104 -0.040040053 0.00011582919 -0.08057245 0.024584943
-0.01134831 0.028390428 -0.02152866 -0.012903908 -0.008985984 -0.0145479655 0.016548453 -0.042541247
0.04382673 0.07816475 0.0042262767 0.045864206 0.04146721 -0.002968368 -0.0015933778 -0.013644134
0.013245743 -0.00011874778 -0.05232301 0.053335786 -0.031018024 0.044398636 -0.058997445 0.047089703
-0.036864936 -0.018567218 -0.04501586 0.02886967 0.09534657 -0.021983692 0.085443966 0.034810316
-0.024762595 0.0505532 -0.03377048 0.024574403 0.020703265 -0.01822382 0.011716296 0.009116159
00000000: 6794 b93c 321d 7b3c 64aa f2bc c4c1 073d
00000010: bab9 c03c 4402 703b 62db b33c 359f af3d
00000020: 23c8 283d 156a d8bc 59ac ca3b 0411 da3c
00000030: 98ee 813d 3a22 b3bc ff1d 5d3d 8fc1 6b3d
00000040: 9a99 0abc cad4 95bc 18b1 51bd 4937 b8b7
00000050: 8405 3b3d b39d 26bb e756 acbc 799e e03b
00000060: 2d8a cdbb d9fc 953c c52c 653d a3f3 c5bc
00000070: e06a 32bc 86b6 84bc 60f4 423d 9c63 b9bc
00000080: da55 843d ce9c df3c 131d bc3c dead 5a3c
00000090: 61f0 d73a eb89 88bc 1a8c 45bd 7026 ad3c
000000a0: 9916 83bd 0559 cc3b 48dc 9d3c 80ad d6bb
000000b0: fa69 fd3c 7204 61bb a2c3 123d efc1 0e3d
000000c0: c477 a53c 35e2 83bd 77ef d3bb ecc0 5ebd
000000d0: e661 853b 39b8 9c3b 97ae 073d c004 0fbd
000000e0: 2c6d 8f3b 7e11 1fbd c6ff c53c daf0 9c3c
000000f0: 885c c6bc 9196 dd3c c819 913b 00d9 133d
00000100: 7f3d b7bc d5f6 6f3c 5ab2 263c 2723 d0bc
00000110: d456 fa3c fec1 04bd ecb8 ab3d 3a34 a13d
00000120: 3500 273c a6d3 373d af39 ce3b bc7c 88bc
00000130: 0a01 24bd 53e9 f238 2b03 a5bd 5d66 c93c
00000140: 43ee 39bc 0b93 e83c df5c b0bc ea6a 53bc
00000150: f339 13bc 975a 6ebc 9f90 873c bb3f 2ebd
00000160: a883 333d d714 a03d 947c 8a3b 1bdc 3b3d
00000170: 85d9 293d f388 42bb e3d8 d0ba a58b 5fbc
00000180: ac04 593c 3b08 f9b8 a750 56bd a076 5a3d
00000190: 8319 febc 58db 353d 4ea7 71bd 22e1 403d
000001a0: b0ff 16bd 471a 98bc 8d62 38bd 1680 ec3c
000001b0: 1045 c33d 2517 b4bc 3ffd ae3d 4395 0e3d
000001c0: edda cabc df10 4f3d ea52 0abd 4250 c93c
000001d0: e599 a93c 1f4a 95bc b5f5 3f3c f15b 153c

fc2.weight f4 [84, 120]
0.093731225 0.06993391 0.04452038 0.082520485 -0.022241136 -0.077358894 0.061195448 -0.03826617
0.054892562 -0.094562285 -0.06135291 0.022935877 0.010002372 0.045976497 0.062321767 -0.057342798
-0.040172223 0.009152226 -0.0064700353 0.03101124 -0.04320007 -0.019788092 0.012744417 -0.013364082
0.017982334 -0.054340642 0.025974529 -0.058129285 0.0010175598 0.09042392 -0.023970027 0.073838264
-0.042660337 0.010175631 -0.06468814 -0.036655758 -0.01717152 0.08921498 -0.017538428 -0.058607105
0.07366592 -0.025290113 0.08918473 -0.025370972 0.027261306 0.07366577 -0.08821952 -0.010645209
0.07158942 0.09503873 0.073419556 -0.052854273 0.07500533 -0.009831508 0.082205236 -0.07305156
0.037461795 -0.0037381186 -0.0044888323 0.08977541 0.07402798 0.0019607428 0.06162092 -0.057771772
-0.00623163 -0.040702306 -0.032075077 0.022045443 0.043162648 0.039000183 0.097383276 0.030204156
-0.07999438 -0.065821595 -0.0081971735 0.084594816 0.076246604 0.10528256 -0.020643739 -0.009112924
0.014845061 0.085899375 -0.022765039 0.040539104 0.04755982 -0.051301803 0.05617932 0.04603328
0.014808318 0.06096802 -0.086700186 -0.046009757 0.009917081 0.022791348 0.011987743 -0.028696878
-0.0006547234 0.07749717 0.047496185 -0.059492514 -0.07549269 0.044026732 0.08582811 0.0822922
-0.03062642 0.014791514 0.042850964 0.009860617 -0.038209364 -0.0037445147 0.08880799 -0.07291199
0.03714344 -0.012867151 0.10422826 -0.014369507 0.06472692 0.052849457 -0.071869165 0.07831875
-0.065044455 -0.019527461 0.024653655 -0.10074253 0.07493618 0.12627393 0.03909426 0.03076443
0.115734085 0.07526657 -0.055024624 0.109031826 0.10495838 -0.073677205 -0.08339853 0.113573164
-0.03147839 0.002120665 0.077637345 -0.06743665 0.12892088 0.08275567 0.0038548685 0.0062959436
0.018881278 0.082265705 -0.06724312 -0.033937454 0.04387421 -0.07925224 -0.086031966 -0.051554177
-0.045969833 0.007938335 0.06257306 0.010089437 -0.09046793 -0.017781053 0.03674289 0.11877558
-0.027762175 0.01955377 -0.012576908 -0.06966251 0.043025315 -0.053994983 0.06719589 0.060082413
-0.09352084 -0.00013408215 0.00021160013 -0.038459983 0.048853133 0.025502477 0.067793556 -0.0038476621
0.08748958 -0.08162349 0.034241974 -0.07349741 -0.037528824 0.0104028415 0.07352949 -0.050832033
-0.017157387 0.047845367 -0.074650005 -0.018204262 -0.07739674 0.036644466 -0.072115175 0.00091073185
-0.07042338 0.07218079 -0.006870046 -0.038122073 -0.06002262 0.01262474 -0.08247778 -0.03915015
0.004485567 0.03993202 -0.081952766 -0.019295648 0.089253135 0.0016181321 -0.08423901 0.05661652
-0.07367378 0.07033354 0.0338376 0.073699616 0.082933605 -9.496162e-05 0.09825681 -0.06716297
-0.028098987 0.099174045 -0.07356612 -0.09568572 -0.073916815 0.06390222 -0.03288547 -0.09289382
0.0314056 -0.029629644 0.0066363844 0.06663618 0.10226632 0.09124731 -0.084606536 0.013477009
-0.06437304 -0.018486647 0.020785917 0.052314848 -0.030392611 -0.023529964 0.093675554 -0.009018359
0.01816648 0.051651813 -0.00015049941 -0.08311752 0.062741704 -0.060321037 -0.05916768 0.08468717
-0.059122704 -0.036882784 -0.06576864 0.06529241 0.022199677 0.0045827986 -0.04231235 -0.045104045
00000000: 28f6 bf3d 8339 8f3d 015b 363d 8000 a93d
00000010: 0b33 b6bc 576e 9ebd 14a8 7a3d fdbc 1cbd
00000020: 06d7 603d dfa9 c1bd 304d 7bbd 05e4 bb3c
00000030: fde0 233c da51 3c3d 1c45 7f3d 48e0 6abd
00000040: a18b 24bd 38f3 153c 9702 d4bb 490b fe3c
00000050: 8ef2 30bd a31a a2bc f6cd 503c 06f5 5abc
00000060: b04f 933c 4b94 5ebd 89c8 d43c f918 6ebd
00000070: a45f 853a 2d30 b93d ca5c c4bc 8438 973d
00000080: 9bbc 2ebd b1b7 263c 377b 84bd 5924 16bd
00000090: 4aab 8cbc 58b6 b63d c0ac 8fbc 010e 70bd
000000a0: 28de 963d 362d cfbc 7ca6 b63d c9d6 cfbc
000000b0: 1a53 df3c 14de 963d 70ac b4bd 3e69 2ebc
000000c0: 799d 923d aaa3 c23d fe5c 963d b97d 58bd
000000d0: 659c 993d 5514 21bc 385b a83d 0e9c 95bd
000000e0: 8a71 193d 39fb 74bb 0e17 93bb 2cdc b73d
000000f0: fb9b 973d ce7f 003b 3866 7c3d 18a2 6cbd
00000100: b432 ccbb 76b7 26bd 2861 03bd a598 b43c
00000110: 51cb 303d a8be 1f3d e270 c73d b56e f73c
00000120: 18d4 a3bd 79cd 86bd 704d 06bc 0c40 ad3d
00000130: 2e27 9c3d 629e d73d 0f1d a9bc 604e 15bc
00000140: b338 733c 03ec af3d bf7d babc 550c 263d
00000150: 16ce 423d d721 52bd 491c 663d 658d 3c3d
00000160: 969e 723c 9ab9 793d de8f b1bd ba74 3cbd
00000170: 417b 223c ecb4 ba3c 3d68 443c b715 ebbc
00000180: bea1 2bba d6b6 9e3d 5c8b 423d 6cae 73bd
00000190: e99b 9abd 6055 343d a6c6 af3d d088 a83d
000001a0: 42e4 fabc 1b58 723c 7e84 2f3d 6d8e 213c
000001b0: 6c81 1cbd 8866 75bb f7e0 b53d e252 95bd
000001c0: b823 183d bed0 52bc a075 d53d 156e 6bbc
000001d0: 8c8f 843d ac78 583d 2430 93bd 9565 a03d
000001e0: 0736 85bd 0ef8 9fbc 76f6 c93c 1952 cebd
000001f0: 2478 993d f44d 013e 4e21 203d b005 fc3c
00000200: fe05 ed3d 5c25 9a3d 8061 61bd 144c df3d
00000210: 6bf4 d63d 13e4 96bd d9cc aabd 0c99 e83d
00000220: 7cef 00bd dbfa 0a3b 5400 9f3d 3a1c 8abd
00000230: d603 043e ce7b a93d f6a1 7c3b 344e ce3b
00000240: e9ac 9a3c ec7a a83d c3b6 89bd 0002 0bbd
00000250: 72b5 333d 004f a2bd 8731 b0bd 792a 53bd
00000260: dd4a 3cbd ca0f 023c 4e26 803d 2a4e 253c
00000270: 4047 b9bd 92a9 91bc b67f 163d 9c40 f33d
00000280: 806d e3bc 3a2f a03c 600f 4ebc 38ab 8ebd
00000290: 503b 303d d829 5dbd 009e 893d fa18 763d
000002a0: db87 bfbd 6798 0cb9 fae0 5d39 3788 1dbd
000002b0: 391a 483d 92ea d03c 59d7 8a3d 0f29 7cbb
000002c0: bd2d b33d 372a a7bd 5041 0c3d cf85 96bd
000002d0: d3b7 19bd ae70 2a3c a196 963d 4035 50bd
000002e0: a68d 8cbc 81f9 433d 1ae2 98bd 1b21 95bc
000002f0: 2f82 9ebd 8218 163d 1fb1 93bd 2ebe 6e3a
00000300: 223a 90bd 86d3 933d 1f1e e1bb e425 1cbd
00000310: 47da 75bd ffd7 4e3c 1cea a8bd e85b 20bd
00000320: aafb 923b c28f 233d dad6 a7bd e811 9ebc
00000330: 59ca b63d 8117 d43a 8185 acbd b9e6 673d
00000340: 47e2 96bd 080b 903d 4c99 0a3d d3ef 963d
00000350: 18d9 a93d 2226 c7b8 de3a c93d bd8c 89bd
00000360: d92f e6bc c31b cb3d d5a9 96bd e0f6 c3bd
00000370: b361 97bd 2bdf 823d eab2 06bd 1d3f bebd
00000380: 29a3 003d deb9 f2bc 0776 d93b 8d78 883d
00000390: 0171 d13d dfdf ba3d 3146 adbd acce 5c3c
000003a0: 03d6 83bd 4f71 97bc 3a47 aa3c 1848 563d
000003b0: edf9 f8bc e9c1 c0bc f8d8 bf3d bdc1 13bc
000003c0: dfd1 943c da90 533d 61cf 1db9 8539 aabd
000003d0: b97e 803d 3113 77bd cf59 72bd 7870 ad3d
000003e0: a62a 72bd 6712 17bd b5b1 86bd 07b8 853d
000003f0: 19dc b53c 4d2b 963b b74f 2dbd 05bf 38bd

fc2.bias f4 [84]
0.026287224 0.0867955 0.02021953 -0.029420888 -0.039851043 -0.04154606 0.037486 -0.011292666
0.023549488 -0.03467608 -0.008334892 -0.052230667 -0.05095469 0.032172807 0.0094715385 0.04608009
0.1247369 0.05606403 -0.014050439 0.04880092 0.07157795 -0.024641821 -0.035926882 0.015170781
-0.0524312 -0.06929443 0.026976366 0.05501969 0.021325016 -0.058867045 0.09769214 0.047828957
-0.035409924 0.0034215685 0.081381015 0.10717996 -0.02422251 0.0064713843 -0.022202155 -0.07771714
0.0030954774 0.047761083 0.029457375 0.0030069717 0.01994229 -0.06281836 0.014839683 0.014638296
0.011401958 0.032471616 -0.084637076 0.008317232 -0.0051450212 0.056027524 -0.06842168 0.046523143
-0.071110606 0.08830597 -0.057178847 -0.09785072 0.06984934 -0.046196178 0.07195158 0.037201844
0.10433146 0.12007346 0.0021956752 0.12615056 -0.065629125 0.012979868 0.03184323 -0.075014606
0.109478585 0.10144888 0.008989507 -0.06143208 -0.07922122 0.08884981 0.09424945 0.0049893265
-0.06786887 -0.046691 -0.030420765 -0.03687388
00000000: 4e58 d73c d7c1 b13d 6ea3 a53c 1304 f1bc
00000010: d93a 23bd 342c 2abd ec8a 193d e004 39bc
00000020: dbea c03c 8108 0ebd 128f 08bc d3ef 55bd
00000030: ddb5 50bd a2c7 033d 832e 1b3c 7abe 3c3d
00000040: 0f76 ff3d 65a3 653d d033 66bc 79e3 473d
00000050: 7697 923d a5dd c9bc 1128 13bd de8e 783c
00000060: 19c2 56bd 3dea 8dbd 8afd dc3c 545c 613d
00000070: cdb1 ae3c 921e 71bd d112 c83d 4ce8 433d
00000080: ff09 11bd 653c 603b 17ab a63d 2b81 db3d
00000090: 496e c6bc e80d d43b 4be1 b5bc 2a2a 9fbd
000000a0: 7edd 4a3b 20a1 433d 9850 f13c 9d10 453b
000000b0: 035e a33c eaa6 80bd 2422 733c 77d5 6f3c
000000c0: 47cf 3a3c f500 053d 3456 adbd 0045 083c
000000d0: 9197 a8bb 1e7d 653d aa20 8cbd 0d8f 3e3d
000000e0: 70a2 91bd c3d9 b43d 5e34 6abd f565 c8bd
000000f0: 2c0d 8f3d 3438 3dbd 5a5b 933d f660 183d
00000100: bcab d53d 13e9 f53d 51e5 0f3b 9d2d 013e
00000110: 9068 86bd 83a9 543c 0c6e 023d 42a1 99bd
00000120: 4f36 e03d 6ec4 cf3d ba48 133c 34a0 7bbd
00000130: bc3e a2bd e4f6 b53d db05 c13d 817d a33b
00000140: d6fe 8abd 103f 3fbd f834 f9bc 1109 17bd

fc3.weight f4 [10, 84]
-0.048426963 0.06016923 -0.03697071 -0.11464631 0.1077891 0.082875945 -0.06963437 -0.013365413
-0.097882055 -0.0949174 0.07838396 0.11229955 -0.09966295 0.098714866 -0.11820285 -0.09040906
-0.041643698 -0.074781135 0.02951902 -0.0727158 -0.12111475 0.021729384 0.061667245 -0.0015246897
-0.04652046 -0.102295734 -0.04147888 0.02091754 -0.011404714 0.08389865 -0.00206158 0.01277175
-0.020587714 -0.03656473 0.06568027 0.008299727 0.04212663 0.08135298 -0.04307783 0.081435345
-0.05886769 -0.10524548 0.067706734 -0.020775536 -0.071607366 0.04295879 -0.028362637 -0.0954427
0.0892828 -0.15256828 -0.07163909 -0.13760768 -0.13330641 -0.13990979 -0.056112725 -0.05290509
0.038782023 -0.1226542 0.021626798 0.07206872 -0.019636152 -0.11824835 0.078933425 -0.0074825226
-0.11638278 -0.08554212 0.035812795 0.052042443 0.0003819028 -0.13955939 -0.16603848 -0.09039316
-0.1495402 -0.065511845 -0.10335571 0.060824983 -0.011312041 -0.08035736 -0.14303237 -0.051081892
-0.049132213 -0.12924972 -0.04463286 -0.043924246 -0.13985243 -0.0015946771 -0.069263145 -0.03841235
-0.14150646 0.025499875 0.0648742 0.018126067 -0.060714718 -0.035164732 0.030475501 -0.087040864
-0.120584786 0.08220105 -0.01095734 -0.15444694 -0.0027157571 0.086006515 -0.079219684 0.0044447607
0.069798194 0.059388373 -0.0010303251 0.04209679 -0.14805555 -0.01332732 -0.106254384 -0.062099315
-0.0143977525 -0.1172089 0.012283231 -0.011615019 -0.0016668033 -0.043018106 0.022760428 -0.122379996
0.08967964 0.014800943 0.010638415 0.068516575 0.07884042 -0.007822709 -0.13964225 0.039662182
-0.027024878 -0.030702263 -0.073966935 0.008923648 -0.035051517 -0.080762826 -0.0019132122 -0.07213475
0.026933271 0.0058375155 -0.08791397 -0.0015070457 0.07310028 -0.14573306 -0.00016540689 -0.028954783
-0.12485022 0.05058935 0.014416652 0.08550519 -0.09426225 -0.0130396485 0.04013591 -0.16713051
0.032004517 0.057857193 0.060802713 -0.050163627 -0.16270387 -0.09972065 -0.06490358 -0.118319124
-0.07964606 -0.13801235 0.01740396 -0.007155499 -0.119262755 -0.012113966 -0.015724897 0.10512343
0.018166013 0.050748844 -0.084454514 -0.081296355 0.039006863 -0.08021988 -0.10554148 0.024065869
0.05122695 -0.03412161 -0.0006559841 0.046325084 -0.03257028 -0.01059007 -0.068885446 -0.029794455
0.044637498 0.06554764 -0.01670118 -0.08874651 0.0088056065 -0.048040483 0.10425993 -0.030460171
0.06972454 -0.10948418 -0.14660588 -0.13825306 -0.16969812 0.041179273 -0.01338497 0.06443188
-0.09359329 0.054041747 -0.10913679 -0.008535491 0.04181491 -0.05575378 0.039096624 0.085301
0.06724797 -0.0010641976 -0.07649351 0.02857733 -0.1032149 -0.009826496 -0.021541137 -0.02424137
0.043495007 -0.12539597 -0.03164839 -0.043283336 -0.03844673 -0.081831165 -0.09911887 0.05019653
-0.045266293 -0.10562367 0.049123622 -0.040582165 0.046893973 -0.08143645 -0.010129749 0.0437483
-0.043685958 -0.055333894 0.020821808 0.07836202 -0.051791325 -0.056714002 0.065364 0.045622207
-0.109562844 -0.07169309 -0.12182704 -0.091934636 0.10101822 -0.10301933 0.033451304 -0.00046883422
-0.16219687 -0.03286046 0.0685058 -0.091173075 0.03277442 -0.10594352 0.09993872 -0.045923248
00000000: 5a5b 46bd 0374 763d 996e 17bd afcb eabd
00000010: 88c0 dc3d ddba a93d 779c 8ebd 9bfa 5abc
00000020: 6376 c8bd 0e64 c2bd c587 a03d 4efd e53d
00000030: 171c ccbd 052b ca3d 5614 f2bd 6328 b9bd
00000040: 9592 2abd da26 99bd dfd1 f13c 05ec 94bd
00000050: 030b f8bd d201 b23c cb96 7c3d 19d8 c7ba
00000060: 3d8c 3ebd 6d80 d1bd c2e5 29bd 435b ab3c
00000070: d6da 3abc 0ed3 ab3d 931b 07bb 9a40 513c
00000080: 91a7 a8bc e6c4 15bd 6183 863d 94fb 073c
00000090: f98c 2c3d 649c a63d 6172 30bd 93c7 a63d
000000a0: 3f1f 71bd f18a d7bd d4a9 8a3d 7531 aabc
000000b0: e2a6 92bd 8ef5 2f3d c358 e8bc 7677 c3bd
000000c0: e7d9 b63d dc3a 1cbe 84b7 92bd 07e9 0cbe
000000d0: 7a81 08be 8344 0fbe 75d6 65bd 02b3 58bd
000000e0: e6d9 1e3d 2032 fbbd af2a b13c c498 933d
000000f0: ffdb a0bc 312c f2bd d9a7 a13d f32f f5bb
00000100: 185a eebd b530 afbd 70b0 123d 752a 553d
00000110: 203a c839 a8e8 0ebe fe05 2abe 0d20 b9bd
00000120: 1121 19be 132b 86bd 29ac d3bd 9e23 793d
00000130: 2456 39bc 6692 a4bd 1477 12be 3f3b 51bd
00000140: dc3e 49bd 0a5a 04be f2d0 36bd e9e9 33bd
00000150: 7a35 0fbe 7c04 d1ba d6d9 8dbd 4556 1dbd
00000160: 12e7 10be 1de5 d03c c4dc 843d 1e7d 943c
00000170: ffaf 78bd e508 10bd c2a7 f93c 7b42 b2bd
00000180: 28f5 f6bd 0659 a83d 6a86 33bc 5727 1ebe
00000190: d8fa 31bb 2f24 b03d ee3d a2bd 5ba5 913b
000001a0: 5bf2 8e3d 3941 733d f90b 87ba af6d 2c3d
000001b0: e09b 17be d55a 5abc e69b d9bd da5b 7ebd
000001c0: 8de4 6bbc 380b f0bd 9b3f 493c ec4c 3ebc
000001d0: a378 daba c133 30bd 1474 ba3c 5da2 fabd
000001e0: f6a9 b73d a87f 723c bf4c 2e3c 6b52 8c3d
000001f0: 1677 a13d d22a 00bc 61fe 0ebe d074 223d
00000200: 4763 ddbc 5083 fbbc fa7b 97bd 7e34 123c
00000210: 2e92 0fbd fb66 a5bd c0c4 faba 62bb 93bd
00000220: 2aa3 dc3c a148 bf3b 3d0c b4bd 1088 c5ba
00000230: 99b5 953d 0c3b 15be 1371 2db9 9532 edbc
00000240: 79b1 ffbd c736 4f3d d233 6c3c 581d af3d
00000250: 910c c1bd 40a4 55bc 8d65 243d 4324 2bbe
00000260: 2b17 033d aafb 6c3d 440c 793d 6078 4dbd
00000270: d89b 26be 573a ccbd 2bec 84bd 4c51 f2bd
00000280: 791d a3bd 1c53 0dbe c092 8e3c ad78 eabb
00000290: 0840 f4bd a879 46bc 80d1 80bc f44a d73d
000002a0: e4d0 943c 05de 4f3d 7df6 acbd b47e a6bd
000002b0: a9c5 1f3d 524a a4bd 2226 d8bd c925 c53c
000002c0: 5ad3 513d 1ac3 0bbd 59f6 2bba 5fbf 3d3d
000002d0: 6a68 05bd f981 2dbc d013 8dbd 8013 f4bc
000002e0: cfd5 363d d73d 863d ead0 88bc bbc0 b5bd
000002f0: 6445 103c 19c6 44bd 3b86 d53d 9c87 f9bc
00000300: bdcb 8e3d 3e39 e0bd da1f 16be 3692 0dbe
00000310: 58c5 2dbe 99ab 283d a24c 5bbc ddf4 833d
00000320: d7ad bfbd e15a 5d3d 1c83 dfbd 72d8 0bbc
00000330: 1c46 2b3d 135e 64bd c823 203d 4ab2 ae3d
00000340: 4eb9 893d 8c7c 8bba a1a8 9cbd 011b ea3c
00000350: 5562 d3bd 50ff 20bc 0a77 b0bc d695 c6bc
00000360: d227 323d cd67 00be bea1 01bd de49 31bd
00000370: 517a 1dbd 1997 a7bd d6fe cabd e09a 4d3d
00000380: 2669 39bd 3951 d8bd da35 493d 7c39 26bd
00000390: e513 403d 27c8 a6bd 3ff7 25bc 6b31 333d
000003a0: 0cf0 32bd cba5 62bd 7f92 aa3c 447c a03d
000003b0: 2423 54bd f14c 68bd 90dd 853d 5ade 3a3d
000003c0: 7c62 e0bd d4d3 92bd 7580 f9bd 3a48 bcbd
000003d0: a4e2 ce3d ccfb d2bd 3c04 093d ddcd f5b9
000003e0: f016 26be b198 06bd c54c 8c3d f3b8 babd
000003f0: 783e 063d ebf8 d8bd acac cc3d 041a 3cbd

fc3.bias f4 [10]
0.030590244 -0.1430806 0.047407847 -0.13081402 -0.0067831473 -0.0823318 0.036512874 -0.10638536
-0.0995102 -0.044086307
00000000: 6498 fa3c b983 12be bb2e 423d 1cf4 05be
00000010: 2a45 debb 939d a8bd 868e 153d 91e0 d9bd
00000020: 01cc cbbd d893 34bd
