Models/03-04-2023-14-34-55/model_CNN_SGD.pth (torch, 250951 bytes, 10 tensors)

conv1.weight f4 [6, 3, 5, 5]
0	0x3e89c961	0.26911452
1	0x3e805472	0.25064427
2	0x3e5d7502	0.21626666
3	0x3e923856	0.28558606
4	0x3f082ee5	0.53196555
5	0xbdb64f40	-0.089018345
6	0xbe27f226	-0.16400966
7	0xbe5f9ef5	-0.21837981
8	0x3d936744	0.07197431
9	0x3e2e6c34	0.17033464
10	0xbe5a68ed	-0.21329089
11	0xbee9f579	-0.45695093
12	0xbecefc91	-0.40427068
13	0xbd94c93a	-0.072649434
14	0x3eb88912	0.36042076
15	0xbe8889d8	-0.26667666
16	0xbed1ca74	-0.40974772
17	0xbeeb7230	-0.45985556
18	0xbd19a6db	-0.03751264
19	0x3e52b172	0.20575503
20	0xbe4b248e	-0.19838163
21	0xbedb624a	-0.42848426
22	0xbeb61347	-0.35561582
23	0xbdc249c8	-0.09486729
24	0x3eb3afbe	0.35095018
25	0xbea5710a	-0.32312804
26	0xbe496ac2	-0.19669631
27	0xbc3b662f	-0.011437937
28	0x3d110710	0.035407126
29	0xbec0af1d	-0.376336
30	0xbec29fde	-0.38012594
31	0x3e06f23d	0.13178344
32	0x3e63ca73	0.22245197
33	0x3ddebece	0.10876237
34	0xbeef94ca	-0.46793205
35	0xbd4a1acb	-0.049341958
36	0x3e7e9d0d	0.24864598
37	0x3e0583fd	0.13038631
38	0xbd5390a3	-0.05165161
39	0xbe418bca	-0.18900982
40	0x3cc47bb8	0.023984775
41	0x3c546e81	0.012965799
42	0x3dc79811	0.09745801
43	0xbcbb2372	-0.02284405
44	0xbeb81ab2	-0.35957867
45	0xba2ae866	-0.00065196154
46	0x3e3cba9e	0.18430564
47	0xbd86d080	-0.06582737
48	0xbe0e7b09	-0.13914122
49	0xbcc405b7	-0.023928506
50	0xbebb3191	-0.36561254
51	0x3e41b360	0.18916082
52	0x3f007652	0.5018054
53	0x3e51975c	0.20467895
54	0xbedd6c26	-0.43246573
55	0xbe39ffa4	-0.18163925
56	0x3f19c65f	0.60068315
57	0x3f4223bd	0.7583578
58	0x3edf08fc	0.43561542
59	0xbeb574c5	-0.3544065
60	0x3dd6b2e5	0.1048334
61	0x3f2edfff	0.6831054
62	0x3f1e6654	0.6187489
63	0x3e91e9a9	0.2849858
64	0xbdf41a8d	-0.11919127
65	0xbc24b810	-0.01005365
66	0x3f055578	0.5208354
67	0x3f172d2e	0.59053314
68	0x3ecaef05	0.39635482
69	0xbda598a8	-0.080857575
70	0xbd02bad9	-0.031916473
71	0x3e9bcd16	0.30429906
72	0x3e3b31d1	0.18280722
73	0xbd5af5a2	-0.05345691
74	0xbeae57d7	-0.3405139
75	0xbec2fffd	-0.3808593
76	0xbe052d38	-0.13005531
77	0x3f3c153f	0.7346992
78	0xbde4db97	-0.11174696
79	0xbea17abf	-0.3153896
80	0xbe8e544f	-0.27798697
81	0x3fae1a8f	1.3601855
82	0xbdc81d86	-0.09771256
83	0xbf82ebf2	-1.0228255
84	0x3d0498a2	0.032372124
85	0x3f400303	0.75004596
86	0x3d8068b7	0.06269973
87	0xbff4b1fc	-1.9116817
88	0xbe2df6aa	-0.16988626
89	0x3f31d72b	0.69468945
90	0xbe51dfc5	-0.20495518
91	0xbf93b87c	-1.1540675
92	0xbe19e220	-0.15027666
93	0x3fab85a6	1.3400161
94	0xbe07784b	-0.13229482
95	0x3dd9fcd4	0.10643926
96	0x3ea6f138	0.3260591
97	0x3f1b7bb0	0.6073561
98	0x3d74ba0f	0.05974775
99	0xbee0e265	-0.43922725
100	0x3e79eff2	0.24407938
101	0x3dcb3073	0.0992135
102	0x3f418734	0.7559693
103	0xbeabb717	-0.33538124
104	0xbec2fcb2	-0.38083416
105	0x3d899ef8	0.06719774
106	0x3f9b1541	1.2115861
107	0xbe8838ab	-0.26605734
108	0xbf9c411f	-1.2207373
109	0xbe02fce6	-0.12791786
110	0x3f7527bd	0.9576376
111	0xbe7c2083	-0.24621777
112	0xbfe93d78	-1.8221884
113	0x3dca50c1	0.09878684
114	0x3f5487f4	0.8301995
115	0xbe53b7d7	-0.20675598
116	0xbf942d2a	-1.1576283
117	0xbd955ce1	-0.07293106
118	0x3fbe6384	1.487412
119	0x3e330bdb	0.17484991
120	0xbe320bd5	-0.17387326
121	0xbde461ad	-0.11151443
122	0x3ed3ec67	0.41391298
123	0x3d755739	0.059897635
124	0xbef04159	-0.46924856
125	0xbe9cd49b	-0.30630955
126	0xbf031450	-0.5120287
127	0x3ea5880f	0.32330367
128	0xbe30bae9	-0.172588
129	0xbd880e89	-0.06643397
130	0xbe86dea4	-0.26341736
131	0x3f7eefe8	0.9958482
132	0xbc373098	-0.011181019
133	0xbf6d0ff2	-0.92602456
134	0x3e9ffb7b	0.31246552
135	0x3f4708fd	0.7774809
136	0xbe7b3333	-0.2453125
137	0xbfd995e3	-1.6998867
138	0xbd1d7633	-0.0384428
139	0x3f20ad5f	0.62764543
140	0xbebff47b	-0.3749121
141	0xbfa0af01	-1.2553407
142	0xbe056c84	-0.13029677
143	0x3fb6caa0	1.4280586
144	0x3d351ecd	0.044218827
145	0xbec1bdb7	-0.37840053
146	0x3ea2990b	0.31757388
147	0x3f556a81	0.8336564
148	0x3ea55e0e	0.3229832
149	0x3c45dddd	0.012076822
150	0x3dabd502	0.083902374
151	0x3e1e7fa9	0.15478386
152	0xbe54b1d3	-0.2077096
153	0x3e13e682	0.144434
154	0x3c8a5970	0.01688835
155	0x3e9c78d8	0.30560946
156	0xbddb4585	-0.10706619
157	0xbf1f1207	-0.6213688
158	0x3f148da5	0.5802863
159	0xbe96f00f	-0.29480025
160	0x3f359409	0.7092901
161	0xbeca6541	-0.39530376
162	0xbfa8a5e6	-1.3175628
163	0x3fb2dafc	1.3973079
164	0xbef32260	-0.47487164
165	0x3f131d59	0.57466656
166	0xbed2cacd	-0.4117035
167	0xbfbbbd6f	-1.4667186
168	0x3fa5e395	1.2960078
169	0xbe5e8e6a	-0.21734014
170	0x3f0641e1	0.52444273
171	0x3dbbd2df	0.0917108
172	0xbf8921dd	-1.0713459
173	0x3f0ed284	0.5578997
174	0x3dba892e	0.09108196
175	0xbe1c2d9e	-0.15251777
176	0xbe918740	-0.284235
177	0xbf1e75bd	-0.61898404
178	0x3e66ab66	0.22526321
179	0x3ec9dd67	0.3942673
180	0x3ed279e7	0.4110863
181	0xbedcc927	-0.43122217
182	0xbf735aa5	-0.9506019
183	0x3f4911e0	0.785429
184	0x3d8daa73	0.06917276
185	0x3f52743d	0.82208616
186	0xbf297217	-0.6618971
187	0xbfafaac2	-1.3723986
188	0x3fb88cf4	1.4418015
189	0xbe5f2c1a	-0.21794167
190	0x3f662973	0.89906996
191	0xbef3d4f1	-0.476234
192	0xbfc26099	-1.5185729
193	0x3fbb1a70	1.4617443
194	0xbe51a1b5	-0.20471843
195	0x3ef73371	0.48281434
196	0xbe8f2c65	-0.27963558
197	0xbfa6fe20	-1.3046303
198	0x3f3998f3	0.72499007
199	0xbdf8cc92	-0.12148394
200	0xbe7f56e7	-0.24935494
201	0x3e3ab989	0.18234839
202	0xbc748680	-0.014924645
203	0x3e83234e	0.25612873
204	0xbeeec5c4	-0.46635258
205	0x3d072af7	0.03299996
206	0xbe162fb4	-0.14666635
207	0xbe83a608	-0.2571261
208	0x3f6ff952	0.9373981
209	0xbf1a1bd8	-0.60198736
210	0x3ee46dc0	0.44614983
211	0xbe7555a6	-0.23958454
212	0xbf404cd7	-0.7511725
213	0x3fbfe393	1.4991325
214	0xbf360e94	-0.71115994
215	0x3f033b22	0.51262105
216	0xbe454061	-0.1926284
217	0xbf843516	-1.03287
218	0x3fd4e672	1.6632826
219	0xbf0b3a9c	-0.54386306
220	0x3df8c377	0.12146657
221	0x3d4e5c2c	0.05038087
222	0xbf58e051	-0.8471728
223	0x3f65398f	0.8954095
224	0xbecf3628	-0.40471005
225	0xbeb2dd39	-0.34934404
226	0xbf83d865	-1.0300413
227	0xbf25f3a4	-0.6482489
228	0xbd977ab2	-0.07396449
229	0x3d76a12c	0.0602123
230	0xbe2c447a	-0.16822997
231	0xbf4d2ae1	-0.80143553
232	0xbfad0765	-1.3517882
233	0xbfa1ba94	-1.2635064
234	0xbee11777	-0.43963215
235	0x3ccc1626	0.024912905
236	0x3d22279c	0.039588556
237	0xbeadb6ac	-0.3392843
238	0xbf215bf6	-0.63030946
239	0xbebbceb8	-0.3668115
240	0x3e7783f5	0.24171431
241	0x3ec40c33	0.38290557
242	0x3e6a2ee9	0.22869457
243	0x3e672c59	0.22575511
244	0x3e09a311	0.13441111
245	0x3ee56881	0.44806293
246	0x3e9882c4	0.29787266
247	0x3f256674	0.64609456
248	0x3f126b5b	0.5719506
249	0x3f31ffa4	0.695307
250	0x3e54e944	0.20792109
251	0xbec34d62	-0.38144976
252	0x3d9fa0e0	0.07794356
253	0x3ec294ce	0.38004154
254	0x3f0c9a6c	0.5492313
255	0x3e84bc08	0.25924706

conv1.bias f4 [6]
0	0x3edc95f9	0.4308317
1	0xbf1e3a0b	-0.61807317
2	0xbf14f5b0	-0.5818739
3	0xbe02e686	-0.1278325
4	0xbf61feb1	-0.88279253
5	0xbf5d4f38	-0.86449003

conv2.weight f4 [16, 6, 5, 5]
0	0xbe05c8e1	-0.1306491
1	0xbf049323	-0.5178701
2	0xbe91567b	-0.28386292
3	0xbeadcb13	-0.33943996
4	0xbbf9a705	-0.007618787
5	0x3c4b36e9	0.012403228
6	0xbce5d5a9	-0.028055983
7	0x3e8b5202	0.27211004
8	0x3e75fb82	0.24021724
9	0x3e8cc165	0.27491298
10	0x3e3c17e5	0.1836849
11	0x3ddda314	0.1082212
12	0x3edc48c0	0.43024254
13	0x3ede1ae5	0.43379894
14	0x3e333b62	0.17503121
15	0x3e537cc3	0.20653062
16	0xbe20b8d9	-0.15695514
17	0x3e5817b4	0.21102792
18	0xbc0d9e97	-0.008643768
19	0xbe8b2c3e	-0.27182192
20	0x3e454b31	0.19266964
21	0xbeab6db6	-0.3348214
22	0xbeabedaf	-0.33579776
23	0xbf176085	-0.5913165
24	0xbf1950ac	-0.5988872
25	0xbee9a157	-0.45630905
26	0xbe66d1b5	-0.22540934
27	0x3d957e7b	0.07299515
28	0xbd8703c2	-0.065925136
29	0xbe9226b0	-0.2854514
30	0x3e35a629	0.17739166
31	0x3d5d10e4	0.053971186
32	0xbe4631c3	-0.1935492
33	0xbdd09fa7	-0.10186701
34	0xbdc2d7ca	-0.09513815
35	0x3e2be6fe	0.16787335
36	0x3e07c891	0.13260104
37	0xbe5de1bd	-0.21668144
38	0xbdc5b3a9	-0.09653408
39	0xbe9ba01c	-0.3039559
40	0xbeb49c0f	-0.35275313
41	0xbf1220e6	-0.5708145
42	0xbe8fbf65	-0.2807571
43	0x3dc12f62	0.09432866
44	0x3ed3991a	0.41327745
45	0xbeaafcf5	-0.33396116
46	0x3dbfdd40	0.09368372
47	0x3e10de7e	0.14147374
48	0xbbfb43f4	-0.0076680128
49	0xbdf7ba88	-0.12096125
50	0x3e57e7e2	0.2108455
51	0x3e51099e	0.20413825
52	0xbdea644a	-0.1144491
53	0x3f2c25c3	0.6724512
54	0xbda9b176	-0.08285801
55	0x3e2bae0a	0.1676561
56	0x3eb1923e	0.34681886
57	0x3dcd5397	0.10025709
58	0x3ede9bb3	0.43478164
59	0xbd54d917	-0.051964846
60	0xbe88fe42	-0.26756483
61	0x3e72afc3	0.2369986
62	0x3da0db80	0.07854366
63	0x3ebc947d	0.36832038
64	0xbe133cd1	-0.14378668
65	0xbebb1f00	-0.3654709
66	0xbdbb7e7e	-0.09154986
67	0xbe5de5d4	-0.21669704
68	0xbebc19e1	-0.36738494
69	0xbeffa83b	-0.49933037
70	0xbeb916b8	-0.36150146
71	0xbeccb67d	-0.39982978
72	0xbf1cb2a8	-0.6121011
73	0xbf392a05	-0.7232974
74	0xbf54537c	-0.8293989
75	0x3dda2642	0.10651828
76	0xbd9a385c	-0.07530281
77	0xbe5c2cbe	-0.21501443
78	0xbe27c55d	-0.16383882
79	0x3d4ba45c	0.049717292
80	0x3e4606ab	0.19338481
81	0x3e28a6d4	0.1646989
82	0xbdef6f14	-0.11691108
83	0x3cdbe405	0.026842127
84	0xbdeddf74	-0.11614886
85	0xbdde0957	-0.10841625
86	0xbde070fd	-0.10959051
87	0xbe31c68d	-0.17360897
88	0xbe2a5156	-0.1663259
89	0xbddd2ba7	-0.10799342
90	0x3db4c6e3	0.08826997
91	0xbe1d603c	-0.15368742
92	0xbf0777b1	-0.5291701
93	0xbee2576d	-0.44207326
94	0xbf04949e	-0.5178927
95	0x3dba884d	0.091080286
96	0x3d9bb56b	0.07602962
97	0x3d169b1f	0.03676903
98	0xbdeabeab	-0.11462148
99	0x3dbede43	0.09319737
100	0xbe84f16f	-0.2596545
101	0xbe81203d	-0.25219908
102	0xbe8f7664	-0.28020012
103	0xbe61f3c2	-0.22065642
104	0xbda66349	-0.08124406
105	0xbe86a604	-0.26298535
106	0xbd8368e8	-0.06416494
107	0xbe0eb3fd	-0.13935848
108	0xbe8b6411	-0.27224782
109	0xbe1d5830	-0.15365672
110	0x3ea9b7c8	0.33148026
111	0x3e15703b	0.14593594
112	0x3dd12275	0.1021165
113	0x3dcca1b7	0.09991782
114	0x3ed9e6ac	0.425588
115	0x3e8afb5f	0.27144906
116	0x3f198a4b	0.59976643
117	0x3f32c85f	0.6983699
118	0x3f1b0fe5	0.6057113
119	0x3edac15f	0.42725655
120	0x3f2a6941	0.66566855
121	0x3dc891ee	0.09793459
122	0xbec7a2d7	-0.38991424
123	0xbe9c29ce	-0.30500644
124	0x3e05154a	0.12996402
125	0xbe5c2bed	-0.21501131
126	0xbe4e8956	-0.20169577
127	0x3d9f34a2	0.07773711
128	0xbe9dafd1	-0.307982
129	0xbedacf4b	-0.42736277
130	0xbe803727	-0.25042078
131	0xbec55ccf	-0.3854737
132	0xbdd71d6b	-0.10503658
133	0xbe8966a7	-0.2683613
134	0xbe6aff58	-0.22948968
135	0xbc0653db	-0.008198704
136	0xbda0af54	-0.07845941
137	0x3d111202	0.035417564
138	0xbe943783	-0.28948602
139	0xbe6257f7	-0.22103868
140	0x3e1aa453	0.15101747
141	0x3daf4f44	0.085600406
142	0x3e4374ac	0.19087476
143	0xbdce87ea	-0.10084517
144	0x3d91c598	0.07117766
145	0xbe23f14c	-0.16010016
146	0xbc4a6645	-0.0123534845
147	0x3e42148c	0.1895315
148	0x3e5d4905	0.21609886
149	0x3ed55978	0.41669822
150	0x3e4a4c41	0.19755651
151	0x3dbdb894	0.09263721
152	0x3e034b4a	0.12821689
153	0x3e3099be	0.17246148
154	0x39c1e264	0.00036980503
155	0xbdcbf9cc	-0.09959754
156	0xbe1e69e0	-0.15470076
157	0xbea198d5	-0.31561914
158	0x3de58c74	0.1120843
159	0x3e223e67	0.15844117
160	0xbd351b87	-0.044215705
161	0xbebe0a6c	-0.37117326
162	0xbea36caa	-0.31918842
163	0xbd6eabf0	-0.05826944
164	0x3e23aac8	0.15983117
165	0x3e8baa14	0.27278197
166	0xbe375f06	-0.17907342
167	0xbd9dd2b9	-0.07706208
168	0x3e1376b4	0.1440075
169	0x3e94adbe	0.29038805
170	0x3ed216fd	0.41033164
171	0x3ec54079	0.3852575
172	0x3da5c6ef	0.08094584
173	0x3df5ed1d	0.120081164
174	0x3ed96695	0.42461076
175	0xbed0da48	-0.40791535
176	0xbecf3bc5	-0.40475288
177	0xbe02de05	-0.12780006
178	0xbcf40faf	-0.029792635
179	0xbaa238e5	-0.0012376575
180	0xbf48afa6	-0.7839302
181	0xbf15dd08	-0.5854039
182	0xbe53c32d	-0.20679922
183	0xbdc292cb	-0.09500655
184	0x3e8629b2	0.26203686
185	0xbf36c5e2	-0.71395695
186	0xbf1a5455	-0.6028493
187	0xbe9f3966	-0.3109848
188	0x3e23266d	0.15932627
189	0x3eda0eff	0.42589566
190	0xbedd99cd	-0.43281403
191	0xbedc2bdb	-0.4300221
192	0x3d5a7098	0.053330034
193	0x3e3086c8	0.17238915
194	0x3ef975f0	0.48722792
195	0x3e36687f	0.178133
196	0x3e25e7a5	0.16201647
197	0x3b7a5a5c	0.003820083
198	0xbc2f950f	-0.010716691
199	0xbe87cc4e	-0.2652306
200	0xbee317e8	-0.44354177
201	0xbf2cc387	-0.6748585
202	0xbe18dcc9	-0.14927973
203	0xbee0cb86	-0.43905276
204	0xbe9f009c	-0.31055152
205	0xbeb63941	-0.35590556
206	0xbf5a7598	-0.85335684
207	0xbf4017b2	-0.75036156
208	0xbf108e3d	-0.5646704
209	0xbe0dc534	-0.13844758
210	0xbe67e6eb	-0.22646682
211	0xbf6a5c40	-0.9154701
212	0xbf83c2e5	-1.0293852
213	0xbf0a5a57	-0.540441
214	0xbe5bf098	-0.21478498
215	0x3e3af950	0.18259168
216	0xbe84bccf	-0.259253
217	0xbf16f233	-0.58963317
218	0xbe8fadb4	-0.28062212
219	0x3b9c3a6b	0.004767706
220	0xbc33291b	-0.010935093
221	0x3e8574ef	0.26065776
222	0xbecb91a3	-0.3975955
223	0xbe9cae7f	-0.3060188
224	0xbea8f351	-0.32998136
225	0xbdbbac35	-0.09163705
226	0xbd6f6c50	-0.058452904
227	0xbdd1650c	-0.10224351
228	0x3d65b14c	0.056077287
229	0xbe43896f	-0.19095396
230	0x3e0b8c43	0.13627724
231	0xbdb523a5	-0.08844689
232	0x3de61366	0.11234169
233	0xbd83a6d8	-0.06428307
234	0xbe35e63a	-0.17763606
235	0x3f2f4ff0	0.6848135
236	0x3cf2640f	0.029588727
237	0xbd3ecc10	-0.046581328
238	0x3d6cd805	0.0578232
239	0xbc8af5fe	-0.016963001
240	0x3ee5c41c	0.44876182
241	0x3e200521	0.15626957
242	0xbebc904a	-0.36828834
243	0xbddea233	-0.10870781
244	0xbe2d774b	-0.16940038
245	0x3f278eb0	0.654521
246	0x3f3003c0	0.6875572
247	0x3e9c2af3	0.30501518
248	0xbc2be4ff	-0.010491609
249	0xbe8ec8a8	-0.27887464
250	0x3dbf7574	0.09348574
251	0x3b958986	0.004563513
252	0x3cf87524	0.030329295
253	0x3c55df69	0.013053753
254	0x3d7403f6	0.05957409
255	0x3decd676	0.11564343

conv2.bias f4 [16]
0	0x3f5b312a	0.85621893
1	0x3fdd23e4	1.7276578
2	0xbee4ad9d	-0.44663706
3	0xbfd0156e	-1.625654
4	0xbd795f42	-0.06088186
5	0x3ea1820a	0.31544524
6	0xc003d5a3	-2.0599144
7	0xbf4cb03f	-0.7995643
8	0xc001f1ed	-2.030391
9	0x3f536496	0.82575357
10	0x3f4f553a	0.8098942
11	0x403bb7ce	2.9330935
12	0x3f89b106	1.0757148
13	0x3dea3681	0.11436177
14	0xbf09ed3e	-0.5387763
15	0xbfe8eb9d	-1.8196903

fc1.weight f4 [120, 400]
0	0xbdf47329	-0.119360276
1	0xbdcf8162	-0.101321
2	0xbdcb77fd	-0.09934995
3	0x3dc25421	0.094887026
4	0x3dfc503e	0.123199925
5	0x3da91ddd	0.08257649
6	0x3b719125	0.0036860195
7	0x3db0b9ff	0.08629226
8	0x3e5dbee5	0.21654852
9	0x3dd4b74e	0.10386525
10	0xbd123d65	-0.03570308
11	0x3e158056	0.14599738
12	0xbe090980	-0.1338253
13	0xbd6cb56a	-0.057790197
14	0xbd32718d	-0.04356532
15	0xbddda6b3	-0.10822811
16	0x3e0af639	0.13570489
17	0x3cc0e96c	0.023548804
18	0x3e62aa43	0.22135262
19	0xbdf9b17e	-0.12192057
20	0xbd604514	-0.054753378
21	0x3d507d42	0.050900705
22	0x3e133362	0.1437507
23	0xbcf77604	-0.030207641
24	0xbde3d356	-0.111242935
25	0xbd7aef47	-0.06126335
26	0xbd910fa2	-0.0708306
27	0xbd3df75c	-0.04637848
28	0xbd1d5044	-0.038406625
29	0xbcfe4582	-0.031039003
30	0xbe205602	-0.1565781
31	0x3c8e8831	0.017398925
32	0xbd28d8fa	-0.04122255
33	0xbe504e80	-0.20342445
34	0xbb9286ae	-0.0044716215
35	0xbdf2f75f	-0.118635885
36	0xbd108571	-0.03528351
37	0xbd52101d	-0.051284898
38	0xbe2c5148	-0.16827881
39	0xbd71d372	-0.05903954
40	0x3e2a73d5	0.16645749
41	0xbc917103	-0.017754083
42	0x3da50945	0.08058409
43	0xbd24571c	-0.040122136
44	0xbe04efa3	-0.12982039
45	0x3e1e4a0c	0.15457934
46	0x3d852e00	0.065029144
47	0x3dfda2d0	0.1238457
48	0x3e4f32dc	0.20234245
49	0x3e664773	0.22488193
50	0xbd30908f	-0.04310661
51	0xbd90a315	-0.070623554
52	0x3e3c3e5a	0.1838316
53	0xbc14e625	-0.009088074
54	0x3e83d327	0.25747034
55	0xbdb613dc	-0.088905066
56	0xbe335cad	-0.17515822
57	0x3d7af680	0.061270237
58	0x3e7f5f90	0.24938798
59	0xbdfdd2e3	-0.12393739
60	0x3dc00781	0.09376431
61	0x3cf85782	0.030315164
62	0xbe1a12cb	-0.15046231
63	0xbe12e3bf	-0.1434469
64	0xbc3e9202	-0.011631491
65	0xbcd790cf	-0.026314167
66	0x3d1b2ec7	0.037886407
67	0xbe940f78	-0.28918052
68	0xbe8b5f03	-0.27220926
69	0x3e63de5d	0.22252794
70	0x3e0b4eb9	0.13604249
71	0xbe2de64f	-0.16982387
72	0xbcf21917	-0.02955298
73	0xbe470e51	-0.19439055
74	0xbc003deb	-0.007827262
75	0x3d843ae5	0.06456546
76	0x3e1928b9	0.1495694
77	0x3a44cfd0	0.0007507773
78	0xbba87c13	-0.005141744
79	0x3af8bc73	0.0018977061
80	0xbdefbca8	-0.11705905
81	0xbd82917d	-0.06375406
82	0xbe14560f	-0.14485954
83	0xbdd38b90	-0.10329354
84	0xbdc843f4	-0.09778586
85	0xbe57c2a7	-0.21070348
86	0x3d1f3174	0.03886552
87	0x3d67ffb8	0.056640357
88	0x3ced6a1b	0.02898126
89	0x3d007b6e	0.03136771
90	0x3db0ca2c	0.08632311
91	0x3d832ff1	0.064056285
92	0xbdd598ea	-0.10429557
93	0x3e7e886f	0.24856733
94	0xbdb9a986	-0.09065537
95	0x3e157750	0.14596295
96	0x3e1ed4d0	0.15510869
97	0x3de80fd4	0.11331144
98	0x3e4288a0	0.18997431
99	0x3e2b6f16	0.16741595
100	0xbe3f338e	-0.1867201
101	0x3e0e16b2	0.13875845
102	0x3eacebca	0.33773643
103	0x3ea775d8	0.32707095
104	0x3ec29343	0.38002977
105	0xbe9eac01	-0.30990604
106	0xbe03128b	-0.12800042
107	0x3b104b11	0.00220174
108	0xbc413b78	-0.011793964
109	0x3ccfdd90	0.025374204
110	0xbcc0db29	-0.023542004
111	0xbd2b45e3	-0.041814696
112	0xbd302409	-0.043003116
113	0x3bdca768	0.0067338236
114	0x3d9d6248	0.07684761
115	0xbe1a2dbb	-0.15056507
116	0xbcfbd0d5	-0.030739227
117	0x3dacc27c	0.084355325
118	0x3d634d01	0.05549336
119	0xbdf86001	-0.12127686
120	0xbd982984	-0.074297935
121	0x3dd87b6d	0.105704166
122	0x3e040dac	0.1289584
123	0x3e4a43d3	0.19752435
124	0xbdb20b9d	-0.08693621
125	0xbd834208	-0.06409079
126	0x3e033426	0.12812862
127	0xbdc7d96e	-0.09758268
128	0x3de75b40	0.112967014
129	0x3d63e6be	0.055639975
130	0xbe48bec3	-0.1960402
131	0xbe119fdb	-0.14221136
132	0xbd0ac8e6	-0.033882998
133	0xbd55542b	-0.052082222
134	0xbe6aa7ad	-0.22915526
135	0xbdcd7fd0	-0.10034144
136	0x3cc8cd14	0.024511851
137	0x3df5f9ab	0.12010511
138	0xbdc92ad9	-0.09822626
139	0x3c9fb8b7	0.019497259
140	0x3aab70d9	0.0013079896
141	0x3e093c1d	0.13401838
142	0x3ce69b37	0.028150184
143	0xbc02776f	-0.0079630455
144	0x3dc8933b	0.09793707
145	0xbcd1169f	-0.025523482
146	0x3dde89bf	0.10866117
147	0xbd84143d	-0.06449173
148	0xbd784477	-0.06061217
149	0xbd6ea7a3	-0.05826534
150	0xbe602992	-0.21890858
151	0xbdfdaa04	-0.123859435
152	0x3e37c4b9	0.17946137
153	0xbcb1bf0a	-0.02169754
154	0xbe244086	-0.16040239
155	0xbe6edf93	-0.23327474
156	0x3d91ad69	0.071131535
157	0x3d16f317	0.036852922
158	0xbcd85a3a	-0.02641021
159	0xbe3683df	-0.17823742
160	0xbe271804	-0.16317755
161	0xbebab797	-0.36468193
162	0x3e8c4213	0.2739416
163	0x3e2d0af2	0.16898707
164	0xbd3c7daa	-0.04601828
165	0xbd7eae83	-0.062178146
166	0x3c52a5a3	0.012856874
167	0x3e5c886d	0.21536417
168	0xbd97faff	-0.074209206
169	0xbe4dc068	-0.20092928
170	0xbc7788fc	-0.015108343
171	0xbd9fa170	-0.07794464
172	0xbe611051	-0.2197888
173	0xbc3b5eb8	-0.011436157
174	0x3df65da0	0.12029576
175	0xbe0d50c4	-0.13800341
176	0x3e3ab27c	0.18232149
177	0x3e703c9f	0.23460625
178	0x3e4fa61a	0.20278206
179	0xbd6b4bb6	-0.05744525
180	0xbd9688bc	-0.07350299
181	0xbe1afef0	-0.15136313
182	0xbe86e76f	-0.26348445
183	0xbd82b9cb	-0.063830934
184	0x3d9d5dfb	0.07683941
185	0xbe3aca53	-0.18241243
186	0xbe0c9393	-0.1372817
187	0xbdb1594d	-0.08659611
188	0xbe30ce51	-0.17266203
189	0xbe07e120	-0.13269472
190	0x3d8f7c28	0.07006103
191	0x3d30d885	0.04317524
192	0xbdfa6adf	-0.12227415
193	0xbdfa8b16	-0.1223356
194	0xbe828ee1	-0.25499633
195	0xbe103ce4	-0.14085728
196	0x3e4f4412	0.2024081
197	0xbd3e8347	-0.046511915
198	0xbd84b65c	-0.06480095
199	0xbe8361a3	-0.25660428
200	0xbde959d6	-0.11394088
201	0x3e2c82cf	0.16846775
202	0x3e938eea	0.28819972
203	0xbdf59d35	-0.119928755
204	0x3e0fbd8f	0.14037155
205	0xbe21ba08	-0.15793622
206	0xbeb6029c	-0.35548866
207	0xbebcb2cf	-0.3685517
208	0xbde21ad0	-0.1104027
209	0x3a9be603	0.001189411
210	0xbd60b527	-0.05486026
211	0xbcc2a352	-0.023759518
212	0xbdd64dd8	-0.10464066
213	0xbd4424a4	-0.047886506
214	0xbda7cb7b	-0.08193108
215	0x3e398a12	0.18119076
216	0xbc6ff825	-0.014646565
217	0xbcb84605	-0.022494325
218	0xbe19acf1	-0.15007378
219	0xbe126a54	-0.14298373
220	0xbe89325b	-0.2679623
221	0x3cb4ce5b	0.022071054
222	0xbde635fe	-0.11240767
223	0xbe1d5fb3	-0.15368538
224	0xbc2d4769	-0.010576108
225	0x3ea2efea	0.31823665
226	0xbcdd873c	-0.027042024
227	0x3d3e10ca	0.04640273
228	0xbdb2f38c	-0.08737859
229	0xbe847a79	-0.2587469
230	0x3d8d840f	0.06909954
231	0x3cb96713	0.022632157
232	0xbe998086	-0.29980868
233	0xbe86ddd5	-0.2634112
234	0xbea2e397	-0.31814262
235	0xbdccee32	-0.1000637
236	0xbd65d1ff	-0.05610847
237	0xbd3a389a	-0.045464136
238	0xbd667cda	-0.05627141
239	0xbeb480b3	-0.3525444
240	0x3e2ee801	0.1708069
241	0xbc8f78e6	-0.017513704
242	0xbe086088	-0.13318074
243	0xbdebeb43	-0.11519482
244	0xbe8edacb	-0.279013
245	0x3e679941	0.22617055
246	0x3db5507d	0.088532425
247	0xbe836f6f	-0.25670955
248	0xbdf60296	-0.12012212
249	0xbe320b7c	-0.17387193
250	0xbdacd5b8	-0.08439201
251	0xbd80a0e9	-0.06280691
252	0x3dda416b	0.10657009
253	0x3e5bfaf9	0.21482457
254	0x3d5a72cd	0.05333214
255	0xbe4f1400	-0.20222473

fc1.bias f4 [120]
0	0x3e3fbf29	0.18725266
1	0x3e88fe65	0.26756588
2	0x3edb1d95	0.42796007
3	0x3e01afb9	0.12664689
4	0xbcca944d	-0.024728918
5	0xbd798a51	-0.060922924
6	0x3b0ea80b	0.0021767642
7	0xbf19b5f4	-0.60043263
8	0xbe1d98ec	-0.15390366
9	0xbd72d85e	-0.059288375
10	0x3ca38b3d	0.019963855
11	0x3d588afa	0.052866913
12	0x3da82e4f	0.08211958
13	0xbdfb093d	-0.122576214
14	0xbdc2894d	-0.09498844
15	0x3e9f6c83	0.31137475
16	0x3db854c3	0.09000542
17	0xbd81f3ac	-0.06345305
18	0x3e906600	0.2820282
19	0x3e5ce337	0.2157105
20	0x3e5462fa	0.20740882
21	0xbc85130e	-0.016244438
22	0x3df9c3fd	0.12195585
23	0xbe8415c2	-0.2579785
24	0x3e18c386	0.14918336
25	0x3ed756d5	0.42058435
26	0x3e53e590	0.2069304
27	0xbdfdca54	-0.12392107
28	0x3c838f67	0.01605959
29	0x3db6c900	0.089250565
30	0xbd976d7f	-0.073939316
31	0xbc25dede	-0.010123936
32	0x3eb98907	0.36237356
33	0xbdc0fe5d	-0.09423516
34	0xbd2d35bd	-0.042287577
35	0x3eb1bae1	0.3471289
36	0xbe174c04	-0.14775091
37	0xbd14d037	-0.03633138
38	0x3d459caa	0.04824511
39	0xbd7708ed	-0.060311247
40	0x3eabcfc0	0.33556938
41	0xbde49baa	-0.11162503
42	0x3c90fad2	0.017697725
43	0x3e5a9d86	0.21349153
44	0x3ddfff0c	0.10937318
45	0xbcdd62a3	-0.027024573
46	0xbdfc8d22	-0.123316064
47	0x3eacb4e5	0.33731762
48	0x3e7683ba	0.24073687
49	0xbdd1a15c	-0.10235855
50	0xbc72d739	-0.014821821
51	0x3db4b738	0.08824009
52	0xbd24de27	-0.040250923
53	0xbdafec11	-0.08589948
54	0xbc18b3cc	-0.009320211
55	0xbd0f84f0	-0.03503889
56	0xbe2a1d90	-0.1661284
57	0xbd9c1d77	-0.076228075
58	0x3cb3b13f	0.021935103
59	0x3e855fcd	0.26049653
60	0xbd166cdf	-0.03672492
61	0x3d0a9e0e	0.03384214
62	0x3e3049a0	0.17215586
63	0xbe356886	-0.17715654
64	0xbd5172ce	-0.051134877
65	0xbc7f5a0d	-0.015585435
66	0x3e81bba5	0.25338474
67	0x3ea427a0	0.3206148
68	0x3efec852	0.49762207
69	0x3dbaf3dd	0.091285445
70	0xbed65a07	-0.4186556
71	0xbebe7d4d	-0.37204972
72	0x3dc34d6d	0.09536252
73	0xbdaa2ed8	-0.08309716
74	0x3d05d4ea	0.032673754
75	0x3e19c0b3	0.15014915
76	0x3d6e51ce	0.058183484
77	0xbd8cdfc9	-0.06878621
78	0xbebd1d8f	-0.36936614
79	0x3d33a1a5	0.043855328
80	0x3e4344f5	0.19069274
81	0xbdd32c74	-0.10311213
82	0xbe832d1a	-0.25620347
83	0x3d9490df	0.072541945
84	0xbdfb9933	-0.1228508
85	0x3efe93fb	0.49722275
86	0xbebb00a9	-0.3652394
87	0xbeb0564c	-0.3444084
88	0xbe2b9779	-0.16757001
89	0xbd16e7ea	-0.036842264
90	0xbe88f164	-0.26746666
91	0xbd26a36a	-0.040683188
92	0xbdae7302	-0.0851803
93	0x3e8d3375	0.2757832
94	0xbe8ac74e	-0.27105182
95	0xbd7784a2	-0.060429223
96	0xbdc88d92	-0.097926274
97	0x3dbce5ef	0.09223544
98	0xbb7be98f	-0.0038438772
99	0xbe5ab98b	-0.21359842
100	0x3e1017e3	0.14071612
101	0x3d96945e	0.073525175
102	0xbe805c44	-0.25070393
103	0xbc75c7d6	-0.015001258
104	0x3d31f9c3	0.043451082
105	0xbe923706	-0.28557605
106	0xbd34bbf8	-0.044124573
107	0x3ea6ea66	0.32600707
108	0xbd1c7fba	-0.038207747
109	0x3d3f7d40	0.046750307
110	0xbd87a8d8	-0.06624001
111	0x3df18e34	0.11794701
112	0x3e228692	0.15871647
113	0xbdcd17b1	-0.100142844
114	0x3e014ea5	0.12627657
115	0xbe374fc5	-0.17901523
116	0x3ea8b7e3	0.32952794
117	0xbd608f39	-0.054824088
118	0x3e1f200c	0.15539569
119	0x3e55ebdf	0.20890759

fc2.weight f4 [84, 120]
0	0x3d5f7563	0.054555308
1	0x3e8a599d	0.27021495
2	0xbdccefcb	-0.100066744
3	0xbe0d62f0	-0.13807273
4	0xbc7e7316	-0.015530368
5	0xbe2a6c17	-0.16642796
6	0xbe146a46	-0.14493665
7	0xbe878ede	-0.26476187
8	0xbe7fa72f	-0.24966119
9	0xbe0be67b	-0.1366214
10	0xbe6ea975	-0.2330683
11	0x3e3d16fc	0.18465799
12	0xbcf3a8ae	-0.029743519
13	0x3dad45c2	0.08460571
14	0x3de6024b	0.11230906
15	0x3dfd0bb3	0.12355747
16	0x3e139b16	0.1441463
17	0xbe335b8c	-0.17515391
18	0xbd774947	-0.060372617
19	0x3caac55a	0.020846058
20	0xbd335994	-0.0437866
21	0xbdbfd199	-0.093661495
22	0xbe446560	-0.19179296
23	0xbdd58995	-0.10426632
24	0xbd9477d6	-0.072494194
25	0xbe88ebc2	-0.2674237
26	0x3d907c42	0.0705495
27	0xbe02073f	-0.12698077
28	0xbe222063	-0.15832667
29	0xbdb9a9d4	-0.09065595
30	0x3df446dd	0.119275786
31	0x3d93949b	0.072060786
32	0xbe8f35f3	-0.27970847
33	0x3bc4feb5	0.0060118088
34	0xbd52aa63	-0.051432025
35	0xbd8aa92b	-0.067705475
36	0xbe3d9b15	-0.1851619
37	0xbe67bd0f	-0.22630714
38	0xbd9bbf22	-0.07604815
39	0x3d9652ae	0.07339989
40	0xbe346d45	-0.17619808
41	0x3d8ce533	0.06879654
42	0xbe5bb618	-0.21456182
43	0xbd233747	-0.03984764
44	0xbda9deb7	-0.082944326
45	0xbe1f12e9	-0.15534557
46	0xbe1d406a	-0.15356603
47	0x3dac07bb	0.08399912
48	0x3af73651	0.0018860792
49	0xbd258d8d	-0.040418196
50	0xbe12b250	-0.14325833
51	0x3e0561b7	0.13025557
52	0xbdee16c8	-0.11625439
53	0xbbd6b714	-0.0065525863
54	0xbc83ccd9	-0.01608889
55	0x3da593fc	0.080848664
56	0xbea5652d	-0.32303753
57	0x3cddb88f	0.027065543
58	0x3c866285	0.0164044
59	0x3ce05871	0.027385922
60	0x3e5966d8	0.21230638
61	0x3cf7e0ae	0.030258503
62	0xbd032040	-0.032013178
63	0xbdbd057c	-0.09229562
64	0x3e0e0a65	0.13871153
65	0xbd61dace	-0.05514031
66	0x3d7ab054	0.061203316
67	0xbe15fec9	-0.14647974
68	0xbd2e716b	-0.042588633
69	0xbe83e72d	-0.2576231
70	0x3e5199da	0.20468846
71	0x3de75b93	0.11296763
72	0xbe1013f1	-0.14070107
73	0xbeb3beba	-0.3510645
74	0xbdf8ba4c	-0.12144908
75	0xbe84a06d	-0.25903645
76	0x3da8e542	0.082468525
77	0xbd8b4d6d	-0.06801877
78	0xbeafe137	-0.34351513
79	0x3e1c28a6	0.15249881
80	0x3e6d54ff	0.23176955
81	0x3da6c4b4	0.08142987
82	0x3db94cbc	0.09047839
83	0xbe2f2e2a	-0.17107454
84	0x3e78fade	0.24314448
85	0x3e0eb98a	0.13937965
86	0xbe58f1f1	-0.21186043
87	0xbe1d9ef7	-0.15392672
88	0x3d5e6913	0.054299425
89	0xbe954c00	-0.29159546
90	0xbc9acb20	-0.018895686
91	0x3e23f1dc	0.16010231
92	0x3d5cc8c6	0.05390241
93	0xbd842f33	-0.06454315
94	0xbe75499c	-0.23953861
95	0xbe1500b0	-0.14551044
96	0x3dede140	0.11615229
97	0xbdf3afb3	-0.11898746
98	0xbe37208e	-0.17883512
99	0x3d37993c	0.04482387
100	0x3e593d3b	0.21214764
101	0xbe177fad	-0.14794798
102	0xbbd278e6	-0.0064231036
103	0x3e6bc34b	0.23023717
104	0xbe860881	-0.26178363
105	0x3dcb4d2d	0.099268295
106	0xbe41ba1f	-0.18918656
107	0xbd123d2d	-0.035702873
108	0x3d89ae77	0.0672273
109	0xbc547777	-0.012967936
110	0x3e3ad7f9	0.1824645
111	0xbe0b70e5	-0.13617285
112	0x3db39c95	0.087701
113	0xbd484b3c	-0.048899874
114	0xbdb92f84	-0.09042266
115	0x3db8c9a5	0.09022836
116	0x3de3faeb	0.11131843
117	0xbe7a29a5	-0.24429949
118	0x3cc57886	0.024105322
119	0x3c317f3f	0.0108335605
120	0xbda73fbd	-0.08166454
121	0xbd47058f	-0.048589285
122	0xbc481cb0	-0.012213871
123	0xbd8afd4c	-0.06786594
124	0x3dbaf131	0.09128035
125	0xbdfa13d8	-0.12210816
126	0x3dd25d71	0.10271729
127	0x3a0797ff	0.00051724905
128	0x3df5e490	0.120064855
129	0xbda953f1	-0.08267964
130	0xbc1b8ad1	-0.009493546
131	0xbdce3c93	-0.10070147
132	0xbdbbfa27	-0.09178572
133	0xbcbbf27d	-0.022942776
134	0xbdaa0be4	-0.08303049
135	0xbc36a1a2	-0.011146935
136	0xbdc6425e	-0.09680627
137	0xbe544154	-0.20728046
138	0xbe917307	-0.2840807
139	0x3b5bc2bd	0.003353282
140	0xbbc9af73	-0.0061549484
141	0xbe9758b8	-0.29559875
142	0x3e0ce405	0.13758858
143	0x3cae9a29	0.021313744
144	0xbe11f928	-0.14255202
145	0xbe8cac22	-0.27475077
146	0x3ceba8aa	0.028766949
147	0xbdb6d053	-0.089264534
148	0xbca5a445	-0.020219931
149	0xbdde4577	-0.10853093
150	0x3c9c8717	0.019107385
151	0x3dcfe292	0.10150637
152	0xbea03679	-0.3129156
153	0xbc86c1d5	-0.016449848
154	0xbbeaff8a	-0.007171576
155	0xbcb7715e	-0.022392925
156	0xbda68eed	-0.0813273
157	0xbe42c9cb	-0.1902229
158	0x3d009679	0.031393502
159	0x3d920980	0.07130718
160	0xbe092756	-0.13393912
161	0xbdf67349	-0.12033708
162	0x3e808266	0.25099486
163	0xbdab1fa6	-0.08355646
164	0x3c22ff7f	0.00994861
165	0x3cd90c85	0.026495228
166	0xbd4081e8	-0.04699889
167	0xbe483b78	-0.19553936
168	0xbe1df54b	-0.15425603
169	0xbdeb04bb	-0.11475512
170	0x3ea0788c	0.3134197
171	0x3da1295b	0.07869216
172	0x3d9711d2	0.07376446
173	0x3d4ba5ab	0.04971854
174	0x3e16e383	0.14735226
175	0xbda53ab3	-0.080678366
176	0xbe2882b0	-0.16456103
177	0xbd82544e	-0.06363736
178	0x3db29c5a	0.08721228
179	0xbe29731f	-0.16547821
180	0x3de6031e	0.11231063
181	0x3d940784	0.07227996
182	0xbe412f04	-0.18865591
183	0x3e0fe6e8	0.14052927
184	0x3e58223f	0.21106814
185	0xbdc75438	-0.0973286
186	0x3e080656	0.13283667
187	0xbe85eac6	-0.2615568
188	0xbe20f201	-0.15717317
189	0x3e54827d	0.20752902
190	0xbd671d2c	-0.056424305
191	0x3e2bfe2c	0.16796178
192	0xbe204f89	-0.1565534
193	0x3d5e09b5	0.054208476
194	0xbe0dd60f	-0.13851188
195	0xbe0acf3d	-0.13555618
196	0xbe8d3333	-0.27578124
197	0xbd660072	-0.05615277
198	0xbe40929c	-0.18805927
199	0x3cb9caca	0.022679705
200	0xbe15a9ff	-0.1461563
201	0xbd80c5b3	-0.06287708
202	0x3e331333	0.17487793
203	0x3da0b6ca	0.07847364
204	0x3d983119	0.0743124
205	0xbe010377	-0.12598978
206	0x3e1ec271	0.15503861
207	0xbe6a2cd2	-0.2286866
208	0x3d1ed94f	0.03878146
209	0xbe348082	-0.17627147
210	0x3dd5bdd5	0.10436598
211	0x3e28389b	0.16427843
212	0x3d5c1d7a	0.05373905
213	0xbe3da0c6	-0.18518361
214	0xbbe68427	-0.0070347968
215	0x3bd74205	0.0065691494
216	0xbdadd367	-0.084875874
217	0x3dbd7eaf	0.092526786
218	0xbcf85116	-0.030312102
219	0x3e4d4c28	0.20048583
220	0xbdd3b8d9	-0.10337991
221	0xbe89a14c	-0.26880872
222	0xbd06b08d	-0.032883216
223	0xbe01e789	-0.1268598
224	0xbdfaa498	-0.12238425
225	0x3e409772	0.18807772
226	0x3d94a4cf	0.07257997
227	0x3dbb84a9	0.09156162
228	0x3e08d594	0.13362724
229	0xbddea8ff	-0.10872077
230	0xbdce9bf2	-0.10088338
231	0x3b37994b	0.0028014954
232	0xbe632fa1	-0.22186138
233	0xbdbc6864	-0.091995984
234	0x3cc01213	0.023446118
235	0xbc60ff3e	-0.0137327295
236	0xbe3c3a3f	-0.18381594
237	0xbd8a90e5	-0.06765918
238	0xbdb476e6	-0.088117406
239	0xbe27916c	-0.16364068
240	0x3e211b69	0.15733112
241	0xbc8d42f6	-0.017243844
242	0xbdca2e04	-0.09872058
243	0xbe9e75eb	-0.3094934
244	0x3cf09eae	0.02937254
245	0xbe33578f	-0.1751387
246	0xbe50c161	-0.20386268
247	0xbca908bf	-0.020634053
248	0x3cc1fbc5	0.023679623
249	0xbe624248	-0.22095597
250	0xbe04f702	-0.12984851
251	0xbe3c28c7	-0.1837493
252	0x3db177b1	0.086654074
253	0x3d90a589	0.07062823
254	0xbe7fc8f0	-0.24978995
255	0xbd920dac	-0.07131514

fc2.bias f4 [84]
0	0xbea1561e	-0.31511015
1	0xbe058149	-0.130376
2	0x3f514f29	0.81761414
3	0x3e25723f	0.16156863
4	0xbd260977	-0.04053637
5	0x3ccd2d34	0.025045969
6	0x3e2c64a8	0.16835272
7	0x3f14f6d1	0.5818911
8	0xbebabe0f	-0.36473128
9	0x3f0d1f42	0.5512582
10	0x3e84979b	0.25896916
11	0xbe08c711	-0.13357188
12	0x3ea7d97b	0.32783112
13	0x3f5b1113	0.8557293
14	0x3e0b856d	0.13625117
15	0x3f2cf95e	0.67568004
16	0x3e87ba8c	0.2650951
17	0x3dd5d200	0.10440445
18	0x3f0ad2f2	0.54228127
19	0x3e66e61f	0.22548722
20	0x3efb1fb1	0.49047616
21	0xbe15424b	-0.1457607
22	0xbe07ec09	-0.13273634
23	0x3d8f3d1a	0.06994076
24	0xbd9eb889	-0.07750041
25	0xbaac2a79	-0.0013135216
26	0xbe1b8227	-0.15186368
27	0xbd72899a	-0.05921326
28	0x3b33728e	0.0027381512
29	0x3ebea127	0.37232324
30	0x3d47a7ab	0.048743885
31	0x3dab0c17	0.08351915
32	0xbe1b9e8e	-0.15197203
33	0xbd59f694	-0.05321367
34	0x3dc7b87c	0.097519845
35	0x3ecb272b	0.3967832
36	0xbe447756	-0.19186148
37	0x3e52dd70	0.20592284
38	0x3d09534e	0.03352671
39	0x3e93c684	0.28862393
40	0xbe3a0bb2	-0.18168524
41	0xbe3f6c84	-0.18693739
42	0x3f2e488e	0.6807946
43	0xbd5c2ad6	-0.05375179
44	0x3fa4f2a6	1.288655
45	0x3e3377da	0.17526188
46	0xbd4c56a7	-0.049887326
47	0xbe563d9f	-0.20921944
48	0x3e907a09	0.28218105
49	0x3e162383	0.14661984
50	0x3c684fe9	0.014179208
51	0x3df128d0	0.117753625
52	0x3e21efd0	0.15814137
53	0x3d12371b	0.035697084
54	0x3e26f964	0.16306072
55	0x3e90d6ea	0.28288966
56	0x3f3b8281	0.7324601
57	0x3f3ad545	0.72981673
58	0xbd7493d1	-0.05971128
59	0x3f1927ca	0.5982634
60	0x3ec880fd	0.3916091
61	0x3f3aa275	0.7290414
62	0xbdb40add	-0.087911345
63	0x3ebe59cf	0.37177894
64	0x3a384651	0.0007029521
65	0x3ea989e1	0.33113006
66	0xbdb5c2f0	-0.08875072
67	0xbda5b5ca	-0.08091314
68	0x3f569140	0.83815384
69	0x3cb03058	0.021507427
70	0x3e1d72f7	0.15375887
71	0x3f3b0f62	0.7307035
72	0x3e95fbac	0.29293573
73	0xbe0b061d	-0.13576551
74	0xbd692fb0	-0.056930244
75	0x3f2a26da	0.6646553
76	0x3f24626f	0.642127
77	0xbdd697f0	-0.104781985
78	0x3e18a7b8	0.1490773
79	0xbd3bb4b2	-0.04582662
80	0x3eb54099	0.35400847
81	0xbe1331be	-0.14374444
82	0x3eaf1e2d	0.3420271
83	0x3efe9a4e	0.497271

fc3.weight f4 [10, 84]
0	0x3dfa3940	0.12217951
1	0x3e78a2fe	0.24280927
2	0xbe01fbb0	-0.12693667
3	0xbe0bcb0b	-0.13651673
4	0x3e3634e5	0.17793615
5	0x3df6c75e	0.12049745
6	0xbdbe8e5d	-0.093044974
7	0xbd13d6c6	-0.036093496
8	0xbd33a6ed	-0.043860365
9	0x3d86d188	0.06582934
10	0xbce43bc4	-0.02786053
11	0x3d60e976	0.054910146
12	0xbdeff802	-0.117172256
13	0xbe4c3f18	-0.19945943
14	0xbe39a90e	-0.18130895
15	0xbe061af5	-0.13096221
16	0xbd2ff3cc	-0.042957112
17	0xbe0d41eb	-0.13794677
18	0x3d1f07fa	0.038825966
19	0x3e36400c	0.1779787
20	0xbc4d4725	-0.012529169
21	0xbda6bd1f	-0.08141541
22	0x3e20fd0e	0.15721533
23	0x3e53c4ac	0.20680493
24	0x3e8d31ff	0.27577206
25	0x3e2a93c4	0.1665793
26	0x3dc3b48d	0.09555922
27	0xbe02053c	-0.1269731
28	0xbd1332ba	-0.03593705
29	0x3ddd49ed	0.10805116
30	0xbcf12637	-0.029437168
31	0x3e7f37d6	0.24923643
32	0x3e26ed3b	0.16301434
33	0xbda016d4	-0.07816854
34	0x3e43d38b	0.19123666
35	0x3e94ab38	0.2903688
36	0xbe5db1d5	-0.21649869
37	0x3def052e	0.1167091
38	0x3d7caaa3	0.06168617
39	0x3d5c3e66	0.053770445
40	0x3dc35edc	0.09539577
41	0x3e822cbc	0.25424755
42	0xbe4ded84	-0.20110136
43	0x3d9236ee	0.07139383
44	0xbedbe4c0	-0.4294796
45	0x3e2a83cf	0.16651843
46	0xbd4cb97a	-0.04998157
47	0xbe229ccd	-0.15880127
48	0xbe9e2b44	-0.30892384
49	0xbc978c13	-0.01849941
50	0xbdbe15ab	-0.092814766
51	0x3e5ef820	0.2177434
52	0xbde9cdff	-0.11416244
53	0x3e1b3622	0.15157369
54	0xbea45f9b	-0.3210419
55	0x3dc88728	0.09791404
56	0xbe44d1d1	-0.19220664
57	0x3dff50ec	0.124666065
58	0xbdb44d52	-0.0880381
59	0xbe0e6a56	-0.13907751
60	0x3d74fcac	0.05981128
61	0xbca52e19	-0.020163583
62	0x3e15c35b	0.14625303
63	0x3e028e42	0.1274958
64	0xbb402230	-0.0029317252
65	0x3e4391d3	0.19098596
66	0xbd15986d	-0.036522318
67	0x3e0681ab	0.13135402
68	0xbd1e4944	-0.03864409
69	0x3d97aa9c	0.07405588
70	0x3e84cf81	0.25939563
71	0xbe9ca591	-0.30595067
72	0x3e4781d4	0.19483119
73	0xbd872efe	-0.0660076
74	0x3e28f577	0.16499887
75	0x3e6d1b4b	0.23154943
76	0x3e53a436	0.2066811
77	0x3e260552	0.16212967
78	0x3d7e7fc7	0.062133577
79	0xbc8b8eb3	-0.017035818
80	0xbe1b5b45	-0.15171535
81	0x3d9b8324	0.075933725
82	0x3ceee34a	0.029161114
83	0x3d37a400	0.044834137
84	0x3e2e3091	0.17010714
85	0x3d99080a	0.074722365
86	0x3e17cd73	0.14824466
87	0xbd7efea0	-0.062254548
88	0x3db43090	0.08798325
89	0x3cc4bf88	0.02401711
90	0x3db817c8	0.08988911
91	0xbd1b4d92	-0.037915774
92	0x3e65527e	0.2239475
93	0xbdf9c4b3	-0.121957205
94	0xbd792059	-0.060821865
95	0x3e70955d	0.23494478
96	0xbe65350b	-0.22383516
97	0x3cc40200	0.023926735
98	0x3e0c8abe	0.13724801
99	0x3d76fb32	0.060298152
100	0xbd616e9f	-0.055037137
101	0x3c9e4425	0.019319603
102	0x3e32e5ff	0.17470549
103	0xbe6292e9	-0.22126354
104	0x3ae27c23	0.0017279427
105	0x3e2e31cb	0.17011182
106	0xbd84cdcb	-0.064845644
107	0x3e654042	0.22387794
108	0x3d4e7a3b	0.050409537
109	0xbde4c420	-0.111702204
110	0xbe545176	-0.207342
111	0xbd48100c	-0.04884343
112	0x3d5d8066	0.05407753
113	0xbe4e3e9b	-0.2014107
114	0x3d40a2d8	0.0470303
115	0x3e479351	0.1948979
116	0x3e642b8a	0.22282234
117	0xbde79eaa	-0.1130956
118	0x3ea5d357	0.32387802
119	0x3e99f8da	0.3007267
120	0x3e1de417	0.1541904
121	0x3e1c4fa5	0.15264757
122	0xbe633e4a	-0.2219173
123	0x3d9400e7	0.072267346
124	0x3cec6ddc	0.028860979
125	0x3d147ba3	0.03625072
126	0xbe30b81a	-0.17257729
127	0x3dd6119e	0.10452579
128	0xbed682f1	-0.41896775
129	0xbe3c4d20	-0.18388796
130	0x3e4a1543	0.19734673
131	0xbdee7dda	-0.11645098
132	0x3e1181dd	0.14209695
133	0x3e58432a	0.21119371
134	0xbdcd98c0	-0.100389004
135	0xbe226b36	-0.1586121
136	0xbb018e5f	-0.0019768698
137	0x3e436206	0.19080362
138	0x3e05831f	0.130383
139	0xbe7c7e90	-0.24657655
140	0xbe6316c5	-0.22176655
141	0xbe2f1136	-0.17096409
142	0x3d026e90	0.031843722
143	0xbe8d1c1b	-0.27560505
144	0xbe872ab7	-0.26399776
145	0xbe6ff67d	-0.23433872
146	0xbe36676e	-0.17812893
147	0xbe6d90b1	-0.23199727
148	0xbe96e6e8	-0.29473042
149	0xbd075625	-0.03304114
150	0x3e33322a	0.17499605
151	0xbe78a69d	-0.24282308
152	0xbec41411	-0.3829656
153	0x3de4a2b6	0.11163847
154	0xbdebc97d	-0.1151304
155	0xbd8e66d9	-0.069532104
156	0xbd8bc96d	-0.06825528
157	0x3e812bee	0.25228828
158	0xbe10b083	-0.14129834
159	0xbe87cb87	-0.26522467
160	0xbd812514	-0.063059
161	0x3e105095	0.1409324
162	0x3e420a3b	0.18949215
163	0x3e7cae4c	0.24675864
164	0x3e1b7caa	0.15184274
165	0xbe146c38	-0.14494407
166	0x3db6ef2c	0.08932337
167	0x3dbc3f2c	0.091917366
168	0x3dfe7db9	0.124263234
169	0x3e5b4e7e	0.21416661
170	0x3e0221a3	0.12708144
171	0x3d246712	0.040137358
172	0x3dcfef17	0.10153025
173	0xbd864fb4	-0.06558171
174	0xbe6674e1	-0.22505523
175	0xbdac25bf	-0.08405637
176	0x3e2ae1dd	0.16687723
177	0x3c4c9e05	0.012488847
178	0xbda8661d	-0.082226016
179	0xbdd78595	-0.105235256
180	0xbd4ecf73	-0.050490808
181	0x3d8dd63f	0.0692563
182	0x3d13491b	0.03595839
183	0x3c8401f1	0.016114207
184	0x3c5868b3	0.013208556
185	0xbe0576a1	-0.13033535
186	0xbe12121f	-0.14264725
187	0x3e3313f0	0.17488074
188	0xbe00a545	-0.12563045
189	0xbe24a6b1	-0.16079213
190	0x3d2b49a9	0.041818295
191	0xbc1ceffc	-0.009578701
192	0xbd98f569	-0.07468683
193	0x3e8aee7c	0.27135074
194	0x3e155394	0.14582664
195	0x3dbcacd5	0.092126526
196	0xbd901185	-0.070345916
197	0xbe6ec2ec	-0.23316544
198	0x3e172699	0.14760818
199	0x3e04dfdd	0.12976022
200	0xbe2382d2	-0.15967873
201	0x3e285bd2	0.16441277
202	0xbe45861c	-0.1928944
203	0xbe067d17	-0.13133655
204	0x3d85b57b	0.06528755
205	0x3da465c7	0.08027225
206	0xbdba9acc	-0.091115564
207	0xbd36fb85	-0.04467346
208	0xbd2353d8	-0.03987488
209	0x3d573d07	0.052548435
210	0x3d58c74e	0.052924447
211	0xbbb19764	-0.0054196585
212	0x3e848b8b	0.25887713
213	0x3e742cfc	0.23845285
214	0x3c015866	0.007894611
215	0x3e6bcfb5	0.23028453
216	0xbe0858e8	-0.13315165
217	0xbe7228fc	-0.23648447
218	0x3e82a4cb	0.25516352
219	0x3e21e8af	0.15811418
220	0xbda6a32d	-0.08136592
221	0xbdcd24a9	-0.10016758
222	0x3cd03a2f	0.02541837
223	0x3dd35ca4	0.10320404
224	0x3e3ba557	0.18324791
225	0x3d7181fc	0.058961853
226	0x3d96b069	0.07357866
227	0x3dfbf2c1	0.12302161
228	0x3df13bb0	0.117789626
229	0xbc8be84a	-0.017078537
230	0xbe483c2f	-0.19554208
231	0x3dda1ff1	0.106506236
232	0x3e5ae478	0.21376216
233	0x3c9ce006	0.019149791
234	0xbd4fb47e	-0.05070924
235	0x3e8c534e	0.27407306
236	0x3dec5fc4	0.11541703
237	0x3e13e910	0.14444375
238	0x3dfbd6d9	0.12296838
239	0x3d2d2c9a	0.042278863
240	0xbea718d1	-0.3263612
241	0x3e1cd173	0.15314274
242	0xbe33e30f	-0.17567085
243	0x3e47d702	0.19515613
244	0xbbff5c23	-0.007792966
245	0x3d83ef9b	0.064421855
246	0x3e5a16cd	0.2129776
247	0xbd91ef7f	-0.071257584
248	0x3d1307a4	0.03589596
249	0x3b3268c3	0.0027223087
250	0xbe2c6878	-0.16836727
251	0x3e38bb43	0.18040185
252	0xbe55b6c3	-0.208705
253	0xbdb76a70	-0.08955848
254	0x3d96d0f6	0.07364075
255	0x3e5989e1	0.21244003

fc3.bias f4 [10]
0	0xbee1fc8e	-0.44137996
1	0xbf97b2a8	-1.1851397
2	0xbe57431b	-0.21021692
3	0x3f76ea73	0.9645149
4	0x3f7810ab	0.96900433
5	0xbc02dc29	-0.007987061
6	0x3e33bacc	0.17551726
7	0xbe774cdd	-0.24150415
8	0x3e5680e6	0.20947608
9	0xbe12d491	-0.143389
