Models/03-04-2023-14-34-55/model_CNN_Adam.pth (torch, 250951 bytes, 10 tensors)

conv1.weight f4 [6, 3, 5, 5]
0	0x3ec04a24	0.37556565
1	0x3ed92dee	0.42417854
2	0x3f02ba8b	0.5106589
3	0x3ec49df3	0.38401756
4	0xbd13c2e7	-0.036074545
5	0xbd0208a0	-0.031746507
6	0xb959917d	-0.00020748931
7	0x3e99d3e7	0.3004448
8	0x3f4f49f8	0.8097224
9	0x3f1bab03	0.6080782
10	0xbd34bf45	-0.04412772
11	0xbe85430e	-0.2602772
12	0xbeed062e	-0.46293777
13	0xbec93ea9	-0.39305618
14	0xbe37b205	-0.17939003
15	0xbe785a73	-0.24253254
16	0xbe0eaf1e	-0.1393399
17	0xbe0ad9e5	-0.13559683
18	0xbdfec7dd	-0.12440465
19	0x3d13ae9d	0.036055196
20	0xbec73716	-0.38909215
21	0xbe9a1efa	-0.30101758
22	0xbe0f642a	-0.14003053
23	0xbeb130b4	-0.3460747
24	0xbec4cabe	-0.3843593
25	0xbe0625cd	-0.13100357
26	0x3e565fca	0.20934978
27	0x3eea5137	0.45765087
28	0x3e2a2659	0.16616191
29	0xbda9e29c	-0.082951754
30	0xbf0b88e6	-0.54505765
31	0xbefd5038	-0.49475265
32	0xbe02f8a5	-0.12790163
33	0x3e624801	0.2209778
34	0x3e59d517	0.21272694
35	0xbe0b0f66	-0.13580093
36	0xbea8d978	-0.32978415
37	0xbef3209e	-0.47485822
38	0xbecfdd0e	-0.4059834
39	0xbe959a91	-0.29219487
40	0x3db20a4f	0.086933725
41	0x3e83fd11	0.25779012
42	0xbca19624	-0.019724913
43	0xbb49a608	-0.0030769128
44	0x3e3844fb	0.17995064
45	0x3da447ce	0.08021508
46	0x3d01fc3e	0.031734698
47	0x3e04e160	0.12976599
48	0x3d5329c6	0.05155351
49	0xbe04e291	-0.12977053
50	0x3e5aed91	0.21379687
51	0x3e8de440	0.27713203
52	0x3e758522	0.23976567
53	0xbe83d893	-0.2575117
54	0xbe8239f0	-0.25434828
55	0xbe0d6dc0	-0.13811398
56	0xbeb5c41f	-0.3550119
57	0xbedbbeac	-0.4291891
58	0xbe36563d	-0.17806335
59	0x3e50d567	0.20393907
60	0x3e276447	0.16346847
61	0x3d94c2bf	0.07263707
62	0xbe5b8984	-0.21439177
63	0xbe44351c	-0.19160885
64	0xbe0e807c	-0.139162
65	0x3e3598cb	0.17734067
66	0x3ea6109b	0.32434544
67	0x3e9774c3	0.2958127
68	0x3e493cef	0.1965215
69	0x3ebc98ba	0.3683527
70	0x3e27f98c	0.16403788
71	0x3e03037e	0.12794301
72	0x3dfa7861	0.12229992
73	0xbc941507	-0.018076433
74	0xbdfe8c75	-0.12429134
75	0xbe7574db	-0.23970358
76	0xbd13dd22	-0.03609956
77	0xbc9c1547	-0.019053115
78	0x3f064faa	0.5246531
79	0x3eb6e786	0.35723513
80	0xbc2e9f72	-0.010658132
81	0xbe38a7b3	-0.18032722
82	0x3efef33f	0.49794957
83	0x3ebb9b8a	0.36642104
84	0x3e21b91f	0.15793274
85	0xbe62ee85	-0.221613
86	0x3e10a091	0.14123751
87	0x3f3cd8c2	0.73768246
88	0xbeb302e1	-0.34963134
89	0xbe2c500c	-0.1682741
90	0x3e65a7f0	0.22427344
91	0x3efc51d7	0.4928119
92	0xbeafa2f2	-0.34304005
93	0xbf396942	-0.72426236
94	0x3da1a510	0.07892811
95	0xbd8af9b7	-0.067859106
96	0xbe6b3a16	-0.22971377
97	0xbf1c3b68	-0.61028147
98	0xbe32e7ec	-0.17471284
99	0x3e80fc07	0.25192282
100	0xbd99d6c0	-0.075116634
101	0x3dcb7b4f	0.099356286
102	0xbe1da274	-0.15394002
103	0xbe883c52	-0.2660852
104	0xbf02b00a	-0.51049864
105	0x3e82cc70	0.25546598
106	0xbde4a5c8	-0.11164433
107	0x3e5be096	0.21472391
108	0xbcbab30d	-0.022790456
109	0xbf0278c4	-0.50965524
110	0xbd9565ac	-0.07294783
111	0x3e85f8a0	0.26166248
112	0x3ea7f641	0.32805064
113	0xbf11e292	-0.56986344
114	0xbebae2a3	-0.36501035
115	0x3e580541	0.21095754
116	0x3ef531d3	0.47889575
117	0xbeb820fc	-0.35962665
118	0xbf5d592b	-0.86464185
119	0x3e245e0f	0.16051506
120	0x3e21f8fa	0.15817633
121	0xbe7412b7	-0.23835264
122	0xbf00f196	-0.5036863
123	0x3e918a5f	0.2842588
124	0x3eece151	0.46265653
125	0xbdbd3daa	-0.09240277
126	0xbcd13eac	-0.02554258
127	0xbdf403d2	-0.11914791
128	0x3e42c38c	0.19019908
129	0xbe8c4231	-0.2739425
130	0xbc90b8af	-0.017666189
131	0xbe0471c9	-0.1293403
132	0x3e34d249	0.17658342
133	0x3d932d98	0.07186431
134	0x3cc4aad3	0.024007237
135	0xbd815e22	-0.063167825
136	0x3df1146f	0.117714755
137	0x3eafa68d	0.34306756
138	0xbee8c9c7	-0.45466444
139	0xbde79605	-0.11307911
140	0x3dd732e1	0.10507751
141	0x3e9cc41f	0.3061838
142	0xbe8ed184	-0.27894223
143	0xbf128ef7	-0.572494
144	0x3eec1fad	0.46117917
145	0xbdcc331f	-0.09970688
146	0xbe92a3c1	-0.2864056
147	0xbee0d2e9	-0.43910912
148	0x3eca8e9a	0.3956192
149	0x3f52d9c1	0.82363516
150	0x3c804b6f	0.01566097
151	0x3de30219	0.110843845
152	0xbe6cc1c4	-0.2312079
153	0x3e7cf85b	0.24704115
154	0xbdc02af2	-0.09383191
155	0xbe9dfca2	-0.30856806
156	0x3deafd5f	0.11474108
157	0x3e7d5874	0.24740773
158	0x3e616bdd	0.22013803
159	0xbec3ffed	-0.38281193
160	0xbe7fcaed	-0.24979754
161	0xbed63f77	-0.41845295
162	0xbf247a9a	-0.64249575
163	0xbf056f0c	-0.5212257
164	0xbe42b4f7	-0.19014345
165	0x3d2f1ed7	0.04275402
166	0xbe360a2e	-0.1777732
167	0xbf1b1bcc	-0.6058929
168	0xbe3ef5ce	-0.18648455
169	0x3ede64d0	0.4343629
170	0x3e887dc8	0.26658463
171	0x3f195a74	0.59903646
172	0x3f419aed	0.75627023
173	0x3f0cf609	0.5506292
174	0x3da7eb95	0.081992306
175	0xbdfb8ada	-0.12282343
176	0x3e2f7263	0.17133479
177	0xbe1b60f9	-0.15173711
178	0x3e376aed	0.17911883
179	0xbe0599aa	-0.130469
180	0x3d858e68	0.065213025
181	0x3f211df9	0.6293636
182	0x3f0e6563	0.55623454
183	0x3f1c5312	0.61064255
184	0xbe190d65	-0.14946516
185	0xbcbffe40	-0.023436666
186	0xbd796f9b	-0.06089745
187	0xbea31624	-0.3185283
188	0xbe14009e	-0.1445336
189	0xbe3aa5d0	-0.18227315
190	0x3c89bd8f	0.016814021
191	0xbe259434	-0.16169816
192	0xbf076969	-0.5289522
193	0xbe3d44fd	-0.18483348
194	0x3ecaefc7	0.3963606
195	0xbdbd17b8	-0.092330396
196	0x3ea41570	0.32047606
197	0x3f11f3fb	0.5701291
198	0x3dc6bb38	0.09703678
199	0xbf16e550	-0.58943653
200	0x3cc5ab5c	0.024129562
201	0xbd5daca2	-0.054119714
202	0xbf109aa5	-0.5648597
203	0xbdfc11c9	-0.1230808
204	0x3dbc2d93	0.0918838
205	0x3d82b3a7	0.06381922
206	0x3e89160b	0.2677463
207	0x3ebcd7ec	0.36883485
208	0x3eee5ed0	0.4655671
209	0xbc01dd62	-0.007926317
210	0x3d593c45	0.053035993
211	0xbe5a0646	-0.21291456
212	0xbec5a5da	-0.38603097
213	0x3cbcd75d	0.023051912
214	0x3cf5eb2b	0.030019363
215	0xbc038e7e	-0.008029578
216	0xbea2b5d6	-0.31779355
217	0xbed58c8d	-0.41708794
218	0xbe33b9f1	-0.175514
219	0x3e130a28	0.14359343
220	0xbcb3176e	-0.021861758
221	0x3e151768	0.1455971
222	0x3eb36189	0.3503535
223	0x3e06840a	0.13136306
224	0xbe8305ff	-0.25590512
225	0x3e00991a	0.12558404
226	0xbdedb845	-0.11607412
227	0xbc070341	-0.008240522
228	0xbaa2c45a	-0.0012418136
229	0x3d6e4bc3	0.05817772
230	0x3e6fbb0a	0.23411193
231	0xbea99d91	-0.33128026
232	0x3d35a63e	0.044347994
233	0xbd9e842e	-0.07740055
234	0x3d017b96	0.031612
235	0xbe1e34ce	-0.15449831
236	0xbe00fbd4	-0.12596065
237	0x3f12b443	0.5730631
238	0xbeb3e362	-0.35134417
239	0x3de9e05c	0.11419746
240	0xbef29b7f	-0.4738426
241	0xbe36ee37	-0.17864309
242	0x3f7a1323	0.9768545
243	0xbdede7f9	-0.11616511
244	0xbebb918c	-0.3663448
245	0xbea96a04	-0.33088696
246	0xbf36fd5b	-0.7148034
247	0x3f2f0d3b	0.68379563
248	0x3ecbab78	0.39779258
249	0xbe996884	-0.29962552
250	0x3d8d15ea	0.068889454
251	0xbdf879ea	-0.12132628
252	0x3de1bdc4	0.11022523
253	0x3e2e5fd2	0.1702874
254	0x3e1fc3b9	0.15602006
255	0xbcc6c0f0	-0.024261922

conv1.bias f4 [6]
0	0xbf0a2cb1	-0.53974444
1	0xbf17aa05	-0.59243804
2	0xbe9db7d3	-0.3080431
3	0xbe931102	-0.28723913
4	0x3bfded8d	0.0077492655
5	0xbed81920	-0.4220667

conv2.weight f4 [16, 6, 5, 5]
0	0x3d08ea91	0.033426825
1	0x3e92e808	0.2869265
2	0xbe675148	-0.225896
3	0xbecba04e	-0.3977074
4	0xbf5c4db2	-0.86056054
5	0xbd86d996	-0.0658447
6	0xbc346b05	-0.011011844
7	0xbf43031a	-0.7617661
8	0xbf6fa9d3	-0.93618506
9	0xbf7f5421	-0.99737746
10	0x3ead0b7f	0.33797833
11	0xbe9e09e8	-0.30866933
12	0xbf880cd7	-1.0628918
13	0xbf6f23c1	-0.9341393
14	0xbf80a70e	-1.0050981
15	0x3ecfb1a7	0.40565225
16	0xbeed5a2b	-0.46357855
17	0xbe8a4e87	-0.27013037
18	0xbefccce4	-0.4937507
19	0xbf0cf9b0	-0.5506849
20	0x3e3c5a5a	0.18393841
21	0x3eb2a0a1	0.34888175
22	0x3a5102b7	0.0007973122
23	0xbead9a29	-0.33906677
24	0xbed9f724	-0.42571366
25	0x3eaed955	0.34150186
26	0x3f100afa	0.5626675
27	0x3f2d3ac4	0.67667794
28	0x3db77ee4	0.08959749
29	0xbfa985d3	-1.3243965
30	0x3f311c46	0.69183767
31	0x3f1241ae	0.5713147
32	0xbdc34b7e	-0.09535883
33	0xbf088997	-0.53334945
34	0xbe935a1e	-0.2877969
35	0x3efe6157	0.4968364
36	0x3e746816	0.2386783
37	0x3e5ba5ca	0.21449962
38	0x3ec4fba7	0.38473246
39	0xbdf41f14	-0.1191999
40	0xbddd81db	-0.108157836
41	0xbea2d0af	-0.31799838
42	0xbe218942	-0.15775016
43	0xbebbc957	-0.36677048
44	0xbb28a31e	-0.002573199
45	0xbf3eea8f	-0.7457666
46	0xbe979294	-0.29604018
47	0xbeadee3b	-0.33970818
48	0x3f3d77fa	0.74011195
49	0x3ef434da	0.47696573
50	0xbd589435	-0.052875716
51	0xbed33124	-0.4124843
52	0x3ecee931	0.40412286
53	0x3e68fa08	0.2275163
54	0xbf1ccd7b	-0.6125104
55	0xbe734a5e	-0.23758838
56	0x3dd88c1b	0.10573598
57	0xbe0622f8	-0.13099277
58	0xbf18924d	-0.5959824
59	0xbe37e9bb	-0.17960255
60	0x3e32295b	0.17398588
61	0xbd916132	-0.07098617
62	0xbf0250de	-0.50904644
63	0xbebf4c2e	-0.37362808
64	0x3f2f976f	0.68590444
65	0xbd6d5677	-0.057943787
66	0x3e927cd8	0.28610873
67	0x3dc1c120	0.09460664
68	0x3edabaac	0.42720544
69	0xbe395bbd	-0.18101402
70	0x3ced2436	0.02894793
71	0xbe877ef0	-0.26464033
72	0xbddfeb9a	-0.10933609
73	0xbeede972	-0.46467167
74	0x3ede87d9	0.4346302
75	0x3c9362fb	0.017991534
76	0xbe4347d0	-0.19070363
77	0xbe85c03b	-0.26123223
78	0xbd02d793	-0.03194387
79	0x3d84bde5	0.06481532
80	0x3d8fb7b5	0.07017461
81	0xbf114856	-0.56751
82	0x3c8fc94b	0.017552039
83	0x3e6e93a6	0.23298511
84	0x3e1580c0	0.14599895
85	0x3e07fe90	0.13280702
86	0x3de3925f	0.111119024
87	0xbe3aad6b	-0.18230216
88	0xbe0ea035	-0.13928302
89	0x3dd0c1c8	0.10193211
90	0xbe3ae6bf	-0.18252085
91	0x3b0a94c7	0.0021145807
92	0x3da7592d	0.08171306
93	0xbe0a6d1d	-0.13518186
94	0xbdbe3cb8	-0.09288925
95	0x3e0db6fa	0.13839331
96	0x3e566dd7	0.20940338
97	0x3f1d4a36	0.6144136
98	0x3e80817e	0.25098795
99	0x3c52e721	0.012872488
100	0x3efd34f9	0.49454477
101	0x3e5f9282	0.21833232
102	0xbe7443dd	-0.23854013
103	0xbeaa8136	-0.33301705
104	0xbd06fa8a	-0.032953776
105	0x3ed564ce	0.4167847
106	0xbe2ff803	-0.17184453
107	0xbdfc6840	-0.123245716
108	0xbe1a763a	-0.15084162
109	0xbdb8e1db	-0.090274535
110	0x3e311c00	0.17295837
111	0x3dcae698	0.099072635
112	0x3e926fef	0.28601024
113	0xbe0359da	-0.12827244
114	0xbea75154	-0.32679236
115	0xbe72e5c5	-0.23720463
116	0x3e71365a	0.2355589
117	0x3e992f90	0.299191
118	0x3db900d9	0.09033365
119	0xbceaad7a	-0.028647173
120	0x3e15b428	0.14619505
121	0xbdbabf14	-0.091184765
122	0x3e1ab6e4	0.1510883
123	0xbc2094dc	-0.009801116
124	0xbd599fd8	-0.053130955
125	0x3e2259ce	0.1585457
126	0xbda2e104	-0.079530746
127	0xbe9ee5de	-0.3103475
128	0xbeb1572a	-0.34636813
129	0xbf569a1e	-0.83828914
130	0xbe113c59	-0.14183177
131	0xbe05df3b	-0.13073437
132	0xbf02a47b	-0.5103223
133	0xbfa08f33	-1.2543701
134	0xbf2d8645	-0.67783004
135	0x3e53a6be	0.20669076
136	0xbf17ea8c	-0.59342265
137	0xbf9fa14e	-1.2471101
138	0xbf92e1e4	-1.1475186
139	0xbde95184	-0.11392501
140	0x3d5473ed	0.051868368
141	0xbfb9fbf7	-1.4530019
142	0xbf2c2ef4	-0.67259145
143	0xbecf8b84	-0.4053613
144	0xbd4ef1ac	-0.050523445
145	0x3e8e5829	0.27801636
146	0xbebbf5bb	-0.36710915
147	0xbf021927	-0.5081963
148	0xbf0c4391	-0.547906
149	0x3f08ea07	0.534821
150	0x3e8fc2b0	0.28078222
151	0xbe0f7b92	-0.14011982
152	0xbe70c1ac	-0.2351138
153	0xbd77eb23	-0.06052698
154	0x3eca0e25	0.39463916
155	0x3f40f4cf	0.7537355
156	0x3e9e02f1	0.3086162
157	0xbd206f0a	-0.039168395
158	0xbf150f64	-0.5822661
159	0xbe925ae0	-0.28584957
160	0x3e75e36a	0.24012533
161	0x3d629ae8	0.05532351
162	0x3e38ac75	0.18034537
163	0xbf011a74	-0.5043099
164	0xbf8b3be6	-1.0877655
165	0x3ea32d7c	0.3187064
166	0xbe19525f	-0.14972828
167	0xbdad6497	-0.084664516
168	0x3d399907	0.045311954
169	0xbee3c361	-0.44485
170	0x3e0b24d4	0.13588268
171	0xbe51b29d	-0.20478292
172	0xbf7a177c	-0.97692084
173	0x3eb4c365	0.35305324
174	0x3e2a9ee4	0.16662174
175	0xbeaff8cf	-0.34369513
176	0xbf7cda1a	-0.98770297
177	0xbf0f4721	-0.5596791
178	0xbeb9fdf9	-0.36326578
179	0xbf5323f7	-0.82476753
180	0xbdb376c7	-0.08762889
181	0xbee823a4	-0.45339692
182	0xbe3c7b1c	-0.18406337
183	0xbeecee51	-0.4627557
184	0xbeaf38a4	-0.342229
185	0x3df9fb02	0.12206079
186	0xbe729c14	-0.23692352
187	0xbebb5ba9	-0.3659337
188	0xbf4f8ce6	-0.8107437
189	0xbfd5856e	-1.6681345
190	0xbd1ada53	-0.037805866
191	0x3e3c1eff	0.18371199
192	0xbed50858	-0.41607928
193	0xbf34fd6c	-0.7069919
194	0xbef01866	-0.46893615
195	0x3e32a667	0.1744629
196	0x3dbb762e	0.091534
197	0xbefd8d7c	-0.49522007
198	0xbe92a22f	-0.2863936
199	0xbf6db5d6	-0.92855585
200	0xbeaa1d73	-0.33225593
201	0xbf2a8ad5	-0.6661809
202	0xbc21e3fa	-0.009881014
203	0xbe92b6d5	-0.28655115
204	0xbe52a198	-0.20569456
205	0x3e4beb1b	0.19913904
206	0xbedc03c5	-0.42971626
207	0xbe512983	-0.20425992
208	0xbe7ee2f2	-0.2489126
209	0xbe9ea2d3	-0.309836
210	0x3ee98467	0.45608827
211	0x3e893c8b	0.26804003
212	0xbf23302f	-0.637454
213	0xbf70cfe3	-0.9406721
214	0xbf3d30f3	-0.73902816
215	0xbe282b05	-0.1642266
216	0x3e80df7d	0.25170508
217	0xbe117c74	-0.14207631
218	0xbeea1030	-0.45715475
219	0xbeb92e41	-0.361681
220	0x3f019e1e	0.5063189
221	0xbe1be4cf	-0.15224002
222	0xbed49029	-0.41516235
223	0xbec2dcbd	-0.38059035
224	0xbe8230ca	-0.25427848
225	0xbdc73c11	-0.09728254
226	0xbe62952e	-0.2212722
227	0x3d8149ca	0.06312902
228	0x3e55e73a	0.20888987
229	0x3cdb2527	0.026751114
230	0xbdb674f8	-0.08909029
231	0x3db59e03	0.08868029
232	0x3e8ea2aa	0.27858478
233	0xbe37966a	-0.17928472
234	0x3dcbed75	0.09957401
235	0x3dd4fc37	0.10399669
236	0x3e1b9b1c	0.15195888
237	0x3e9854dc	0.29752243
238	0x3e3d4a52	0.18485382
239	0x3e5017bf	0.20321558
240	0xbd7cb2f5	-0.061694104
241	0x3eda964a	0.42692786
242	0x3d46f2f3	0.04857154
243	0xbd9ccc5d	-0.07656167
244	0xbd91dae5	-0.07121829
245	0x3d494a88	0.049143344
246	0x3ed174d3	0.40909442
247	0x3ea6dd24	0.32590592
248	0x3e9c4fff	0.30529782
249	0x3e938248	0.28810334
250	0xbe600a2b	-0.21878879
251	0xbe44bd77	-0.192129
252	0x3de7a08c	0.11309919
253	0x3ed4995a	0.41523248
254	0x3ea69bf9	0.32540873
255	0xbd81d9d9	-0.06340379

conv2.bias f4 [16]
0	0x3f7bcd96	0.98360574
1	0x3f919a87	1.1375283
2	0x3e876664	0.26445305
3	0xbdbab2a9	-0.09116108
4	0x3f241835	0.64099437
5	0x4003c242	2.0587316
6	0x3e387925	0.18014963
7	0x3ef235af	0.47306582
8	0xbf3d6fd8	-0.73998785
9	0x3f44a867	0.7681946
10	0xbf95b3b5	-1.1695467
11	0xbf0e6cd2	-0.55634797
12	0xbf3387bd	-0.70128995
13	0xbe30bd4e	-0.17259714
14	0x3db28385	0.087164916
15	0x3f3e17a2	0.7425481

fc1.weight f4 [120, 400]
0	0x3eb44384	0.3520776
1	0x3dfbdb62	0.12297703
2	0x3d226cb7	0.03965446
3	0xbe64dce0	-0.22349882
4	0xbf5e5c8d	-0.8685997
5	0x3e91bc97	0.28464195
6	0xbea4bc99	-0.3217514
7	0x3d80cd60	0.06289172
8	0x3e60884a	0.2192699
9	0x3f60a9cf	0.8775911
10	0x3ec78dfe	0.3897552
11	0x3e0b52c1	0.13605787
12	0x3ec88f4c	0.39171827
13	0x3e824f31	0.25451043
14	0x3ed34492	0.41263252
15	0x3f00f746	0.5037731
16	0x3eb28159	0.3486431
17	0x3e41ba0d	0.18918629
18	0xbf0dca92	-0.5538722
19	0xbe8a07a7	-0.26958963
20	0xbe07db94	-0.13267356
21	0x3c07a2c2	0.008278551
22	0x3ecd4479	0.40091303
23	0xbe0b2bd8	-0.13590944
24	0xbeeeb2da	-0.46620828
25	0x3cacbd58	0.02108638
26	0xbe468585	-0.19386871
27	0xbe382807	-0.17984019
28	0xbe933147	-0.28748533
29	0xbdab42da	-0.0836236
30	0xbe68b9da	-0.22727147
31	0x3ebdfaff	0.37105557
32	0x3f3edbc9	0.74554116
33	0xbc4322a9	-0.011910119
34	0xbe7729c6	-0.24137029
35	0xbdcfa39a	-0.101386264
36	0x3e7979da	0.24362889
37	0x3f0a48ff	0.54017633
38	0xbe3dd7fd	-0.18539424
39	0xbebc4003	-0.36767587
40	0x3e4aab61	0.19791938
41	0x3e9847c4	0.29742253
42	0x3ebc224c	0.36744916
43	0xbe84f404	-0.2596742
44	0xbd32980c	-0.043602034
45	0xbe82365b	-0.25432095
46	0xbda6798c	-0.08128652
47	0xbf10133f	-0.5627937
48	0xbf41145a	-0.7542168
49	0xbeacaba9	-0.33724716
50	0xbd6dbaf9	-0.05803964
51	0x3ea367c6	0.3191511
52	0x3d0a6fff	0.033798214
53	0xbe30f2e6	-0.17280158
54	0x3bdd7b43	0.0067590787
55	0x3e9308c1	0.28717616
56	0x3e7e1861	0.24813987
57	0xbeb948e6	-0.3618843
58	0x3ebe014c	0.37110364
59	0x3e95919d	0.29212657
60	0xbf2fbc6f	-0.686469
61	0x3e9fd872	0.31219822
62	0x3f0ac75b	0.5421044
63	0x3e452a53	0.19254427
64	0xbd9a15c5	-0.075236835
65	0xbf0222d0	-0.5083437
66	0xbb2537f4	-0.0025210353
67	0x3e9b5d37	0.30344555
68	0xbe9e5e6d	-0.30931416
69	0xbf0cda42	-0.55020535
70	0xbdc35fcb	-0.095397554
71	0xbc799414	-0.0152330585
72	0x3ef52e30	0.478868
73	0x3ec246f0	0.37944746
74	0x3e96348a	0.2933696
75	0xbf036124	-0.513201
76	0xbe5cc3f7	-0.2155913
77	0xbeb65f8a	-0.35619766
78	0x3eacbcf7	0.3373792
79	0xbe934fd7	-0.2877185
80	0x3b268e26	0.0025414317
81	0x3d8d863f	0.06910371
82	0xbbe0f456	-0.0068650646
83	0xbdd8c6e6	-0.10584812
84	0xbe60ee36	-0.2196587
85	0xbef5496f	-0.47907588
86	0x3e67da25	0.2264181
87	0x3f190999	0.5978027
88	0x3e9677eb	0.29388365
89	0x3dc26d69	0.094935246
90	0xbe15c1c4	-0.14624697
91	0xbf14b998	-0.58095694
92	0xbefc8dd8	-0.49326968
93	0xbe8a1f9c	-0.2697724
94	0x3c9a2b7f	0.018819569
95	0xbe2f7544	-0.17134577
96	0xbf0c89f0	-0.54897976
97	0xbf33ef37	-0.7028689
98	0xbf1b5ed1	-0.60691553
99	0xbe8d93b9	-0.27651766
100	0xbf80bc9a	-1.0057557
101	0x3ec5995f	0.38593575
102	0xbdbd9b82	-0.092581764
103	0xbef9c678	-0.48784232
104	0xbf7223aa	-0.9458567
105	0xbf09e530	-0.5386534
106	0xbf349bd7	-0.7055029
107	0x3f0b397a	0.5438458
108	0x3e41aab2	0.18912771
109	0xbdda316c	-0.10653958
110	0xbd6f5160	-0.058427215
111	0xbedfcb17	-0.43709633
112	0xbf2b1c6c	-0.66840243
113	0xbea9b3ea	-0.33145076
114	0x3f506b12	0.81413376
115	0xbeb87f80	-0.36034775
116	0x3eef3b1a	0.46724778
117	0xbe64e274	-0.2235201
118	0xbd8fd515	-0.07023064
119	0x3f036378	0.5132365
120	0xbe9f8d92	-0.31162697
121	0x3e2d93a4	0.16950852
122	0x3eb8b58d	0.36076012
123	0x3dcbca18	0.09950656
124	0xbb36a6e4	-0.002787047
125	0xbeca3972	-0.39496952
126	0xbe4480ad	-0.19189711
127	0x3e58dc35	0.21177752
128	0x3e272fb2	0.16326788
129	0xbf0100ad	-0.50391656
130	0xbf3b0137	-0.7304873
131	0x3e3b5069	0.18292393
132	0x3ebb5d77	0.36594746
133	0x3eb7fd84	0.35935605
134	0xbecc911a	-0.39954454
135	0xbf204884	-0.6261065
136	0xbd19ac60	-0.037517905
137	0xbed85f5e	-0.4226026
138	0xbf536faa	-0.8259226
139	0xbf0e9806	-0.5570072
140	0x3e43d488	0.19124043
141	0x3f2eddad	0.68307
142	0x3dfe4818	0.124160945
143	0x3c491039	0.012271934
144	0xbeb644dc	-0.3559941
145	0xbeff9b76	-0.49923295
146	0x3ec8fce7	0.3925545
147	0x3e6b714e	0.22992441
148	0x3e8f4e35	0.27989355
149	0xbf833406	-1.0250251
150	0xbd8bbcc2	-0.06823112
151	0x3ddf526c	0.109043926
152	0x3e8b36d2	0.27190262
153	0x3f072867	0.52796024
154	0x3f0d5d49	0.55220467
155	0xbe864cf6	-0.26230592
156	0x3da72a7c	0.081624
157	0x3e9714c2	0.29508024
158	0xbe6ebde7	-0.2331463
159	0xbdab2105	-0.08355907
160	0x3ce1ef81	0.027580025
161	0xbf238495	-0.6387418
162	0xbdda86ba	-0.10670228
163	0x3e5408ce	0.20706484
164	0x3f01ab53	0.50652045
165	0xbea82ae9	-0.32845238
166	0xbbe5ce35	-0.007013107
167	0x3e6a682d	0.22891302
168	0x3e124b23	0.14286475
169	0x3eb2b9b0	0.34907293
170	0xbedfda5f	-0.4372129
171	0x3e37023f	0.1787195
172	0xbd3be00f	-0.045867976
173	0x3ebe17ba	0.37127477
174	0xbe9f3f67	-0.3110306
175	0x3d5adbf8	0.053432435
176	0x3cf4ad65	0.029867837
177	0xbceefd61	-0.029173555
178	0xbe048f88	-0.12945378
179	0xbf4f4eb1	-0.8097945
180	0xbec9de07	-0.39427206
181	0xbe8f5f07	-0.28002188
182	0xbf253d62	-0.6454679
183	0xbf175d2f	-0.5912656
184	0xbed3631c	-0.41286552
185	0x3c4892b9	0.012242013
186	0xbd68ffb7	-0.056884494
187	0x3e35d7be	0.1775808
188	0xbe2035da	-0.15645543
189	0xbda308c3	-0.079606555
190	0xbe445dea	-0.1917645
191	0x3ee24ae8	0.44197774
192	0xbeb42ce2	-0.35190493
193	0xbf2dfbde	-0.67962444
194	0x3e6db662	0.23214105
195	0xbf0b5eec	-0.54441714
196	0xbd75a4af	-0.059971508
197	0xbf446b56	-0.7672628
198	0xbf0da9ab	-0.5533702
199	0xbf2dca76	-0.67887056
200	0xbef834a0	-0.4847765
201	0x3cabcde5	0.020972202
202	0xbd2bdf06	-0.04196074
203	0xbf0760ba	-0.5288197
204	0xbf2231ee	-0.63357437
205	0xbdc42642	-0.095776096
206	0x3e935326	0.28774375
207	0x3e353e7e	0.1769962
208	0xbcc7f970	-0.024410933
209	0xbf0d3929	-0.55165344
210	0x3ef67e7d	0.48143378
211	0x3eb66ff9	0.35632303
212	0x3ed8941f	0.42300507
213	0x3ed65e79	0.41868952
214	0x3eb27742	0.34856611
215	0xbf12a1f7	-0.5727839
216	0xbdce9765	-0.1008747
217	0x3e172411	0.14759852
218	0x3ce5e3cc	0.028062724
219	0xbe12b5a1	-0.14327098
220	0xbe917a85	-0.28413787
221	0xbe2b672c	-0.16738576
222	0xbe20ee10	-0.15715814
223	0xbc9a3b47	-0.018827094
224	0xbef451ec	-0.4771875
225	0xbfa7d3cc	-1.311151
226	0xbe8111a6	-0.25208777
227	0xbe9743b5	-0.29543844
228	0xbe55f5a4	-0.20894486
229	0x3cef8d92	0.02924231
230	0xbeee668d	-0.46562615
231	0xbefee4cf	-0.49783942
232	0x3f0f0ba9	0.55877167
233	0x3eba4eb4	0.3638817
234	0xbd38ba4b	-0.045099538
235	0xbf28c6aa	-0.6592814
236	0xbd5f5ab0	-0.054529846
237	0x3dd0aa28	0.10188705
238	0xbd62a405	-0.055332202
239	0x3e17f7d3	0.14840631
240	0xbde2f08c	-0.11081037
241	0x3e9f73f8	0.31143165
242	0xbdeac65e	-0.11463617
243	0x3e9f76a5	0.31145206
244	0xbd469946	-0.048486017
245	0xbed89d64	-0.4230758
246	0x3dcf1853	0.10112061
247	0xbb59860b	-0.0033191468
248	0x3e7211a8	0.23639548
249	0x3c63f99f	0.013914495
250	0x3f046a51	0.51724726
251	0x3db66fb4	0.089080244
252	0x3e0ec929	0.13943924
253	0xbeadb964	-0.33930504
254	0xbec312e6	-0.38100356
255	0x3f0490f0	0.5178366

fc1.bias f4 [120]
0	0x3ff06b8c	1.8782821
1	0x3cb9f8c6	0.022701632
2	0xbfac4550	-1.3458652
3	0xbdbc6df6	-0.09200661
4	0xbdf38536	-0.11890642
5	0x3f857d58	1.0428877
6	0xbe5ed498	-0.21760786
7	0x3fafd08c	1.3735518
8	0xbbc0af70	-0.005880289
9	0xbdca0c0a	-0.098655775
10	0xbe6d35c9	-0.23165049
11	0xbc33b9da	-0.010969603
12	0x3e082750	0.13296247
13	0x3f3082f5	0.68949825
14	0xbec44f02	-0.38341528
15	0xbda11a03	-0.078662895
16	0xbdb35665	-0.08756713
17	0x3ed94a5c	0.42439544
18	0x3e595f4e	0.21227762
19	0x3eda29c0	0.42609978
20	0xbec1befc	-0.37841022
21	0xbf1ddb0d	-0.6166237
22	0x3f346f4d	0.7048233
23	0xbd9f80ac	-0.07788214
24	0xbb8d1c41	-0.0043063466
25	0xbd9e2fba	-0.07723947
26	0xbd060f3d	-0.032729376
27	0xbe18bfcb	-0.14916913
28	0x400c29de	2.1900554
29	0x3e119e38	0.14220512
30	0x3d0f79e9	0.035028372
31	0xbf672e4f	-0.90305036
32	0x3e61635d	0.2201056
33	0xbdde27de	-0.10847448
34	0xbde54838	-0.11195415
35	0x3f2c17ca	0.672238
36	0x3d4b0f8e	0.04957538
37	0xbe8cebb8	-0.2752359
38	0xbde49990	-0.11162102
39	0x3fb3827e	1.4024198
40	0xbd0c7a88	-0.034296542
41	0xbcc3235b	-0.02382057
42	0xbf062c08	-0.52410936
43	0x3a4abb49	0.0007733596
44	0xbd8f8550	-0.07007849
45	0x3d2d170f	0.04225832
46	0xbf9240ed	-1.1426064
47	0xbcfe2258	-0.031022236
48	0xbd277ad6	-0.04088863
49	0xbf30c996	-0.69057596
50	0xbf365ac0	-0.71232224
51	0x3e844913	0.25837
52	0xbd16f47e	-0.03685426
53	0xbf31fd41	-0.6952706
54	0x3de6ef29	0.11276085
55	0xbc8e1687	-0.017344726
56	0xbd5c871c	-0.053839788
57	0xbdbc748a	-0.092019156
58	0xbf04abd2	-0.51824677
59	0xbea40163	-0.32032308
60	0x3f6a7fcc	0.9160125
61	0xbccba23f	-0.024857638
62	0x3f026d1c	0.5094774
63	0xbdca1d64	-0.09868887
64	0x3e79a8b0	0.24380755
65	0xbf056352	-0.52104676
66	0xbf54e7e8	-0.8316636
67	0xbe338ee7	-0.17534982
68	0xbf0fa684	-0.5611346
69	0x3e53e0e1	0.20691253
70	0xbd247192	-0.04014737
71	0xbf41c25f	-0.7568721
72	0xbd244df0	-0.04011339
73	0xbed95174	-0.42444956
74	0xbc33458a	-0.010941872
75	0xbdae954b	-0.08524569
76	0x3ede0268	0.4336121
77	0xbcce4212	-0.02517799
78	0xbe1d61c4	-0.15369326
79	0xbfb1e315	-1.3897425
80	0x3e633c59	0.2219099
81	0xbdbfa3be	-0.09357403
82	0x3f70e746	0.94102895
83	0xbd249ba3	-0.04018749
84	0xbd1852f7	-0.037188496
85	0xbf5d2989	-0.863915
86	0xbdd2a143	-0.102846645
87	0xbd8933f3	-0.06699362
88	0x3e0e0287	0.13868152
89	0x3e088b59	0.13334407
90	0xbc9612fa	-0.018319596
91	0x3d31e835	0.04343434
92	0xbd9fe461	-0.07807232
93	0xbdee8dc1	-0.11648131
94	0xbd274ba4	-0.04084362
95	0x3f34c5ae	0.70614135
96	0xbd955e6e	-0.07293402
97	0xbf5b83f8	-0.85748243
98	0x3f1b7ab7	0.60734123
99	0x3f8201a2	1.0156748
100	0xbc37972e	-0.011205478
101	0x3f8dc14b	1.1074613
102	0x3f8e9ff7	1.1142567
103	0xbf4f62f4	-0.81010365
104	0x3f07dfd4	0.5307591
105	0xbe3bb50c	-0.18330783
106	0x3ed6ec69	0.41977242
107	0xbcf45350	-0.029824883
108	0x3fb8f6a8	1.4450274
109	0xbee97c2a	-0.45602542
110	0x3e999b2e	0.30001205
111	0xbd9f6b15	-0.07784096
112	0xbe00b675	-0.12569602
113	0x3e71fcf4	0.2363165
114	0xbe3597c3	-0.17733674
115	0xbf16edac	-0.5895641
116	0xbf2739c3	-0.6532251
117	0xbdb18f12	-0.086698666
118	0x3da04391	0.07825387
119	0x3e6dcb0a	0.23221985

fc2.weight f4 [84, 120]
0	0x3de7e77e	0.113234505
1	0xba63fd69	-0.0008697124
2	0x3e5d0b76	0.21586403
3	0x3c840241	0.016114356
4	0xbb4b2616	-0.0030998043
5	0x3e726cc5	0.23674305
6	0xbea706df	-0.3262243
7	0xbe80a6bd	-0.2512721
8	0x3d031f97	0.03201255
9	0xbba922c8	-0.005161617
10	0x3edfe063	0.4372588
11	0x3de374a3	0.11106231
12	0xbe2f9234	-0.17145616
13	0xbd89e354	-0.067328125
14	0x3ecab1d0	0.39588785
15	0x3e618dc9	0.22026743
16	0xbd17e0e7	-0.037079718
17	0x3ddabd29	0.10680611
18	0x3c34d031	0.011035965
19	0x3f0bec84	0.5465777
20	0x3e750fd7	0.23931824
21	0xbe94554f	-0.28971335
22	0x3eb7a088	0.35864663
23	0x3d11ae76	0.03556677
24	0x3d337b9c	0.043819055
25	0x3d8c87d8	0.06861848
26	0x3d072f35	0.033004005
27	0xbc362618	-0.011117481
28	0x3d2ef119	0.042710397
29	0xbdf36002	-0.118835464
30	0x3e0015d5	0.12508328
31	0x3e82ac30	0.25521994
32	0x3e54b134	0.20770723
33	0x3d49f9b1	0.04931039
34	0xbea8e4d8	-0.32987094
35	0x3e79fe18	0.24413335
36	0x3bf8271f	0.007573023
37	0xbc3c2ddc	-0.011485543
38	0xbce056bb	-0.027385106
39	0x3df5646f	0.11982047
40	0x3da6d816	0.08146684
41	0x3d797a4e	0.060907654
42	0x3e63589d	0.22201772
43	0xbe6ee2c2	-0.23328689
44	0xbd8e74e4	-0.06955889
45	0xbe8b9eae	-0.272695
46	0xbcf558dd	-0.0299496
47	0xbd2d2751	-0.042273823
48	0x3b75b520	0.0037491992
49	0xbf086b1a	-0.53288424
50	0xbc81b377	-0.015832646
51	0x3ee83ae8	0.45357442
52	0x3e3b02ea	0.1826283
53	0x3e2afb31	0.16697384
54	0xbe3bce1c	-0.18340343
55	0xbeee4618	-0.46537852
56	0x3d99f40c	0.07517251
57	0x3d091b72	0.03347344
58	0xbe17597a	-0.14780226
59	0x3f556e12	0.8337108
60	0xbf226497	-0.6343474
61	0xbdb29cb3	-0.08721294
62	0x3dc616c0	0.09672308
63	0xbe47093f	-0.19437121
64	0x3dda8efd	0.10671804
65	0xbe26be1a	-0.16283455
66	0x3f05f9fe	0.5233458
67	0x3e626678	0.22109401
68	0x3edf74cf	0.43643805
69	0x3e895b2c	0.2682737
70	0x3c52b5c4	0.012860719
71	0xbdc26f21	-0.094938524
72	0x3ccd951c	0.025095515
73	0x3e3fcf44	0.1873141
74	0xbb8e0584	-0.0043341536
75	0xbdc3ec07	-0.09566503
76	0xbda01747	-0.0781694
77	0x3d77c67f	0.060492035
78	0xbcfa48d3	-0.030552303
79	0xbdb4dffa	-0.08831783
80	0x3e1243b2	0.14283636
81	0x3c58b9ac	0.013227861
82	0xbe83645d	-0.2566251
83	0x3cfe6bde	0.031057294
84	0xbb4880ba	-0.0030594305
85	0x3e1656b8	0.14681518
86	0x3bca5f30	0.006175898
87	0x3d36725c	0.044542655
88	0x3e27db39	0.1639222
89	0xbb13896f	-0.0022512337
90	0x3d9d678e	0.07685767
91	0xbe8836ca	-0.266043
92	0x3ca880c9	0.020569222
93	0x3f05d5b6	0.5227922
94	0xbda9020a	-0.08252342
95	0x3d95a769	0.073073216
96	0xbdc903eb	-0.098152004
97	0xbd1aca44	-0.03779055
98	0x3dbfac49	0.09359033
99	0xbe9da2da	-0.30788308
100	0xbda1208e	-0.078675374
101	0x3dab0e7e	0.083523735
102	0xbd47f769	-0.048819933
103	0x3d8aed43	0.06783535
104	0xbe186d56	-0.14885458
105	0xbe493552	-0.19649246
106	0x3e826f08	0.25475335
107	0x3ab8724d	0.001407215
108	0x3b4245af	0.0029643585
109	0xbdce9a7a	-0.10088058
110	0xbe61328b	-0.21991937
111	0xbd66c551	-0.05634052
112	0x3e0bb0cc	0.13641661
113	0x3d8103a2	0.06299521
114	0xbdd48ae5	-0.103780545
115	0xbe29c014	-0.16577178
116	0x3c208e25	0.009799515
117	0xbcbc9e9e	-0.023024853
118	0xbe8d6ebf	-0.27623555
119	0xbee2d78d	-0.44305077
120	0xbdea4f29	-0.1144088
121	0xbd3bcf68	-0.045852095
122	0xbe792d94	-0.24333793
123	0x3d3fafe1	0.04679859
124	0xbe1f4298	-0.15552747
125	0xbe1aa383	-0.15101437
126	0xbe821393	-0.2540556
127	0x3ecc2c18	0.3987739
128	0xbae25988	-0.0017269114
129	0xbae6f488	-0.0017620483
130	0x3f201a49	0.6254011
131	0x3de0b938	0.10972828
132	0x3eba1018	0.36340404
133	0x3eda75e4	0.42668068
134	0x3e084e9d	0.13311239
135	0xbd17a9e2	-0.037027247
136	0x3c768571	0.015046463
137	0x3e400af5	0.1875418
138	0xbe5ae11e	-0.21374938
139	0x3f8b0f3e	1.0864027
140	0x3f1c0e23	0.6095907
141	0x3f13959e	0.5765017
142	0x3d171ada	0.036890842
143	0xbd9e3566	-0.07725029
144	0x3da7a3cc	0.08185539
145	0xbde34ecf	-0.11099016
146	0x3c79b07e	0.015239833
147	0x3dbe596a	0.09294398
148	0x3e2fe8b8	0.17178619
149	0x3eeb3c6e	0.45944542
150	0x3d50c6ee	0.050970964
151	0xbdf81ce1	-0.12114883
152	0x3ee3d2e0	0.44496822
153	0x3dc32121	0.09527803
154	0xbed72592	-0.4202085
155	0x3f05289b	0.52015084
156	0x3d5d3210	0.05400282
157	0x3e24e3e6	0.16102561
158	0x3e831984	0.25605404
159	0x3e3f9537	0.18709265
160	0x3d479003	0.048721325
161	0x3cd026c4	0.02540911
162	0x3e95b33f	0.29238316
163	0x3f16b455	0.58868915
164	0x3d736e88	0.059431583
165	0x3e817ee4	0.25292122
166	0x3e88337f	0.26601788
167	0xbd45615f	-0.048188563
168	0xbc239429	-0.009984055
169	0xbee6138b	-0.44936785
170	0x3e5a2e49	0.21306719
171	0x3f1b3f9e	0.6064395
172	0x3ed82727	0.4221737
173	0xbe220fdf	-0.15826367
174	0x3e9e08ff	0.30866238
175	0xbf1fb6c0	-0.6238823
176	0x3cb75d91	0.022383483
177	0x3d3ab23f	0.045580145
178	0x3eb0ade8	0.3450768
179	0x3f5f700e	0.87280357
180	0x3f182c78	0.59442854
181	0x3cdfe6e9	0.027331786
182	0x3ee16009	0.44018582
183	0xbc0ae66b	-0.0084777875
184	0x3f04c732	0.5186645
185	0xbe8b46d5	-0.27202478
186	0x3f7986d3	0.9747135
187	0x3e931367	0.2872574
188	0x3ea48f5a	0.3214062
189	0x3e9c7d08	0.3056414
190	0xbdc0bcdf	-0.09411024
191	0x3de63da2	0.11242224
192	0xbc92ca07	-0.0179186
193	0x3ea01638	0.31266952
194	0x3d8ff954	0.070299774
195	0xbbe7f111	-0.007078298
196	0xbef56108	-0.4792559
197	0x3daae635	0.0834469
198	0x3e3a237c	0.18177599
199	0x3f415840	0.75525284
200	0xbe1a824e	-0.1508877
201	0x3d142c66	0.036175154
202	0x3e652f88	0.22381413
203	0xbcb16fa6	-0.021659683
204	0xbcb213c8	-0.021737948
205	0x3eb9e287	0.3630564
206	0xbba65028	-0.0050754733
207	0x3cd07506	0.025446426
208	0x3dba1c08	0.09087378
209	0xbeab79ca	-0.33491355
210	0xbcfcb40b	-0.03084757
211	0x3e202a00	0.15641022
212	0x3d96303c	0.07333419
213	0x3f3ca908	0.7369542
214	0x3cbf1502	0.023325447
215	0x3e891ac6	0.2677824
216	0xbc3fd463	-0.011708352
217	0x3eea9265	0.45814815
218	0x3ea46820	0.3211069
219	0x3e0aa9ca	0.13541332
220	0xbc4776f2	-0.012174355
221	0xbcb8f25a	-0.0225765
222	0xbf05f730	-0.52330303
223	0x3e9b379f	0.30315873
224	0x3e835321	0.2564936
225	0x3efd4390	0.4946561
226	0x3e2e7b5a	0.17039242
227	0xb932abbc	-0.00017039379
228	0x3f07f2af	0.5310468
229	0x3e70928b	0.23493402
230	0xbe0a0fdf	-0.13482617
231	0xbd87bbdd	-0.06627629
232	0x3dc2a8a1	0.0950482
233	0x3d91dba4	0.07121971
234	0x3d11cfad	0.035598446
235	0xbe039a05	-0.12851723
236	0x3ea63b4e	0.3246712
237	0xbda28f72	-0.07937516
238	0x3ce16fd4	0.027519144
239	0xbf20d49b	-0.6282441
240	0x3ecf6e65	0.40513912
241	0x3dc9c911	0.098528035
242	0xbded83a0	-0.11597371
243	0xbd60021e	-0.05468952
244	0x3dd4eb35	0.10396425
245	0x3e3e5012	0.18585232
246	0xbe58a23f	-0.21155642
247	0xbf102b1d	-0.56315786
248	0xbdf39208	-0.118930876
249	0xbda9724e	-0.08273755
250	0x3f35f2f4	0.7107384
251	0x3c7a484d	0.015276027
252	0x3ed43715	0.41448274
253	0xbf63bef1	-0.8896323
254	0xbeca7188	-0.39539742
255	0x3d224be6	0.039623164

fc2.bias f4 [84]
0	0x3fc176de	1.51144
1	0x3fbfb286	1.4976356
2	0x3f1d0979	0.6134258
3	0xbed24d19	-0.41074446
4	0xbf00d026	-0.5031761
5	0x3f3d6c71	0.73993593
6	0xbf5d3dfa	-0.86422694
7	0xbbe915d0	-0.007113196
8	0xbea778a3	-0.32709226
9	0xbe38f6a7	-0.1806284
10	0xbe4c1460	-0.19929647
11	0x400084fe	2.0081172
12	0xbee43dca	-0.4457839
13	0x3e3d5b41	0.18491842
14	0xbe659d89	-0.22423376
15	0xbee64999	-0.44978026
16	0xbeb8e46d	-0.36111775
17	0xbf0b4648	-0.54404116
18	0x3f047d32	0.5175353
19	0xbed84fee	-0.42248482
20	0x3e3644d3	0.17799692
21	0xbf470b4c	-0.7775161
22	0x3d8447db	0.06459018
23	0x3f6abcc1	0.91694266
24	0x3ff98365	1.9493223
25	0xbce06737	-0.027392967
26	0xbeb31acd	-0.34981385
27	0x3c92e94b	0.017933508
28	0xbda7b7d9	-0.08189363
29	0xbec03583	-0.37540826
30	0xbe9339ea	-0.28755122
31	0xbfc233b8	-1.5172033
32	0xbf17e180	-0.5932846
33	0xbea264ea	-0.31717616
34	0xbe53c04c	-0.20678824
35	0xbe01e21b	-0.12683909
36	0x3df73903	0.12071421
37	0xbc10e641	-0.008843959
38	0x3fa1ffa4	1.265614
39	0xbe0b5ba9	-0.13609184
40	0xbf747065	-0.95484
41	0xbf485cad	-0.7826641
42	0xbf0e6837	-0.5562777
43	0x3f51e006	0.8198246
44	0x402963b8	2.6467113
45	0x3f2adeb0	0.66746044
46	0x3f1a4c2a	0.6027247
47	0x3e604a93	0.21903448
48	0xbf247bf1	-0.6425162
49	0xbf8bc415	-1.0919214
50	0xbef3b882	-0.47601706
51	0xbeb3351b	-0.35001454
52	0x402c325a	2.6905732
53	0x3f5dd1ad	0.86648065
54	0xbf103e0d	-0.5634468
55	0xbea4a2c9	-0.32155445
56	0xbf25cd21	-0.64766127
57	0xbf21c922	-0.6319753
58	0xbe49c0b5	-0.19702418
59	0xbf43a465	-0.7642272
60	0xbf1f40c3	-0.62208194
61	0x3f729e5b	0.9477288
62	0x3ddad0e9	0.10684378
63	0xbf3f5f94	-0.74755216
64	0xbf340742	-0.70323575
65	0xbef421f6	-0.4768216
66	0xbe9b19e5	-0.30293193
67	0xbc855ee4	-0.016280599
68	0x3e301f2b	0.1719939
69	0x3fa5a183	1.2939914
70	0xbf613e07	-0.8798527
71	0xbe946281	-0.28981403
72	0xbe77aeee	-0.24187824
73	0x3ef75123	0.4830409
74	0x3eb63b5d	0.35592166
75	0x3e402d5b	0.18767302
76	0xbf15f601	-0.585785
77	0xbeef152d	-0.46695843
78	0x3e4b2d93	0.19841604
79	0x4042884f	3.0395696
80	0x40057b18	2.085638
81	0xbf3af16a	-0.7302462
82	0x3fcb8b0d	1.590181
83	0xbd365af1	-0.044520322

fc3.weight f4 [10, 84]
0	0xbdce05d5	-0.10059706
1	0xbf9ea911	-1.2395345
2	0xbe4789ff	-0.19486235
3	0xbf71a47e	-0.9439162
4	0xc021ade3	-2.5262382
5	0xbe51532a	-0.20441881
6	0xbfb0c2e6	-1.3809478
7	0xbcab0cac	-0.020880066
8	0xbfef6435	-1.8702456
9	0xbd720ab2	-0.05909223
10	0xbd7494d3	-0.059712242
11	0xbe6dcf3a	-0.23223582
12	0xbf7d4ef0	-0.98948574
13	0xbde56979	-0.11201758
14	0xbec56155	-0.3855082
15	0xbfb7a64d	-1.4347626
16	0xbf8a349a	-1.0797303
17	0xbf98648c	-1.1905684
18	0xbf86501f	-1.0493201
19	0xbebc8bb6	-0.3682534
20	0xbf102115	-0.5630048
21	0xbf5d0ecf	-0.8635072
22	0xbfdabab8	-1.7088232
23	0xbe08fb12	-0.13377026
24	0xbeb93b0f	-0.3617787
25	0xbe0e34ec	-0.13887376
26	0xbef50980	-0.4785881
27	0xc006a058	-2.1035366
28	0xbde6b4da	-0.112649634
29	0xbfcecbe7	-1.6155976
30	0xbfcd652a	-1.6046498
31	0xbd387700	-0.045035362
32	0xbfd665e6	-1.6749847
33	0xc00bb9b9	-2.1832106
34	0xbfb785f6	-1.4337757
35	0xbf0db4ae	-0.5535382
36	0xbf0419a6	-0.51601636
37	0xbfc40bea	-1.5316136
38	0xbe08445c	-0.13307327
39	0xbca151c6	-0.019692313
40	0xbf8b8df6	-1.0902698
41	0xbe966315	-0.2937247
42	0xbfb19a3f	-1.3875197
43	0xbe242a40	-0.16031742
44	0xbec71b11	-0.38887838
45	0xbfb26cc9	-1.3939449
46	0xbe8a1d77	-0.26975605
47	0xbe3678f8	-0.17819583
48	0xc00de0ef	-2.2168539
49	0xbccc04cc	-0.024904631
50	0xbfa72010	-1.305666
51	0xbe862bf8	-0.2620542
52	0xbeeb35d8	-0.45939517
53	0xc0205345	-2.5050824
54	0xbea8be12	-0.32957512
55	0xbf09dc8a	-0.5385214
56	0xbfa1ce30	-1.2641048
57	0xbea236cd	-0.31682435
58	0xbdaf1122	-0.0854819
59	0xbf6a26c1	-0.91465384
60	0xbeeced91	-0.46275
61	0xbe3b588c	-0.18295497
62	0xbf4257d6	-0.75915277
63	0xbfc639c8	-1.5486383
64	0xbf23c9da	-0.63979876
65	0xbf2cb287	-0.6745991
66	0xbfa85d9b	-1.3153566
67	0xbf728fc7	-0.94750637
68	0xbf086370	-0.5327673
69	0xbf5b3923	-0.8563406
70	0xbf9b9f0d	-1.2157913
71	0xbe58b0bd	-0.2116117
72	0xbfd665cc	-1.6749816
73	0xbe13652e	-0.14394066
74	0xbf0bd0b5	-0.54615337
75	0xbfa51e16	-1.2899806
76	0xbf804679	-1.0021507
77	0xbf88b0c2	-1.0678942
78	0xbf3f44ac	-0.7471416
79	0xbe935ad5	-0.28780237
80	0xbe920071	-0.28515962
81	0xbff1f72c	-1.8903556
82	0xbec7bf73	-0.39013252
83	0xbe7233a8	-0.23652518
84	0xbe8cae7d	-0.27476874
85	0xbff4ad80	-1.9115448
86	0xbeb8a5c3	-0.36063966
87	0xbf44da38	-0.76895475
88	0xbeed21da	-0.4631489
89	0xbea56875	-0.32306257
90	0xbf1ba62c	-0.60800433
91	0xbe255752	-0.16146591
92	0xbf24545b	-0.64191216
93	0xbb96a554	-0.0045973454
94	0xbdd9c029	-0.10632355
95	0xbe808b66	-0.25106353
96	0xbfd73bbd	-1.6815106
97	0xbd15f87f	-0.036613937
98	0xbe98c0f8	-0.29834723
99	0xbda4382a	-0.08018525
100	0xbff29f5e	-1.8954885
101	0xbeaf58a3	-0.34247312
102	0xbf26716d	-0.65016824
103	0xbe9208e0	-0.28522396
104	0xbe6629e3	-0.22476916
105	0xbf9af82b	-1.2106985
106	0xbfa9b39a	-1.3257935
107	0xbe279376	-0.16364846
108	0xbfa6a866	-1.3020141
109	0xbe6064d2	-0.2191346
110	0xbfd156c9	-1.635461
111	0xbf10c9d2	-0.56557953
112	0xba8ec21e	-0.0010891592
113	0xbfc0e0bc	-1.5068583
114	0xbf6cc790	-0.9249201
115	0xbd3d8143	-0.04626585
116	0xbf22661d	-0.6343706
117	0xbfc04a34	-1.5022645
118	0xbf5f29da	-0.87173235
119	0xbea76ac9	-0.32698658
120	0xbf0a563b	-0.5403783
121	0xbe6346ea	-0.2219502
122	0xbc28e93f	-0.010309516
123	0xbdc1da61	-0.094654806
124	0xbf4ca9dd	-0.7994669
125	0xbfb57d5e	-1.4178884
126	0xbf979363	-1.1841854
127	0xbd9446d7	-0.07240074
128	0xbe40e467	-0.18837129
129	0xbe36613b	-0.17810528
130	0xbeb2877e	-0.34868997
131	0xbf309421	-0.68976027
132	0xbfcf9c80	-1.6219635
133	0xbe1a57ff	-0.1507263
134	0xbfbc9c1f	-1.4735144
135	0xbe8d616a	-0.27613384
136	0xbf272010	-0.652833
137	0xbf4c9f86	-0.79930913
138	0xbed3ec15	-0.41391054
139	0xbfa03cad	-1.2518517
140	0xbfd09d56	-1.6298015
141	0xbed8941f	-0.42300507
142	0xbe168a49	-0.14701189
143	0xbe75adff	-0.23992155
144	0xbefcc52f	-0.4936919
145	0xbf1e0ddb	-0.6173989
146	0xbf83b193	-1.0288566
147	0xbf8f9764	-1.1218076
148	0xbf8d25ae	-1.1027124
149	0xbebc204a	-0.36743385
150	0xbfb63165	-1.4233824
151	0xbf36ca93	-0.71402854
152	0xbf318965	-0.6935027
153	0xbf05fbec	-0.5233753
154	0xbec34ccd	-0.38144532
155	0xbe17109a	-0.14752427
156	0xbfaf2e64	-1.3686032
157	0xbe6be0d3	-0.23034982
158	0xbe7ff0e0	-0.2499423
159	0xbeea7038	-0.4578874
160	0xbec0e1ed	-0.37672368
161	0xbf4f9c8f	-0.81098264
162	0xbe683573	-0.2267664
163	0xbe3281dc	-0.1743235
164	0xbeb4524b	-0.35219035
165	0xbfb57932	-1.4177611
166	0xbe1f2b43	-0.15543847
167	0xbd86e18c	-0.065859884
168	0x3d56b895	0.052422125
169	0xbe2d3489	-0.16914572
170	0xbe0eb1c9	-0.13935007
171	0xbfe5b903	-1.7947086
172	0xbf536f73	-0.82591933
173	0xbe23b49b	-0.15986864
174	0xbf95c168	-1.1699648
175	0xbc49a27f	-0.0123068085
176	0xbf9a56b9	-1.2057716
177	0xbd9e355b	-0.077250205
178	0xbdc73695	-0.097272076
179	0xbe4005db	-0.18752234
180	0xbedcc951	-0.43122342
181	0xbe5a479a	-0.21316376
182	0xbe4a3a8d	-0.19748898
183	0xbf7e5600	-0.99349976
184	0xbfbb988d	-1.465593
185	0xbfa01cec	-1.2508826
186	0xbef97b89	-0.48727062
187	0xbed57f9a	-0.41698915
188	0xbf7c1bb1	-0.98479754
189	0xbf9a22f5	-1.2041918
190	0xbf3a0c47	-0.72674984
191	0xbe862ce9	-0.2620614
192	0xbe75162c	-0.23934239
193	0xbe2d7715	-0.16939957
194	0xbf33bbd4	-0.7020848
195	0xbfb90d0f	-1.445711
196	0xbe5a05b2	-0.21291235
197	0xbf78ce03	-0.9718935
198	0xbfdfc5af	-1.7482203
199	0xbc697035	-0.014247944
200	0xbfb0e4b7	-1.3819798
201	0xbf78c353	-0.9717304
202	0xbfa24456	-1.2677104
203	0xbef5c900	-0.48004913
204	0xbeba8825	-0.36431995
205	0xbfb39578	-1.4029989
206	0xbe824e58	-0.25450397
207	0xbe25be9d	-0.16185994
208	0xbf0fdc35	-0.56195384
209	0xbe837bb3	-0.25680313
210	0xbf9c541b	-1.2213167
211	0xbda5f6fb	-0.081037484
212	0xbded02cc	-0.11572799
213	0xbf75320a	-0.9577948
214	0xbe35c477	-0.17750727
215	0xbef2b509	-0.47403744
216	0xbf9fd707	-1.2487496
217	0xbe17c84e	-0.14822504
218	0xbf5c7a82	-0.8612443
219	0xbf0990f9	-0.53736836
220	0xbe4555ca	-0.19271007
221	0xbeb6bbde	-0.35690206
222	0xbf546405	-0.8296512
223	0xbed67a89	-0.41890362
224	0xbf92e709	-1.1476756
225	0xbea20f22	-0.3165217
226	0xbdf7d842	-0.12101795
227	0xbfe684bc	-1.8009257
228	0xbe1c1647	-0.15242873
229	0xbe1e1f66	-0.15441665
230	0xbf855dd2	-1.0419257
231	0xbf8f5fa6	-1.1201065
232	0xbeb7aa19	-0.35871962
233	0xbee2790b	-0.44232973
234	0xbf414017	-0.7548842
235	0xbf47d08a	-0.7805258
236	0xbf6f8cf1	-0.93574435
237	0xbf065890	-0.52478886
238	0xbfaed7b4	-1.3659577
239	0x3b588dc2	0.0033043479
240	0xbff45b51	-1.9090368
241	0xbe483d67	-0.19554673
242	0xbf0eb417	-0.55743545
243	0xbf85a9c3	-1.0442432
244	0xbe58e0da	-0.21179524
245	0xbf420d53	-0.7580158
246	0xbef9a7fb	-0.4876097
247	0xbe7d5827	-0.24740659
248	0xbe916564	-0.28397667
249	0xbfa8993f	-1.3171767
250	0xbe076b53	-0.13224535
251	0xbe4a9ac6	-0.19785604
252	0x3d2ec590	0.04266888
253	0xbe34563f	-0.17611025
254	0xbe8c4ce8	-0.27402425
255	0xbf70d0b4	-0.94068456

fc3.bias f4 [10]
0	0xbf4944d4	-0.7862065
1	0xbfb7f954	-1.4372964
2	0xbe1ac079	-0.15112485
3	0x3f27d375	0.6555703
4	0x3f9f6460	1.2452507
5	0xbd9d55a1	-0.07682348
6	0x3eb58940	0.35456276
7	0xbf114189	-0.56740624
8	0x3eb4c6f4	0.3530804
9	0x3cf614b9	0.030039178
